acgan_models/discriminator(500).pth (torch_old, 142746 bytes, 17 tensors)

model.0.weight f4 [16, 1, 3, 3]
000000 2d 93 1b 3c b9 07 0e 3e 46 f0 c6 3e 06 aa 80 3d
       0.009495539 0.13870133 0.3885519 0.062824294
000010 99 4b 7e 3e 14 bb 89 bc 76 9a 01 bf cd 1f da be
       0.24833526 -0.016812839 -0.50626314 -0.42602387
000020 68 5c b3 be 33 a5 f2 3e e4 97 ce bc c4 ad 8e bd
       -0.35031438 0.47391662 -0.025218911 -0.06966737
000030 9d ef c1 bd 22 f3 9f be e5 4a 31 3d fb aa c2 3e
       -0.09469531 -0.31240183 0.043284316 0.38021073
000040 a5 8f b9 3c 6d 46 b1 bc bb 3d 2c 3d b0 5b 17 be
       0.022651503 -0.021640027 0.04205106 -0.1478107
000050 f0 34 f2 bd d8 81 bc be 67 ea bb 3e 59 cf 2d 3e
       -0.11826503 -0.36817813 0.36702272 0.16973628
000060 39 ed 40 be 6b be 81 3e 04 3e 3b 3d 8f 45 d2 be
       -0.18840493 0.2534059 0.04571344 -0.41068694
000070 fd 69 95 3e c2 1a 52 be 21 e1 04 be 96 36 ce be
       0.29182425 -0.2051802 -0.12976505 -0.4027602
000080 e7 d3 95 be f9 b8 e1 bd 17 9a 99 3d 4f bf 44 be
       -0.2926323 -0.11021609 0.075000934 -0.19213603
000090 2e 99 a6 3e 28 b2 15 be 1c 3b a5 be d4 4e 84 bd
       0.32538742 -0.14618742 -0.3227166 -0.06460348
0000a0 96 30 92 be 06 29 fb 3d 3e 41 15 be dd 86 0f 3d
       -0.28552693 0.12263684 -0.14575669 0.035040725
0000b0 3c 3d e0 3e 04 a3 fd bd ce ee 5d 3d df 1e 25 3e
       0.43796718 -0.123846084 0.05418282 0.16125058
0000c0 49 0e 98 3e f7 cf 5a bd 51 59 a4 3e e3 e0 88 be
       0.296984 -0.053420987 0.32099393 -0.26734075
0000d0 3c 86 92 3e d3 fc c0 be b7 d1 0d 3f 2a a3 ce bd
       0.28618038 -0.3769289 0.55398124 -0.10089715
0000e0 37 b8 de bd 22 61 14 bf 90 d7 4a 3f 0d b7 68 bd
       -0.1087498 -0.5796071 0.7923517 -0.056815196
0000f0 d0 0f d0 3c cb 4b 5d be f0 80 0f 3e 89 03 ce be
       0.025398165 -0.21610944 0.1401403 -0.40237072
000100 1b f2 a2 3e e8 06 30 be 98 3a 82 3e f4 bc 44 3e
       0.31825337 -0.17190135 0.25435328 0.19212705
000110 ac a6 77 3e be da ad bd b6 95 94 bc 9a f3 2a 3e
       0.24184674 -0.084889874 -0.018137794 0.16694489
000120 5a 6b 7f 3e 59 f8 29 be 96 5d 83 be 6c db dd 3e
       0.24943295 -0.16598643 -0.25657338 0.43331468
000130 4f c4 06 bb 78 87 c1 3d 03 f8 e7 bd e4 16 91 3e
       -0.0020563786 0.09449667 -0.11326601 0.28337777
000140 cc 57 16 3e 46 16 04 3e e3 0a 31 3e 37 12 d3 be
       0.1468193 0.12899122 0.17289309 -0.41224834
000150 9d 2c 51 3e ea e1 b2 3e 56 b3 df be 06 84 98 bd
       0.20427175 0.34937984 -0.4369151 -0.074470565
000160 12 78 13 3e 2f 57 9d bd 27 c9 b4 bc 9f 73 9d 3d
       0.14401272 -0.076826446 -0.022068573 0.076880686
000170 f1 0e 50 3e 62 5d de 3d bf d0 fb 3e 0c cf bd bc
       0.203182 0.10857655 0.49182698 -0.023170017
000180 24 3d a8 be 31 08 9c be 78 65 c2 3d 83 cf a4 3d
       -0.32859147 -0.30475 0.0949201 0.08047392
000190 58 ad 86 3e 45 e4 bd 3e 47 2c af be a3 62 e1 be
       0.26304126 0.37088218 -0.34213468 -0.44020566
0001a0 f1 52 f6 3d 65 a3 fb bb 4d 9b 81 be ee d9 69 3d
       0.120275386 -0.0076793903 -0.25313798 0.0570926
0001b0 78 c2 11 3e f6 41 6a be 3a 9f 8d bd ce 65 dd 3d
       0.1423434 -0.22876725 -0.06915136 0.10810433
0001c0 55 d3 04 bf c8 cb c1 3e e9 b3 27 be 5f 14 5c be
       -0.5188497 0.37850785 -0.16377224 -0.21492146
0001d0 87 25 de 3c 1c 8f d0 be 84 42 d5 be f6 88 a8 be
       0.027117504 -0.40734184 -0.4165231 -0.32916993
0001e0 56 c7 0c 3e 0e 37 ef 3d a0 0d 8f be 51 76 68 3e
       0.13747916 0.11680423 -0.27940083 0.22701384
0001f0 ac e0 a8 3e ac 36 ad 3d 80 64 5d bd 47 a4 29 3c
       0.3298391 0.084576935 -0.054050922 0.010354108
000200 f0 7e a3 3e e5 06 11 bc fa cb 9e 3e b4 ed 9a bd
       0.31932783 -0.008851741 0.31014997 -0.075648695
000210 c5 d8 b6 3e a4 fd 1c 3d e0 8f ab be bf ad 82 3e
       0.35712257 0.038327828 -0.33508205 0.25523183
000220 38 a2 85 bd 5c 8a d5 bd b9 7f 32 bf 82 e7 06 bc
       -0.065250814 -0.104267806 -0.6972614 -0.008233907
000230 87 55 67 be 1a 64 0c be c3 ed cd bd 98 bc 92 3e
       -0.2259122 -0.1371006 -0.10055115 0.2865951

model.0.bias f4 [16]
000000 76 b0 f4 be 92 30 f9 bb 0d 75 35 3d 33 11 60 bf
       -0.4779088 -0.007604667 0.04430108 -0.87526244
000010 99 55 71 bc 2d da 8b 3e 2e 73 43 bd a2 22 f3 3e
       -0.014729881 0.27314892 -0.047717266 0.4748736
000020 0a 0b 41 bd 28 b6 cd bb f0 09 6b 3e 21 f7 45 be
       -0.04712967 -0.006277818 0.2295301 -0.19332553
000030 08 a9 ec be ce 4b f7 be 08 fe f1 bc e3 f3 31 bf
       -0.4622271 -0.48300022 -0.029540077 -0.69512767

model.3.weight f4 [32, 16, 3, 3]
000000 f6 73 d0 be c3 a3 69 be a2 25 1e 3e 2c 41 eb be
       -0.4071347 -0.22816376 0.15444043 -0.4594816
000010 c4 f1 54 3e ff 94 00 3e 58 01 96 be 90 ab 33 3e
       0.20795351 0.12556837 -0.292979 0.17545915
000020 a3 be 8a 3d 90 16 82 be de 2e 5d be 37 aa e4 bd
       0.06774642 -0.2540784 -0.2159991 -0.111652784
000030 ed 46 f2 3d c6 ce 38 3d b4 d9 76 3d 49 a0 22 3e
       0.11829934 0.04511907 0.06026621 0.15881456
000040 97 3d 6c 3e 47 3e b9 3a f8 cb e8 3d a5 62 07 bd
       0.2307037 0.001413294 0.11367029 -0.03305306
000050 62 b8 23 3e a6 57 d7 3c 6b 2e 51 3d 9b 6b 16 be
       0.15988305 0.026286911 0.05106966 -0.14689486
000060 f3 98 18 be 74 33 22 be 44 63 c6 bd b0 02 4f 3e
       -0.14902095 -0.1583994 -0.09686902 0.20215869
000070 f3 59 c0 ba 9f b8 a5 be 15 d1 2f 3d 31 9c f6 be
       -0.0014675244 -0.32367417 0.042924006 -0.4816604
000080 92 7c 0a 3e 47 01 93 be a4 37 65 3d ec 6c 4d 3e
       0.13524082 -0.28711912 0.055961266 0.20061082
000090 95 bb 44 bd 91 77 87 3d 46 6e 9e 3e e8 ba 41 be
       -0.048030455 0.06614602 0.30943507 -0.18918955
0000a0 fc 8a af 3d 1e 99 91 3e 14 d9 63 be 33 dc ef bd
       0.08571431 0.28437132 -0.22250777 -0.117119215
0000b0 4c f3 81 3e f6 2c 6e be fd f4 7d bd 5b 9a 39 3e
       0.25380933 -0.23259339 -0.062001217 0.18125288
0000c0 75 6c bd 3d e3 18 7d 3d 50 83 90 bd e5 17 c2 3d
       0.09249202 0.061791312 -0.07056296 0.09477214
0000d0 45 65 b5 3c 7f 45 33 be de 51 b3 3c 65 46 08 bd
       0.022143016 -0.1750698 0.021889623 -0.03327026
0000e0 a6 6b 2f bd c0 19 2c bd f5 9d e1 bd 41 dd fc bd
       -0.04282727 -0.042016745 -0.11016456 -0.12346888
0000f0 28 2e 72 bd c6 fe 16 3e d4 4b 99 3d 07 b3 41 bd
       -0.05912605 0.14745626 0.07485166 -0.047289874
000100 3d e6 c3 3d cd 7d 8b 3d 4d 09 6f 3d c9 e3 8e bb
       0.09565399 0.06811104 0.05835848 -0.00436065
000110 65 d7 b4 bd 64 55 2e bb 32 fe 0d bd 20 e9 b2 bd
       -0.08830146 -0.002660119 -0.034666248 -0.08735871
000120 c1 6d a7 3d cc 85 2a 3e 49 4b 15 bd 13 bc 9d bc
       0.08175231 0.16652602 -0.03644875 -0.01925472
000130 43 62 01 3d 2f 8f 84 3d 70 ae 34 3d 73 af 40 3d
       0.03158785 0.064726226 0.04411167 0.04704232
000140 85 92 16 bb 3f 11 1e be 9e eb 0f 3c 49 ad e1 bd
       -0.0022975516 -0.15436266 0.008784203 -0.1101938
000150 52 93 b8 bd 43 ea d9 3b d3 6c 18 3e e6 ee b2 3d
       -0.09012474 0.0066502406 0.14885263 0.087369725
000160 cd cb d1 3d fd 99 ed 3d a0 41 49 be bb de 44 be
       0.1024395 0.116016366 -0.1965394 -0.1922559
000170 db 1f ee 3d da a7 c8 bd 12 70 09 3d a6 c8 67 bc
       0.1162717 -0.0979764 0.033554144 -0.014146959
000180 58 a1 08 3e ad d0 9a 3d ed c7 a4 3b da 4e 50 3d
       0.13342798 0.07559333 0.005028716 0.05085645
000190 a6 97 a0 be 54 81 4e be da 54 b3 be c1 2c f2 bd
       -0.313657 -0.20166522 -0.35025674 -0.118249424
0001a0 88 2a f7 3d 8b 23 52 be 47 ba 5c 3d 48 29 0f bd
       0.12068659 -0.20521371 0.053888585 -0.03495148
0001b0 61 b1 19 bc c4 f0 a6 bd a3 f4 8e be 8b ce 2a bd
       -0.009380669 -0.08151391 -0.27921018 -0.04170088
0001c0 cd 6c 95 be c4 13 8f bd 0f a5 b6 bd 41 8b fb bc
       -0.2918457 -0.06986192 -0.08918201 -0.03070605
0001d0 8e 72 34 3e 11 cf 67 bc dd 92 46 be 24 8a 7e 3d
       0.17621824 -0.01414849 -0.19391961 0.06214346
0001e0 dc 31 0f be 12 d2 0c be b9 e0 21 3d ef 36 24 be
       -0.13983864 -0.1375201 0.039520953 -0.1603658
0001f0 c0 c7 47 bd 08 44 a1 3e c0 4c 9f bb 25 1f 6d 3e
       -0.04877448 0.31497216 -0.0048614442 0.23156412
000200 0c 35 46 3e fa ec 82 3e 61 71 c4 3d fd d4 48 bc
       0.19356173 0.25571424 0.09591938 -0.012257812
000210 65 08 bc 3d 62 81 1d 3e 18 39 51 bd bf 93 53 3c
       0.09181289 0.15381387 -0.05107984 0.012913643
000220 00 5e 68 3e 08 74 32 be 1d f5 53 3d 3f b5 e7 bd
       0.22692108 -0.17427075 0.05174743 -0.11313867
000230 cb e0 a8 bd 52 68 ae be b6 9c 76 bd 03 57 80 3d
       -0.08246001 -0.34063965 -0.060208045 0.06266596
000240 86 2d df 3c a0 24 b6 bd 4e 52 d2 3c 89 e1 86 3d
       0.027243387 -0.088937044 0.025674012 0.06585986
000250 c8 e1 bd be 3d 42 20 3e 63 eb 0d bd c7 10 0b be
       -0.3708632 0.15650268 -0.03464831 -0.13580619
000260 54 36 d9 3d 81 13 64 3e f1 a4 89 3d 3b f8 ac bd
       0.106060654 0.22273065 0.06720913 -0.08445784
000270 36 e4 c0 bd 6a 41 ab bd d5 39 75 be c9 4b 2f be
       -0.09418528 -0.08362086 -0.23947842 -0.17118753
000280 88 05 db be 29 1b 9e 3d 5f 71 fd bd ec 75 d6 be
       -0.42777658 0.07720024 -0.123751394 -0.41886842
000290 c6 15 49 be 14 50 ee be cf 20 20 3e 51 eb 23 3e
       -0.19637212 -0.4654547 0.15637515 0.16007735
0002a0 11 52 30 be 75 ed 47 3e 84 6e d0 3d 92 59 1a be
       -0.17218806 0.19524176 0.10177329 -0.15073231
0002b0 74 ab 22 3c a8 91 0b 3e 8d 40 a8 3d 28 16 61 3d
       0.009928573 0.13629782 0.08215437 0.05495277
0002c0 16 b9 b2 bd f9 57 11 3e 42 14 a8 bd 35 b1 9d bd
       -0.087267086 0.14193715 -0.08206989 -0.07699815
0002d0 3b 0e ed bd 8f 39 de 3d 45 11 43 3d cb 74 6d 3d
       -0.1157498 0.10850822 0.04762389 0.05797271
0002e0 55 bb df 3d 51 88 d7 3d b4 10 67 bd 5e 94 9d 3c
       0.109244026 0.10524047 -0.056412414 0.019235786
0002f0 67 57 96 3d ca d2 c8 3d a4 9b 4d bd b8 ea 14 be
       0.073408894 0.0980583 -0.05019726 -0.14542663
000300 82 59 14 bc 55 0e 7b be 7f 99 02 3e 36 55 bd be
       -0.009054543 -0.24517186 0.12753867 -0.36979073
000310 5a 46 be 3d 16 10 8f 3d 77 d0 00 3e d8 12 a4 bc
       0.09290762 0.0698549 0.12579523 -0.020028517
000320 ff 0f 23 bd f4 79 d6 bd 94 96 84 be c9 ab f7 bd
       -0.039810177 -0.104724795 -0.25896132 -0.12093312
000330 54 7d 61 be 1b 5f 8a 3d de 12 51 3d 95 3e af 3d
       -0.22020465 0.06756421 0.051043384 0.085568585
000340 3e 03 49 bc b9 af 0b be 5c 7c 31 be 26 ce e5 bd
       -0.012268839 -0.13641252 -0.17332596 -0.1122096
000350 32 fb 14 3e b3 b0 82 be 96 28 ff 3d 6a 06 21 3c
       0.14548948 -0.25525436 0.12458913 0.009828189
000360 51 ce 15 3e fb 9c 74 bd 2f 5d a7 bc 8e a6 4a bd
       0.14629485 -0.05972002 -0.020430176 -0.049475245
000370 8f 37 89 be a3 d5 bb 3c 5e 62 4d be 06 30 22 be
       -0.268002 0.022929018 -0.20057055 -0.15838632
000380 a1 52 d7 3d c2 ff 27 3e dd 90 b4 3d 78 02 51 be
       0.10513807 0.16406158 0.08816693 -0.20411098
000390 ae 90 3e bd 62 3c b6 be eb 1f 28 be 72 25 5d bc
       -0.046524696 -0.35592943 -0.16418426 -0.013497697
0003a0 e6 2a 09 3e ce 8b 3f 3d d9 32 88 3d de 6a 6c 3d
       0.1339527 0.046764188 0.066503234 0.057719104
0003b0 86 76 be bd 21 aa b4 3d 28 7b b9 be c3 af 95 3c
       -0.0929995 0.08821512 -0.36226773 0.018272286
0003c0 1a 18 bb be 5b 9f dd 3d db 01 d3 3d 3a ae 63 3d
       -0.36541826 0.1082141 0.10303088 0.055586077
0003d0 ae e5 c5 3c 98 a5 84 bd 19 40 26 be 44 49 ec bd
       0.024157371 -0.06476897 -0.16235389 -0.11537412
0003e0 56 c8 d7 bd 35 3b ef bd f0 6e 0d bc b9 86 b7 3d
       -0.10536258 -0.11681215 -0.008632407 0.08961243
0003f0 65 8c 8c bd 8d 60 9c 3b 7a ae 2c bd 82 e5 dd bd
       -0.06862716 0.004772252 -0.04215858 -0.10834791

model.3.bias f4 [32]
000000 54 38 1a be ca f1 6a be ee 3b fa bd c7 d4 b4 be
       -0.1506055 -0.22943798 -0.12218462 -0.35318586
000010 1c 28 b2 3d 86 33 5d be 1b 69 8c be 26 c3 98 bd
       0.086990565 -0.21601686 -0.2742394 -0.074590966
000020 b0 4d 81 be fc bd b6 3b 61 90 e8 bd 3c ca 53 be
       -0.25254583 0.005576847 -0.11355663 -0.20682615
000030 2b 06 13 be 87 03 87 bd 4f 29 9d bc 57 20 0b be
       -0.14357822 -0.0659247 -0.019184737 -0.13586555
000040 fd 4a a9 be 2c e1 22 be 06 e1 95 be cf 63 b2 be
       -0.33065024 -0.15906209 -0.29273242 -0.34841773
000050 cd 31 58 be cf b9 ec 3d 54 df 6c bc b6 b2 fd bd
       -0.21112747 0.11558878 -0.014457542 -0.12387602
000060 0e 4e c1 3e 5a 86 30 be cb bc ae bd 0c 03 6c be
       0.37754864 -0.17238751 -0.08532103 -0.23048037
000070 01 cd 95 be 5e 48 85 bd ac 63 85 3e e6 86 b2 be
       -0.29257968 -0.065079436 0.26052606 -0.34868544

model.6.weight f4 [32]
000000 31 13 37 3f 9d 7f 74 3f a0 d1 5a 3f ea 08 38 3f
       0.7151366 0.9550722 0.8547611 0.718886
000010 83 a5 44 3f 92 c5 24 3f cc ba 52 3f 04 b7 45 3f
       0.7681505 0.6436397 0.8231628 0.77232385
000020 39 d4 28 3f 80 69 4c 3f 09 a8 5d 3f 6a a2 53 3f
       0.65948826 0.7984848 0.86584526 0.826697
000030 ff cc 17 3f d3 1b 71 3f a5 b1 ef 3e aa e6 1c 3f
       0.59297174 0.9418308 0.4681522 0.61289465
000040 0f c1 64 3f 03 f5 43 3f ef ac 4e 3f 35 d7 57 3f
       0.89357084 0.76545733 0.80732626 0.84312755
000050 f4 2f 51 3f 1c 9c 28 3f 0b 4c 4c 3f a0 cc 5e 3f
       0.81713796 0.65863204 0.7980353 0.8703098
000060 e4 b8 63 3f 62 13 3c 3f 6e 69 25 3f 05 b4 72 3f
       0.88953996 0.73467076 0.64614 0.9480594
000070 73 75 34 3f 46 5d 50 3f 15 8e 21 3f 22 05 31 3f
       0.70491713 0.81392324 0.63107425 0.6914846

model.6.bias f4 [32]
000000 10 95 c2 bc d6 5c 04 3d d2 5b 29 3c 8d 33 f8 3d
       -0.02375272 0.032315098 0.010336833 0.121192075
000010 c5 d4 82 3d 48 55 80 bb 90 df 9a 3c 08 d4 c7 bc
       0.06388239 -0.0039164163 0.018905431 -0.024393097
000020 17 96 af 3d 91 21 a3 3d 7e 51 54 bd 00 0d 23 bd
       0.08573549 0.07965387 -0.05183553 -0.03980732
000030 d6 6f 5f bd b0 0b cc 3d 41 79 ae bd 24 f8 cc 3d
       -0.054550014 0.09963167 -0.08519221 0.100082666
000040 5e a9 81 3d 32 e0 8a 3d 85 2d 22 3e 18 0f 22 3e
       0.06331132 0.06781043 0.15837677 0.1582607
000050 6a 29 e9 3c 14 bd ba 3d 66 dd 73 3d 70 a4 2c 3e
       0.02846213 0.09118095 0.059537314 0.16859603
000060 f5 83 b6 bd 6d c9 01 be ad 5f 10 3e 22 2c 5b 3c
       -0.089118876 -0.12674494 0.14098997 0.013377221
000070 6e 2b 1a 3e b5 2e 25 3c e3 da 2a be b9 cf ef bb
       0.1505563 0.010081937 -0.16685061 -0.0073184636

model.6.running_mean f4 [32]
000000 cb eb 20 3d b8 95 18 3b 20 95 ef 3d 4a 1e 02 3d
       0.03928737 0.0023282599 0.11698365 0.031767167
000010 7d 41 c1 3d 71 c9 45 3d e8 8e 01 bc e2 13 1d 3e
       0.09436319 0.048287813 -0.007907607 0.15339616
000020 80 ae 3b 3d d7 4f 93 3d 51 94 e4 3c dd 93 b1 3c
       0.045820713 0.071929626 0.027902754 0.021676952
000030 e4 c3 ef 3d 9f a2 3e 3d 34 47 86 3d c6 76 5f 3d
       0.11707285 0.046541806 0.0655655 0.05455663
000040 a2 c7 4b bc ac 46 24 3e b4 ed a5 3c 4b 3a bf bc
       -0.012437733 0.16042584 0.020254947 -0.023343226
000050 93 26 ed 3c bc 47 0b 3e 44 cf 5c 3d 9c fd cd bc
       0.028949058 0.13601583 0.0539086 -0.025145344
000060 78 0d 4f 3e 84 9c 15 bd 92 0e 75 3d f4 bb 3a 3d
       0.20219982 -0.036526218 0.05982835 0.045589402
000070 4e 3d 8a 3d ed 39 45 3e 18 98 9c 3d ac bd 32 3d
       0.06749974 0.19260378 0.07646197 0.043637916

model.6.running_var f4 [32]
000000 a4 a3 82 3e 5f bb 06 3e bc b6 85 3e 98 dd 0a 3e
       0.25515473 0.13157414 0.26115978 0.13561094
000010 fc 39 5a 3e 74 fe 18 3e b4 41 3c 3e 19 6d 80 3e
       0.21311182 0.14940816 0.18384439 0.25083235
000020 9a 78 7f 3e a4 65 32 3e 5d ce e5 3d a2 0f e8 3d
       0.2494835 0.17421585 0.11221001 0.11331107
000030 36 0b a3 3e 17 84 20 3e ab 79 6d 3e 90 35 7c 3e
       0.3184449 0.15675388 0.23190944 0.24629807
000040 6b 84 bb 3d 5e 85 be 3e c0 6c 95 3e ba d7 29 3e
       0.09156116 0.37211126 0.29184532 0.165862
000050 b6 d3 5b 3e b0 dc 16 3f 9a ec 42 3e 78 5e c7 3d
       0.2146748 0.5893049 0.19035569 0.09734815
000060 f6 ad 73 3e c5 21 2b 3e 08 50 a4 3e d2 3d 48 3e
       0.2379683 0.16712101 0.3209231 0.19554833
000070 c6 61 68 3e 4e d0 bc 3e 2a ce 56 3e 19 b2 42 3e
       0.22693548 0.36877674 0.20977083 0.19013251

model.7.weight f4 [64, 32, 3, 3]
000000 13 ad 04 3e 8d 5d c4 be ed 4b f3 3d 76 d4 0d be
       0.12956648 -0.38352624 0.11879716 -0.13850579
000010 3b 10 45 be 67 02 53 be de 4b 68 3e d8 a5 14 3e
       -0.19244473 -0.20606385 0.22685191 0.1451639
000020 96 1f 89 be ea e9 9b 3d e3 7e cc bc f6 57 8f be
       -0.2678191 0.07612975 -0.024962848 -0.27996796
000030 0e 76 e7 3c d2 b6 13 be 89 36 14 be 2a 55 1b 3e
       0.028254535 -0.14425209 -0.14473929 0.15169206
000040 b3 a2 a3 3d 47 6f 2c bd 56 8c 01 be 4d 55 32 3d
       0.07990017 -0.04209831 -0.1265119 0.04353838
000050 30 29 5a be 1f db 48 bb cf 0e 63 be 3e bc b6 bd
       -0.21304774 -0.0030648184 -0.22173618 -0.08922623
000060 89 78 5c 3e 07 92 23 be 84 69 16 be c9 0c 1e 3e
       0.21530356 -0.15973674 -0.14688689 0.15434565
000070 9e fb 5d be d8 00 99 bd 04 29 42 3c 5e e9 fe 3d
       -0.21678016 -0.07470864 0.011850599 0.12446855
000080 89 75 b6 3d 80 eb fd 3d fb d6 c5 3d f2 58 0b bd
       0.08909137 0.12398434 0.09660145 -0.03402037
000090 83 38 4b bd ee 92 75 be 2a be b7 3d 97 a4 96 bd
       -0.04961444 -0.2398183 0.08971818 -0.07355612
0000a0 c5 9b 66 3c df 10 6e bd 56 93 5f be 1a fc a2 bd
       0.014075224 -0.05812156 -0.21833548 -0.07958241
0000b0 80 f5 ae 3d 4d 17 59 be 39 00 a3 bd 1f 2a 0d be
       0.08542919 -0.21200295 -0.07959027 -0.13785599
0000c0 57 6c 53 be aa 65 99 be ed 84 99 be 9f 90 38 be
       -0.20646797 -0.29960376 -0.29984227 -0.18023919
0000d0 5d e2 27 be ab 30 77 be 41 5c a4 3e e6 c7 d4 3d
       -0.16394944 -0.24139659 0.32101634 0.1038969
0000e0 39 6f 07 3e 2e 16 d2 bd 5d 13 35 3e d2 5c 8c 3d
       0.13226022 -0.10258137 0.17683168 0.068536416
0000f0 ad 60 16 be 03 f5 9d 3d 05 96 7d 3e ef a2 78 be
       -0.14685316 0.07712748 0.24764259 -0.24280904
000100 7c ef a3 3d d5 4e 85 3d 18 96 a9 3b 73 0f 57 3e
       0.080046624 0.06509177 0.0051753633 0.21001987
000110 38 f6 47 bd 27 1a a7 3c c9 a6 68 3d 26 64 79 be
       -0.048818797 0.020398213 0.056799684 -0.2435461
000120 f0 ff 0d 3e b4 7d 40 3e d5 d9 88 3e e0 08 66 3e
       0.13867164 0.18797952 0.26728693 0.22464323
000130 f3 69 6d 3e 10 17 8e 3e 59 af a0 bc 5b b4 4f 3d
       0.23184948 0.2775197 -0.019614862 0.05070911
000140 2d 1e 74 3e 45 13 64 bc 31 ac e9 bd 27 a3 25 3d
       0.23839636 -0.01392061 -0.11409796 0.040438797
000150 1a 98 79 3d f6 1e 88 3d 55 5b 14 3e 75 c5 1e 3d
       0.06093607 0.0664653 0.14487965 0.03876253
000160 9c 0c a8 3c f0 55 7f bd 65 fe 7b 3e 70 04 b6 bd
       0.020513825 -0.062337816 0.24608763 -0.08887565
000170 5b 64 9c bd 77 77 54 3d 22 b5 83 3d 3e e9 7e 3d
       -0.07636329 0.051871743 0.06431033 0.062234156
000180 5b 16 38 3c 71 bd d9 bb 44 b7 d9 bc b5 4d 4f be
       0.011235799 -0.0066448976 -0.026576646 -0.20244487
000190 c9 d9 76 3c 5f e3 27 be 53 33 80 3e 8d 6b 4e be
       0.015066572 -0.16395329 0.25039157 -0.20158215
0001a0 5e 73 13 3e 67 e8 8f be 09 da 8f 3d d4 be bb bd
       0.14399478 -0.28106996 0.07024009 -0.09167257
0001b0 b4 8f 7c 3e b7 9a 43 bd e3 d1 33 3e 23 3b 3a 3e
       0.24664193 -0.04775497 0.17560534 0.18186621
0001c0 bb 2b 50 bd c3 47 d4 3d a0 d5 21 be d2 42 d2 bc
       -0.050822955 0.1036525 -0.15804148 -0.025666628
0001d0 48 15 cf bd 73 ac 79 3e c1 f5 8c bc f6 d5 21 be
       -0.10111481 0.2438219 -0.017207028 -0.15804276
0001e0 81 75 9c 3e 2a a3 a5 bd f8 34 7f be ac fb a8 3d
       0.30558398 -0.08087762 -0.2492255 0.082511276
0001f0 15 a7 1f be 21 6f e7 bd 30 01 9a be 76 96 57 bd
       -0.1559108 -0.11300493 -0.3007903 -0.052633725
000200 d4 49 84 bc 45 dd 9f 3c ff 09 1a 3e 8f 07 55 3d
       -0.016148485 0.01951469 0.15042876 0.05200916
000210 1e 2e f3 bc a3 cf a2 be 87 e8 c1 3d 26 a0 33 be
       -0.029685076 -0.3179904 0.09468179 -0.1754156
000220 ce 50 13 be 54 d3 41 be bb 2e d6 bb 64 b7 88 be
       -0.14386293 -0.18928272 -0.0065363324 -0.26702416
000230 f9 e5 8d bd aa 52 52 3d 94 65 68 3e cc 25 eb 3d
       -0.069286294 0.051348366 0.22694999 0.114818186
000240 27 ca 5c 3d 51 e4 91 bc f1 f2 95 be 7a 63 12 3e
       0.053903725 -0.017809065 -0.29286912 0.1429576
000250 7a 60 0c be 9b 1d 92 bd 30 f4 a6 be a0 8e 53 3e
       -0.13708678 -0.07134553 -0.32608175 0.20659876
000260 2d 7d 8a 3d 76 b8 30 bd 37 64 98 bd 2f ba 69 be
       0.06762157 -0.043144666 -0.074409895 -0.2282493
000270 fe dd 6e 3b cb 4d c5 bc f2 88 10 be 7a 4e ef 3c
       0.0036448236 -0.024084946 -0.1411474 0.029212225
000280 6a 53 1f 3e f1 fa 3e be 70 7f d9 bc a5 1f 94 3d
       0.15559164 -0.18650414 -0.026550025 0.07232598
000290 8a 09 69 3d 4e 08 3b 3d 15 ae 41 3e bb bf 30 be
       0.056893863 0.045662217 0.18914063 -0.1726064
0002a0 2e e6 c1 3d 51 40 a1 bd 8b 8b 3b 3d f7 7b a6 bc
       0.094677314 -0.078735955 0.045787375 -0.020322783
0002b0 e6 13 83 bd d6 c6 01 be 2a e4 42 3e 2e fd 72 bc
       -0.0640028 -0.12673506 0.1903235 -0.014830871
0002c0 19 21 28 be 05 c3 db bc df 83 5b bd 19 2b cd 3d
       -0.16418876 -0.026826391 -0.05359256 0.10017986
0002d0 45 cb 02 3e 23 7d 3a 3d e6 0d d7 3c 83 1d e2 3e
       0.12772854 0.045529496 0.026251744 0.4416314
0002e0 85 b8 5d bd 03 25 0d be da 03 ef 3c c4 c8 d5 3d
       -0.05413105 -0.1378365 0.029176641 0.10438684
0002f0 17 1d bd 3d c1 69 46 be e8 f0 45 be b3 d0 c4 bb
       0.09234064 -0.1937628 -0.1933018 -0.006006324
000300 1e 57 b0 be 9a 04 1c bd 6e d2 4d be f6 dd af 3e
       -0.34441465 -0.038090326 -0.20099804 0.3434903
000310 2e af 7e be cc 78 05 be 52 08 ab 3d 1c 99 36 3e
       -0.24871513 -0.13034362 0.08351196 0.17831844
000320 cc c1 27 3e 54 7e e5 3c 11 2b 8a 3e 30 ac 8d 3e
       0.16382521 0.02801434 0.26985982 0.2767043
000330 40 60 dd 3e 1f 1f 2a bb b3 53 b5 bd f9 15 77 bd
       0.43237495 -0.002595849 -0.08853855 -0.06032369
000340 1a 42 ff bd 41 75 02 bd 1c b1 8b 3d 8c 05 a6 be
       -0.1246378 -0.031850103 0.0682089 -0.32426107
000350 ae b3 c6 be fe eb fc 3d 20 18 07 bf ce 8d c1 bc
       -0.3880896 0.123496994 -0.52771187 -0.023627188
000360 93 89 ce be ce 22 a3 bd 7b 42 7b 3d 3b 1c 05 3e
       -0.40339336 -0.07965623 0.061342698 0.1299905
000370 fc 75 04 bc b6 ad 22 be ae ee ca 3e d8 92 ac bd
       -0.00808477 -0.15886578 0.39635223 -0.08426446
000380 06 21 a9 3d 3a 56 86 3d f5 47 b2 3d 91 ff c8 bc
       0.08258252 0.06559415 0.08705131 -0.024535926
000390 d2 06 7d 3e 76 8d 7c 3d 0a 60 19 3e 34 fd d0 bc
       0.24709633 0.061658345 0.14978042 -0.025511362
0003a0 10 25 8f 3d ed 84 8b be 00 22 61 bc 68 4b 66 3d
       0.06989491 -0.27249852 -0.013741016 0.056224257
0003b0 20 7f 01 be 68 81 88 3d 21 0d 1d 3e 6e 90 52 3d
       -0.1264615 0.06665307 0.1533704 0.05140727
0003c0 1d 9e 0b bd 87 cd 13 bd 02 eb 22 3e 76 d5 ab bd
       -0.034086335 -0.036084678 0.15909961 -0.08390324
0003d0 0b 15 ce bd b4 16 2e be 05 15 17 3c fa 7a 89 3d
       -0.100626074 -0.17000848 0.00922132 0.06712909
0003e0 e5 1c 89 be 37 16 80 bd fd 37 83 bb 2b 8d dd 3d
       -0.26779857 -0.06254237 -0.004004477 0.10817941
0003f0 0b f8 1d 3d e6 0c 69 3e 7c 42 e9 bd de 2a 04 bd
       0.03856663 0.22758827 -0.11389634 -0.032267444

model.7.bias f4 [64]
000000 27 f4 4c be 44 9d b2 bd 44 73 5a be 67 cf 4a be
       -0.20015012 -0.08721402 -0.21333033 -0.1980568
000010 b4 e2 c6 bd 73 cf 24 be 68 04 52 be 91 d0 ea bd
       -0.09711209 -0.1609476 -0.20509493 -0.11465562
000020 2b d3 0f 3d f2 a1 f2 bd 04 98 cc 3c 36 ff 36 be
       0.035113495 -0.11847295 0.02497483 -0.17870793
000030 05 1b 99 bd d6 81 5d be a7 69 84 be 24 b9 2e be
       -0.07475857 -0.2163156 -0.25861856 -0.17062813
000040 43 dc 17 be 99 cd 0e be d6 d6 fe bc d3 df c6 bd
       -0.14830117 -0.13945617 -0.031108301 -0.0971066
000050 da 84 2c be 6e f7 9b 3d 21 01 5c bd 4d 6e 9a bd
       -0.16847554 0.07615553 -0.053712014 -0.075405695
000060 45 ef 33 bd 76 ed 27 bc 0b a5 7b bc d2 b9 70 bd
       -0.043929357 -0.010249486 -0.0153591735 -0.058770962
000070 27 25 b9 bd 5a 18 72 be d0 8f 78 be 94 92 c4 bd
       -0.09040289 -0.23642102 -0.2427361 -0.0959827
000080 1f 3f 7f 3d 87 d0 6b bd 2f a6 88 be 2a dc a6 be
       0.062316056 -0.057571914 -0.26689288 -0.32589847
000090 b7 62 ec bd 5c 68 14 be 42 88 17 be 5f 76 96 bd
       -0.11542266 -0.14492935 -0.14798072 -0.07346796
0000a0 c9 b2 16 3e eb a6 1d bd 9b 73 82 b9 ce d7 09 bd
       0.14716639 -0.038489264 -0.00024881665 -0.033653073
0000b0 6e f2 a3 3b 64 b9 22 bd e8 a3 16 bf 0d 13 4c be
       0.005003265 -0.039727584 -0.5884385 -0.19929142
0000c0 4c 5f 5c be b6 35 77 3d 2a 9a 23 be f1 70 79 be
       -0.21520728 0.060353957 -0.15976778 -0.2435949
0000d0 75 be d7 bd 12 5c f9 bd a6 76 b5 3d 6b 59 00 bd
       -0.10534374 -0.12175764 0.08860521 -0.031335276
0000e0 70 c4 09 be 16 71 67 bd f6 34 48 be 4a c7 0e be
       -0.13453841 -0.05650433 -0.19551453 -0.1394321
0000f0 03 de 7a bc 1d 79 2a bd 04 10 14 bd 52 fc 01 be
       -0.015311721 -0.04161941 -0.036148086 -0.12693909

model.10.weight f4 [64]
000000 2f 04 43 3e 0b fe 65 3f 34 a2 1e 3f 76 a0 2a 3f
       0.19044565 0.89840764 0.6196625 0.66651094
000010 bd 77 7e 3f ea 1e 04 3f c2 f4 09 3f 39 ef 16 3f
       0.99401456 0.5160967 0.53889096 0.58958775
000020 c2 50 78 3f f9 78 1a 3f 37 51 53 3f af 09 89 3e
       0.96998227 0.6034084 0.825458 0.267652
000030 a9 3c 2b 3f ee 63 42 3f 3b b1 73 3f 75 b7 6d 3f
       0.66889435 0.7593373 0.9519231 0.9285806
000040 de 02 50 3f 00 54 29 3f cc 45 ac 3e 21 28 f8 3e
       0.81254375 0.661438 0.33647 0.48468116
000050 88 53 37 3f 43 60 47 3f 15 42 1b 3f ff d5 4d 3f
       0.71611834 0.7788126 0.6064771 0.8040466
000060 e2 27 50 3f cf 9b 86 3f 19 20 7f 3f f1 d2 42 3f
       0.81310856 1.0516299 0.9965835 0.7610312
000070 89 0d 5f 3e fa ad 33 3f 94 a1 40 3f 1a 87 15 3f
       0.21782507 0.7018734 0.7524655 0.58409274
000080 87 ec 4a 3f 5c e1 7a 3f ea 49 34 3f 13 13 45 3f
       0.7926716 0.9800012 0.70425284 0.7698223
000090 0d 16 77 3f d3 a3 7c 3f 25 ca bc 3e e4 19 e3 3e
       0.9651802 0.98687476 0.36872974 0.4435569
0000a0 fe 3d 17 3f b4 16 3d 3f 09 ac 7a 3e fd 4f 69 3f
       0.5907897 0.7386277 0.24479689 0.9113768
0000b0 14 66 39 3f a8 e8 45 3f 67 39 eb 3e 9f e8 3d 3f
       0.72421384 0.7730813 0.45942232 0.74183077
0000c0 fa 0a 69 3f ba 3f 3e 3f 49 97 02 3f af 6f 7c 3f
       0.91032374 0.7431599 0.5101209 0.98607916
0000d0 65 49 4a 3f 40 05 6a 3f 20 a6 56 3f 8b d0 44 3f
       0.7901824 0.9141426 0.83847237 0.7688071
0000e0 83 0b 53 3f 56 19 51 3f 81 66 0e 3f 29 1a 83 3f
       0.8243944 0.81679285 0.5562516 1.0242358
0000f0 1b 9c 71 3f 82 99 7c 3f 5d 7b 70 3f 31 4b 35 3f
       0.94378823 0.98671734 0.9393824 0.7081786

model.10.bias f4 [64]
000000 ad 64 9a 3c b5 a8 b5 3d c8 96 01 3d 7b e6 bb 3d
       0.018846834 0.08870069 0.031637937 0.0917482
000010 8a d5 cb 3d 5a 92 b2 3d a2 e2 e6 bc 18 88 e2 3d
       0.09952839 0.087193206 -0.028184239 0.11061114
000020 63 2b 37 3d 81 c4 d3 3d 7f f8 de 3d 38 13 27 3d
       0.04471911 0.103402145 0.108872406 0.040789813
000030 c6 b2 74 3c ab 49 ca 3d d8 b4 a4 3d 5c f0 67 3d
       0.014935201 0.09877332 0.08042306 0.05662571
000040 15 63 e8 3d d7 e4 bf 3d 30 b4 40 3d 43 3d 35 3d
       0.113470234 0.093698196 0.04704684 0.044247877
000050 0c 86 26 3e 3a c4 96 3d 3e d5 4d 3d c2 61 79 3e
       0.16262072 0.07361646 0.05025219 0.24353698
000060 fd 86 32 3d 05 c3 99 3d 9c b2 45 3e 42 8a 06 3d
       0.043585766 0.075079 0.19306415 0.032846697
000070 e9 41 53 3c 43 7e 4b 3e 2a 2c aa 3d 10 3f f4 3d
       0.012894132 0.19872384 0.08309205 0.11926091
000080 42 c4 c2 3d 4f 6c da 3d 04 83 a7 3d 8a 26 37 3d
       0.095100895 0.106651895 0.08179286 0.044714488
000090 d8 1f 02 3e 22 30 e9 3c 07 ec f0 3c f5 75 5c 3d
       0.1270746 0.028465334 0.029409422 0.05382343
0000a0 9e e3 11 3d e4 7c a6 3d fd e6 0c bd de 2c 69 3d
       0.035617463 0.0812929 -0.034399975 0.056927554
0000b0 76 31 e5 3d 9e 69 a3 3d 7d a5 de 3c dd 04 c1 3d
       0.111910746 0.07979129 0.02717852 0.09424756
0000c0 23 cb ac 3d e9 0c 80 3d 1b 1a 09 3e 67 0a 95 3d
       0.08437183 0.062524624 0.13388865 0.07277375
0000d0 7d 1c 9a 3d 01 7e 64 3d 86 bb 8a 3d 72 7e 0f 3e
       0.07524965 0.05578423 0.067740485 0.14013079
0000e0 39 26 dd 3d d3 0a 35 bd 58 35 0a 3d bc 55 43 3e
       0.10798306 -0.044199776 0.03374228 0.19075674
0000f0 bc 9a c5 3d f9 d4 c4 3d b1 a9 ff 3d dd 05 0d 3e
       0.09648654 0.09610934 0.12483538 0.13771768

model.10.running_mean f4 [64]
000000 48 8d ed 3c 02 cc 62 3e da 0c 6f 3d 34 8c 40 3e
       0.028998032 0.22148135 0.058361866 0.18803483
000010 a1 69 89 3d e7 12 07 3f b2 6d ef bd dd ea 54 3e
       0.067096 0.5276322 -0.116908446 0.20792718
000020 a5 a0 b9 bb 94 bd 60 3e 70 ec 4a 3e 27 0e 05 3e
       -0.0056649023 0.21947318 0.19816756 0.1299368
000030 6d a2 22 3d 8c bd 20 3e 59 55 a7 3d 75 13 a4 3d
       0.039705683 0.15697306 0.08170576 0.08011524
000040 79 f9 fb 3d c8 9f 0a 3d 43 8d 16 3e 7a c6 c8 3d
       0.123034425 0.033843786 0.14702325 0.098034814
000050 00 f1 17 3e 70 c4 c1 3c ad e9 85 3d aa e8 99 3e
       0.14838028 0.023653239 0.06538711 0.3006032
000060 3d 11 2d 3e 22 f8 5a 3e e6 89 93 3e e7 d5 ad 3d
       0.16901107 0.21383718 0.28816146 0.08488064
000070 6a 6e 3a 3d 10 4d b2 3e 01 45 c4 3c 2f 97 dd 3d
       0.045515455 0.3482442 0.023958685 0.108198516
000080 7e 67 97 3e 2e f3 e3 3d d0 84 49 3d bf e9 3d 3d
       0.29571146 0.11130367 0.049198925 0.046365496
000090 b4 e9 5c 3e ff f9 da 3c 55 27 5a 3d 46 41 be 3d
       0.21573526 0.026730536 0.053260166 0.09289794
0000a0 dc f9 14 3e 0b b7 00 3d 8d c6 4b 3d a8 a4 c4 3c
       0.14548439 0.031424563 0.0497499 0.024004295
0000b0 e1 ef 51 3e 6b a8 cf bc f5 ee 34 3c 93 02 e4 3d
       0.20501663 -0.025348863 0.0110433 0.111333035
0000c0 4b 07 d4 3d d5 99 33 3e cf 8d c7 3e d1 3b f7 bc
       0.103529535 0.17539151 0.3897538 -0.03017989
0000d0 16 37 89 3d 09 88 35 3d e1 30 9e 3d 6f ec 18 3e
       0.0669996 0.044319186 0.07724167 0.14933942
0000e0 1d ed 89 3d 11 db a3 3d 06 8f 25 3e 5a fd be 3e
       0.06734679 0.08000768 0.1616784 0.37302667
0000f0 bf bf 46 3e af e1 4e 3e e5 13 29 3e fe 9d ea 3e
       0.19409083 0.20203279 0.16511495 0.45823663

model.10.running_var f4 [64]
000000 28 85 52 3e dc dd cf 3e d7 40 8e 3e be 42 28 3f
       0.20558608 0.40598953 0.27783844 0.6572684
000010 3b 16 a0 3e 5e ad a6 3f 1c 81 22 3e c0 80 1b 3f
       0.3126696 1.3021657 0.15869564 0.6074333
000020 12 1c 4c 3e 3d 1b 31 3f ae c2 d8 3e 7e bb 8f 3e
       0.19932583 0.6918219 0.4233603 0.28072733
000030 b3 eb a6 3e 14 fa 31 3f 9b ec 10 3f 02 7f db 3e
       0.326017 0.69522214 0.5661103 0.42870337
000040 e0 76 c5 3e 4f a8 82 3e b7 05 17 3f 96 9f 84 3e
       0.38567257 0.25519034 0.58993095 0.25903004
000050 a9 00 d5 3e 15 82 91 3e 26 c8 95 3e b5 f8 25 3f
       0.41602066 0.28419557 0.29254264 0.6483262
000060 f9 f4 e3 3e f0 d3 a6 3e e5 18 93 3f a6 00 9b 3e
       0.44522837 0.3258357 1.1491972 0.30273932
000070 5a 8d 3c 3e 5d c6 36 3f 7a 12 fa 3e e3 4c b0 3e
       0.18413296 0.7139643 0.48842221 0.3443366
000080 94 b8 b8 3e ec cb a1 3e f5 50 a1 3e 19 40 8f 3e
       0.36078322 0.31600893 0.31507078 0.2797859
000090 4a 65 23 3f 82 0a 32 3e 8e f2 7f 3e 46 e0 0e 3f
       0.6382643 0.17386821 0.24994871 0.55810964
0000a0 7d 10 09 3f 35 8a ad 3e ba cf f8 3d 47 0f a0 3e
       0.53540784 0.33894506 0.12148996 0.31261656
0000b0 85 e7 dc 3e e5 70 be 3e da bb 71 3e 38 ca e3 3e
       0.43145385 0.37195507 0.23606816 0.44490218
0000c0 d7 6f c5 3e 83 b6 18 3f c3 57 39 3f 16 2f 91 3e
       0.3856189 0.5965349 0.7239954 0.28356236
0000d0 b3 c5 f2 3e 1d 08 86 3e f0 dd cb 3e b6 17 02 3f
       0.47416458 0.26178065 0.39817762 0.5081743
0000e0 d7 79 ca 3e 3a c6 b0 3e 21 6d c8 3e 19 30 6c 3f
       0.3954608 0.34526235 0.3914576 0.9226089
0000f0 b5 ca bd 3e 9d 39 df 3e 19 86 31 3f 0f 95 5e 3f
       0.37068716 0.43598643 0.6934524 0.86946195

result.0.weight f4 [10, 1024]
000000 fd 5b 6c be 03 d3 1e bf 95 46 4f be dd 03 2c 3f
       -0.23081966 -0.6204073 -0.20241769 0.67193395
000010 71 2e 8f 3e dc 32 97 3e ce 9c d1 be 9d 6e ac be
       0.2796512 0.2953099 -0.40939945 -0.3367814
000020 4d 3e 5c bc e0 15 a9 3e 03 b3 80 bd 47 31 04 be
       -0.013442588 0.33024502 -0.06284144 -0.12909423
000030 83 ed 7b 3e 33 7c 32 bd 83 02 b4 be 31 2a 10 bf
       0.24602322 -0.043575477 -0.35158166 -0.5631438
000040 46 af df 3d 10 25 9e 3e 39 e3 7c be ac 0c f6 bd
       0.10922103 0.3088765 -0.24696054 -0.12014136
000050 bc 2f dd be 28 ef 52 be 71 15 20 3e 26 e5 9b be
       -0.4320048 -0.20599043 0.15633179 -0.30448264
000060 90 39 f7 3e c9 4d cd 3e 73 50 1c 3f f9 ed b4 be
       0.48286104 0.40098408 0.61060256 -0.3533781
000070 53 7b 09 be 8e be ed be 1d 60 31 3e 06 04 92 3e
       -0.1342595 -0.46434444 0.1732182 0.28518695
000080 f9 9e fb bb 0b af 99 be 05 6e 2a be 66 a2 40 be
       -0.007678863 -0.3001636 -0.16643532 -0.1881195
000090 7a 83 df 3d 06 4d e8 3b 45 d8 ef 3e 91 11 ea 3e
       0.10913749 0.00708926 0.46844688 0.45716527
0000a0 8e e8 43 3e 51 47 2e bf d4 4d 00 3e 4b 87 01 3f
       0.19131681 -0.6807757 0.12529689 0.50597066
0000b0 e4 29 ba be 70 74 9f 3e 3e 2e 35 be 49 22 33 be
       -0.36360085 0.31143522 -0.17693421 -0.17493547
0000c0 c0 20 c3 3e 94 03 a8 be 56 16 71 3e 8a dd 67 3b
       0.38110924 -0.3281523 0.23543677 0.003537985
0000d0 e7 8b b2 3e 3d be db 3e 5f 61 08 bd 1a ad 81 3e
       0.34872362 0.42918578 -0.033295985 0.2532738
0000e0 3b 2f 98 bf e4 22 50 bf 04 7a 28 3f 21 ca 9a bf
       -1.1889414 -0.8130324 0.6581118 -1.2092935
0000f0 de 54 95 bc ec 22 ac 3b 3b f0 98 3e c2 ba 9d 3d
       -0.018228944 0.0052531864 0.2987078 0.07701637
000100 c9 c0 8b 3e 2b e2 d5 bd d5 9d 04 be 9d 38 93 3e
       0.2729552 -0.10443529 -0.12950833 0.2875413
000110 78 53 39 bd be 3c 97 be 2b b0 14 bf c0 67 1c be
       -0.045245618 -0.2953853 -0.5808131 -0.15273952
000120 c5 e4 11 3f 35 05 60 bd c1 26 0c 3e cd 3d 54 be
       0.569897 -0.054692466 0.13686658 -0.207267
000130 83 b7 3e 3f 2c 19 02 3f 45 50 88 bf 0e 00 ac bd
       0.74498767 0.5081966 -1.0649496 -0.08398448
000140 87 22 8a 3e 11 0b d3 bd cf 86 8f 3d 85 4d 3a 3e
       0.26979467 -0.10304845 0.070081346 0.18193634
000150 91 f3 64 3e f3 f2 66 3d 6b 2a af bb 46 f4 70 3f
       0.22358538 0.05638404 -0.005345633 0.9412273
000160 ca a6 54 3e 44 42 84 bf 43 a2 9c bf 38 02 75 3e
       0.2076675 -1.0332723 -1.2237018 0.23926628
000170 9f b3 09 3e 1a 4b 2a 3e 67 78 0a 3f 18 36 bc ba
       0.13447426 0.16630211 0.5408997 -0.0014359383
000180 9e 69 27 3e 87 e1 14 be 4a b7 38 3e 61 df 85 3c
       0.16348884 -0.14539157 0.18038669 0.016341867
000190 b5 9c d0 3e 6b 99 4f 3e 95 3c d2 3c 0a e0 ea be
       0.40744558 0.20273368 0.025663653 -0.45874053
0001a0 dc 8c de 3e c8 7e 2e bd 46 45 34 3e 67 97 09 bf
       0.43466842 -0.042601377 0.1760455 -0.53746647
0001b0 a4 24 c9 bd 42 69 26 be b2 b4 9c 3f 57 24 11 3e
       -0.09821442 -0.1625109 1.2242644 0.14174019
0001c0 1b 6e 02 be 1e 24 2c bd 8b 97 39 3e f3 e5 3a be
       -0.12737314 -0.04202663 0.18124215 -0.18251781
0001d0 03 95 23 bd 91 79 52 be 12 18 f3 bd 10 fc c0 bb
       -0.03993703 -0.20554186 -0.118698254 -0.005889423
0001e0 fd 1c ec 3e 80 ba 85 be 07 21 52 be 9f 85 c4 bd
       0.46115866 -0.2611885 -0.20520411 -0.09595799
0001f0 a1 54 61 be a8 89 61 bf 96 84 c7 3d 00 73 2f 3d
       -0.2200494 -0.8810067 0.09742086 0.042834282
000200 4a e0 dd bd 81 98 fe bd e8 79 5c bc 17 e2 0d 3c
       -0.10833795 -0.124314316 -0.013456799 0.008659861
000210 17 c0 96 be 74 c1 18 be 39 9e 02 3f 38 71 b1 3e
       -0.29443428 -0.14917547 0.5102268 0.34656692
000220 36 55 e6 be d5 14 7e bd cb 66 dc be 5d 94 cf be
       -0.44986886 -0.062031586 -0.43047175 -0.4054288
000230 15 c8 72 3d b2 55 02 3e fd 2d 62 be 95 2a 9d bc
       0.059272844 0.12728003 -0.22087856 -0.019185344
000240 c0 53 69 3e ef a5 b6 3e 9b 26 80 3d c7 2a 00 3e
       0.22785854 0.35673472 0.062573634 0.12516318
000250 f2 4c a7 3e 8c 1c b2 bd b4 af c1 3e fd cc db be
       0.32675892 -0.08696851 0.37829363 -0.4292983
000260 35 4d a7 3e df 47 e4 be 84 e3 80 bf 3e c6 66 bf
       0.32676092 -0.44586083 -1.0069432 -0.90146244
000270 ce 6e e7 bc 87 51 07 3e 75 72 05 3d 3e 6f f4 be
       -0.028251078 0.13214694 0.032579858 -0.4774112
000280 03 8b 4f 3e d8 af 03 be bc 76 d0 bd 2b 9f ff 3d
       0.20267873 -0.12860048 -0.10178897 0.12481531
000290 52 0c c4 be c3 29 0b 3f 6f c6 33 bf 52 cf 28 3d
       -0.3829065 0.543606 -0.7022466 0.04121334
0002a0 d7 1f 0b bf a2 0e c4 3d f2 55 13 3f 42 2a 81 3e
       -0.5434546 0.095731035 0.5755302 0.25227553
0002b0 4c 7a e4 3d ab af 9d 3b 61 c0 c2 bc 68 2c 49 bf
       0.11156139 0.004812201 -0.023773374 -0.78583384
0002c0 10 dc 27 3e d6 d7 bc be 11 3e 7e be f3 f9 ad be
       0.16392541 -0.3688342 -0.24828364 -0.3397976
0002d0 7f d9 ff bd 5b 64 89 3e ef 42 c3 be 71 1b 4c 3e
       -0.12492656 0.26834378 -0.38137004 0.19932343
0002e0 f6 c3 35 be a1 f0 50 3e 89 fe 0f 3d f3 60 cd be
       -0.17750534 0.20404293 0.035154853 -0.4011303
0002f0 4c 85 2e 3e a9 7f 92 3e c8 be e0 be 12 78 57 bf
       0.17043036 0.28613022 -0.43895555 -0.8416759
000300 46 44 ba be eb f6 5e 3e 39 32 2f 3d 46 0a 1f 3d
       -0.36380213 0.21773879 0.042772505 0.038828157
000310 34 3f a7 3e 1e 91 3f 3f 28 f2 f8 be 83 55 92 3d
       0.32665408 0.74830806 -0.4862225 0.07145216
000320 81 7b cd bd 6f 1c 79 be 7f a7 fa bd 08 c4 8d be
       -0.10033322 -0.24327253 -0.122389786 -0.27688622
000330 b7 30 ee bd e5 e0 02 3e 93 bf 1c 3f 44 f9 92 3d
       -0.11630385 0.12781103 0.6122982 0.0717645
000340 0b 1f 18 3e ac be 99 bc 90 ba 0f 3e 60 b4 c6 3d
       0.14855592 -0.018767677 0.14036012 0.097023726
000350 f9 ed 8a bc 4a e9 15 bd ef bb 56 3e cd 3e 58 3f
       -0.016959177 -0.036599435 0.20970128 0.84470826
000360 38 33 9a 3e c1 f8 81 3e fb be ba bf 47 da db bd
       0.30117202 0.25385097 -1.4589533 -0.107349925
000370 ba 28 d3 3c 12 4e 75 3e 9d 46 1c 3f 4f 22 9e 3e
       0.025776256 0.23955563 0.6104525 0.3088555
000380 1a 2e 01 3d a5 a2 30 3e d0 a2 09 3e ab 8e fd bb
       0.031538107 0.17249544 0.13441014 -0.0077379546
000390 f5 55 3e 3e 31 88 55 3e fd f9 d3 be 04 b7 b9 3e
       0.18587478 0.20852734 -0.41401663 0.36272442
0003a0 c7 af 3b 3f 9b 47 a1 3e ea e3 72 3f 45 db 79 bf
       0.7331509 0.31499943 0.9487902 -0.97600204
0003b0 18 de a2 be fa bb d2 3d 8b 91 5a 3f 84 33 98 3d
       -0.3181007 0.1028976 0.8537833 0.07431701
0003c0 2c 89 06 bf 78 a5 68 bd f1 da f6 be 66 97 0b 3e
       -0.5255306 -0.05679843 -0.48213914 0.13631973
0003d0 cf ae 84 3e 33 71 e7 3d cc d6 d3 3e 98 5b 16 3f
       0.25914618 0.11300888 0.41374815 0.5873351
0003e0 ec 43 1e bc f1 36 38 3f 2d 94 0c bf a5 e1 bc 3e
       -0.0096597485 0.71958834 -0.549136 0.36890903
0003f0 f6 78 8e 3e e1 2f 94 3e 2d ab 13 bf 4a b6 72 bd
       0.2782666 0.2894278 -0.5768307 -0.059255876

result.0.bias f4 [10]
000000 a2 3f 2d be 5e fd cf 3d f6 86 21 3e cb 08 cb bd
       -0.16918805 0.10155748 0.1577414 -0.099137865
000010 06 db d8 3c ac 81 a7 3d 55 13 ec bd 5a 48 1a 3e
       0.026471626 0.0817903 -0.11527125 0.15066662
000020 f9 a2 27 bc 68 c5 dd bd
       -0.010231727 -0.10828668

validity.0.weight f4 [1, 1024]
000000 64 27 22 3e c7 ef 21 bc 28 ca fc bc 02 9c 81 bc
       0.15835339 -0.0098838275 -0.030858114 -0.01582146
000010 18 9b 8c 3d f1 f5 32 3c a7 2a c8 bb 36 44 a6 3b
       0.06865519 0.010922895 -0.0061086 0.0050740493
000020 5d d4 15 3d 2d 9d c3 3c 76 14 f2 3b 97 9a 86 3c
       0.03657948 0.023878658 0.007387693 0.016431136
000030 d3 99 a4 bc ca 07 0f bd d3 ba 33 bb 72 de 8b 3c
       -0.02009288 -0.034919538 -0.0027424588 0.017073844
000040 02 c9 fb 3c 4e ba 87 3b 63 6f d6 3b cf 2b cc 3a
       0.030735496 0.0041420823 0.00654404 0.0015577021
000050 4b f9 10 bb 57 60 c8 bb 1d eb 30 bc 56 28 6c 3b
       -0.0022121246 -0.006115 -0.010798243 0.0036034784
000060 a2 2f a5 bb 02 17 79 3b f1 7e 53 3b a3 5c 15 3b
       -0.0050410787 0.0038008098 0.0032271708 0.0022790811
000070 2e 29 b4 b9 24 17 b1 3a 1b a4 0f bb 08 28 55 bb
       -0.00034362957 0.0013510925 -0.0021917883 -0.0032525081
000080 66 b6 84 3d 53 5c 71 bc e6 64 10 bc 76 42 71 bc
       0.06480102 -0.014731484 -0.008813119 -0.014725318
000090 9e 9c a5 bb 9a 3f 91 3b b2 ca bf bb 70 7b 15 bc
       -0.0050540706 0.0044326307 -0.0058530206 -0.009123668
0000a0 d9 01 40 3c 8f da f0 b8 a0 a4 45 3b 7e 79 f0 bb
       0.0117191905 -0.000114848015 0.0030157939 -0.0073387017
0000b0 4d 34 27 3c 5a e5 c6 3b 5d 2f 86 b9 a7 ce fa bc
       0.010205341 0.0060698213 -0.0002559376 -0.030616118
0000c0 5d 37 fc bc 0a b6 24 3c 0b ee 5c bc 42 4b 2b 3a
       -0.030788118 0.010053167 -0.013484488 0.00065343466
0000d0 7d 72 7d 3c b6 43 8e 3a fb fe 0f bb c1 54 4d 3b
       0.015469191 0.001085392 -0.0021972049 0.0031331035
0000e0 de 64 04 3b 04 72 c1 3a 31 05 20 bb 6b 5c 9f ba
       0.0020201723 0.0014758711 -0.0024417157 -0.001215828
0000f0 40 39 0e 3c af f6 56 3b 22 7d fc bb a4 e5 8e bb
       0.008680642 0.0032800843 -0.0077053467 -0.0043608714
000100 36 ab 5f bc 64 fa 57 bb 65 0c a5 ba 04 c2 39 3b
       -0.01365166 -0.003295564 -0.0012592195 0.0028344402
000110 08 6a 00 3b 7e 50 42 3b e3 23 a1 39 f3 54 b7 3b
       0.001959445 0.0029650028 0.0003073505 0.0055948435
000120 3c 82 d2 bb 66 d1 9c 3a f7 47 e6 ba ea e9 f9 bb
       -0.0064242166 0.0011964261 -0.0017569055 -0.0076267617
000130 b4 61 aa 3b 15 be 50 3c 16 18 fd bb 75 9b 8d b9
       0.0051996354 0.012740632 -0.0077238185 -0.0002700944
000140 6a be ba 3c fd 01 49 bc 24 14 7d 3b ae cf 74 bb
       0.022795875 -0.01226854 0.003861674 -0.0037355232
000150 ba 59 ec 3c 5f 67 de 3a d9 63 94 ba e5 cc d6 3b
       0.028851379 0.0016968063 -0.0011321261 0.006555187
000160 48 39 47 3d a3 c3 93 3b fa 2e 3d 3a e8 2d 81 3c
       0.048638612 0.0045094057 0.0007216778 0.01576896
000170 f7 ec 36 3d 64 23 0b 3c 5c 4a ab b9 f7 6f 4a bb
       0.04465958 0.0084923245 -0.00032671064 -0.003088949
000180 58 e3 52 bd 3e c0 a5 3c dd 4d 1a 3b 2a 25 a4 3c
       -0.051486343 0.02023327 0.0023544945 0.020037252
000190 e1 5c db 3b 6b f0 fe 3a 39 11 25 3b f3 ee ba bb
       0.0066944216 0.0019450312 0.0025187267 -0.0057047545
0001a0 74 c2 8a bb 88 a0 e0 ba 13 fa dc 3a 08 ac 35 3c
       -0.0042346064 -0.0017137686 0.0016859196 0.011088379
0001b0 aa ce 18 3c 8d 55 a0 bb 83 f5 79 bb a5 eb 0c bc
       0.009326616 -0.004893011 -0.003814072 -0.008601104
0001c0 f0 16 16 bd 5b d6 6c bb 64 db d6 bb 49 4d 29 bb
       -0.03664297 -0.0036138508 -0.006556915 -0.002583342
0001d0 bb ef f7 38 1b 7f 44 bc 97 ed 90 bc ef 60 3d 3b
       0.00011822531 -0.011993195 -0.017691417 0.0028896888
0001e0 e5 b4 ae 3b 2a f0 9a 3b 3d cf 98 3b 5d e8 9e bb
       0.005331623 0.004728337 0.0046633766 -0.004849477
0001f0 12 ff 76 bb bd 8f 7b 3b c0 1e 5c 3b 58 6b 38 3b
       -0.0037688655 0.0038385235 0.0033587664 0.0028140154
000200 7a 6c d5 3b 68 f1 de 3b fc 6e cc bb 21 66 8f 3a
       0.0065131756 0.00680368 -0.0062388163 0.0010940471
000210 ca 94 4a bc b1 c3 f5 b9 f1 50 90 3a 36 9d 87 3b
       -0.012364576 -0.00046875843 0.001101045 0.004138614
000220 5f e3 00 bc 1d 1d 8a bb a5 9f 83 ba c5 09 8a 3b
       -0.0078667095 -0.0042148964 -0.0010042085 0.0042125904
000230 04 9a 9e 3a c9 d8 47 bc ba 31 77 3b 68 02 cb b9
       0.0012100344 -0.012197682 0.0037718848 -0.0003872097
000240 c0 08 0d 3d ea 7e e1 bb fb 98 27 3c dc 2c ab 3b
       0.034432173 -0.0068815844 0.0102293445 0.0052238535
000250 cd 0a 09 bb c2 36 8a 3c e6 bf 99 bb 9f 8b 8d 3b
       -0.0020910979 0.016871814 -0.0046920655 0.0043196226
000260 34 99 25 bc 7d 7c 1d 3a 2e ac 5d b8 82 87 cc bb
       -0.010107327 0.0006007625 -5.285086e-05 -0.0062417397
000270 19 3e da bc d5 3d c3 3b 60 6b 70 3b ae 5e 4b 3b
       -0.026640939 0.0059582987 0.0036685094 0.0031031775
000280 5a 6c cf ba 04 a8 71 3a 10 7a b0 b9 fa 92 3f ba
       -0.0015825138 0.00092184567 -0.0003366028 -0.0007307973
000290 8d f4 a2 3b f9 51 11 3c a3 c4 b1 3b 3d a2 90 bb
       0.0049730004 0.008869641 0.0054250523 -0.0044138716
0002a0 d9 a9 f1 3a dc ef ba 3a d7 9b d1 b9 5f 3c 4e 39
       0.0018437459 0.0014262157 -0.00039979696 0.00019668181
0002b0 8c 82 2a 3c 01 e6 8e bb 7f d5 64 bc 6c 15 13 bb
       0.010407101 -0.0043609147 -0.013966917 -0.0022443188
0002c0 e7 61 1c 3c 9e d6 d2 3b 5e 70 3a 3b 1b c9 8d bc
       0.009544826 0.006434276 0.0028448324 -0.017307809
0002d0 cf 35 bf bb f6 8a ba bb d0 07 57 3a be b3 9f ba
       -0.005835272 -0.005692835 0.0008202763 -0.0012184305
0002e0 b5 b8 f8 bc d7 f9 e6 3a c1 b3 6c 3a fb 6b 95 3c
       -0.030361513 0.0017622065 0.0009029471 0.018239966
0002f0 52 9e 57 bd 89 35 fe bc 1e 64 09 3b f3 ec a1 bc
       -0.05264122 -0.031031387 0.0020964216 -0.019766307
000300 99 5f 6a bc 1a c0 3f 3b f5 60 2a 3a ae b8 07 3c
       -0.014305019 0.0029258789 0.0006499433 0.008283777
000310 fa 2f 57 bc 84 39 5b bc 05 31 7b 3b 84 0d d7 ba
       -0.013133997 -0.013380412 0.0038328778 -0.0016407226
000320 02 b2 aa bb ff 57 fc 3b 0b 5f 3b 3c a3 81 5a bb
       -0.0052092085 0.0077009196 0.011436234 -0.003334143
000330 98 f5 c2 bb 24 d1 49 3b ee fd b1 bb 4f c0 17 3c
       -0.005949687 0.0030794824 -0.005431882 0.009262159
000340 53 8c d9 ba aa 78 07 bc 54 97 28 3b c0 1e 8e 3a
       -0.0016597606 -0.008268515 0.0025724964 0.0010842904
000350 1e 1f ee bb 35 90 9e 39 48 29 18 3b 7e ea 1f bc
       -0.007266893 0.0003024355 0.0023217965 -0.009760497
000360 2a a6 76 3b d3 7b 1e 3b 59 c3 13 3b 7e b0 17 bc
       0.0037635663 0.0024182692 0.0022546856 -0.009258388
000370 6b 0d 7f 3c a7 9d 4b 3a bb f5 92 bb 78 31 51 ba
       0.015567164 0.00077673275 -0.0044848598 -0.00079800887
000380 b0 08 ba bc b6 48 2b bc 1a 1b a5 3c 43 ce b5 3c
       -0.02270922 -0.010454347 0.020154525 0.02219308
000390 9e 7e 7a 3b 84 7f 30 bb 8c b7 22 ba a7 fc bc bb
       0.0038222442 -0.0026931474 -0.000620716 -0.005767423
0003a0 8b 90 ea 3b 41 e8 d1 38 e6 8a bf ba b6 ab 23 3c
       0.007158344 0.00010009157 -0.0014613539 0.00998967
0003b0 7c 23 d3 3b 16 e4 a0 bb 23 cb e8 bb e3 af 1e 3a
       0.006443439 -0.0049100025 -0.007104294 0.0006053431
0003c0 ba 64 54 bc 48 a2 23 3c 87 c2 7c 3b be 00 0c 3b
       -0.012963468 0.009987421 0.0038568096 0.0021362747
0003d0 d0 26 c2 3a 90 fa d6 39 70 b4 21 3b fd 94 9f 3a
       0.0014812592 0.00041003944 0.00246742 0.0012175139
0003e0 3c 66 44 bc c1 57 0b 3a f2 7a a2 b9 e7 76 71 3b
       -0.011987265 0.00053155056 -0.0003099065 0.0036844553
0003f0 42 a9 28 3b a6 42 08 3a 49 5d de ba c0 4e f5 39
       0.002573565 0.00051979197 -0.0016965057 0.00046788715
