acgan_models/discriminator_c(500dcnn).pth (torch_old, 419680 bytes, 23 tensors)

model.0.weight f4 [16, 3, 3, 3]
000000 ff db aa be d5 82 02 3c 1f 18 76 3e f4 d1 42 bc
       -0.3337097 0.007965763 0.24032639 -0.011890877
000010 39 38 e1 3d 2e ab ee 3d 87 e0 93 be ab 11 a0 3c
       0.10997052 0.11653744 -0.28882238 0.019539675
000020 c8 f4 2e 3e 00 e5 ab be fc 8d 95 bb 36 f9 a3 3e
       0.17085564 -0.3357315 -0.004564045 0.3202607
000030 03 70 b9 bd 2c ed a1 bc 04 5d 25 3e f6 70 7e be
       -0.09054568 -0.019766413 0.16148764 -0.24847779
000040 b1 7c 84 3b f8 d4 5f 3e ca c3 b6 be 79 6b b1 bc
       0.0040431847 0.21858585 -0.3569625 -0.021657692
000050 e7 1a c1 3e 59 45 92 be 12 45 60 39 40 17 cd 3d
       0.37715837 -0.28568533 0.00021388035 0.100142
000060 67 b9 06 bd 63 98 3e bd e1 14 53 3d 1f aa e9 3d
       -0.032891657 -0.046532046 0.051533584 0.11409401
000070 4e 2c b6 3d fc 58 a6 3d a6 5d ea bd db 5c 09 3d
       0.08895169 0.08122441 -0.11443643 0.03353582
000080 37 00 41 bd 53 12 46 be 4d 82 f2 3d b5 ab e9 bd
       -0.047119346 -0.19342928 0.11841259 -0.11409704
000090 9c 0b e3 3e 3b 48 b1 3e 40 25 36 3e 86 c1 90 3d
       0.44344795 0.3462542 0.17787647 0.07068162
0000a0 fc 5d 89 bd 93 18 32 bb 7d ba 25 bf 76 e4 72 be
       -0.06707379 -0.0027175292 -0.64737684 -0.23719963
0000b0 2c 4e 5e be 07 29 c1 3e e2 7a 20 bc e8 0a 3b 3e
       -0.21709508 0.37726614 -0.009794923 0.18265879
0000c0 8a 70 37 3d d0 87 45 3e 06 4b b6 3c cc 83 8c be
       0.04478506 0.1929009 0.02225257 -0.27444303
0000d0 7b b5 82 be fd 93 39 be ef c1 1b 3e 8b 73 03 3e
       -0.25529084 -0.1812286 0.15210699 0.12837045
0000e0 cc c5 7b 3e 8f 6f 04 3f f9 63 e4 3e 37 b7 af 3e
       0.24587172 0.51732725 0.44607523 0.3431947
0000f0 1c 1f 2d bb f0 c9 52 3d 04 d9 72 bd 47 bf 35 be
       -0.0026416248 0.051462114 -0.059288993 -0.17748748
000100 e8 98 15 bc f5 cd 95 bd 60 35 e3 bd 41 84 5b be
       -0.009130694 -0.07314674 -0.11094165 -0.2143717
000110 93 65 c4 3c f8 57 2a bd d5 85 69 3b f9 b0 ab 3d
       0.023974216 -0.0415878 0.0035632749 0.08383364
000120 96 2b 43 bd ad 9c d4 bd 7e 7c 64 be 1c ab a0 be
       -0.04764899 -0.10381446 -0.22313115 -0.31380546
000130 81 2e 56 be c3 9b 89 be 79 4b 00 bd 58 b5 79 bd
       -0.20916177 -0.2687665 -0.031321976 -0.06096396
000140 b5 ad 8f bd 65 88 2a 3e 12 66 b8 bc 37 3e 68 be
       -0.07015554 0.16653593 -0.022509608 -0.22679983
000150 c8 5d 9a 3d 98 33 0e be ac 90 3b be 74 33 a5 3e
       0.075374186 -0.13886869 -0.18316907 0.32265818
000160 95 74 0c 3e ae 51 93 bd 8b a9 85 3e ca e8 78 be
       0.13716348 -0.071933135 0.26105914 -0.24307552
000170 0d 5a e4 be 89 25 87 3e d0 4f 07 bd 24 98 94 be
       -0.44599953 0.26395825 -0.0330351 -0.29022324
000180 15 72 8f 3e bb 67 db 3d e4 76 09 be b7 0f b8 3e
       0.28016725 0.107131444 -0.1342426 0.3594949
000190 d3 b0 3e 3d 46 b8 1d 3e c1 f7 f4 3e 6f 94 1f 3e
       0.04655535 0.15402326 0.4784527 0.15583967
0001a0 70 05 ed bd af f7 3a 3d 4b 4d c4 3d eb 6c 04 be
       -0.11573303 0.045646366 0.09585055 -0.12932174
0001b0 53 09 80 3e 75 60 63 3e 1b d2 10 3e c2 5c d4 3e
       0.25007114 0.22204764 0.14142649 0.4147702
0001c0 ac 44 82 3e 02 56 73 3e 94 49 e8 3d f1 3d fc 3d
       0.25443017 0.23763278 0.11342159 0.12316502
0001d0 d5 60 a1 3d b7 2f 16 bf 2f 1f 12 bf f6 d2 d2 be
       0.07879797 -0.5866656 -0.5707883 -0.41176575
0001e0 d7 56 2d bf 02 28 ff be 5e df a3 be a0 3e af be
       -0.6771063 -0.4983521 -0.32006353 -0.34227467
0001f0 b4 c3 bb be 20 0d a4 be fd a5 ba 3e 30 a3 a6 3e
       -0.36672747 -0.32041264 0.36454764 0.32546377
000200 d9 d7 93 3e b3 e0 94 3e ce 6c 4f 3e f5 08 15 3e
       0.28875616 0.29077682 0.2025635 0.14554198
000210 90 df 5f 3e 04 72 82 3e d7 0b 88 3e ca 30 d6 bd
       0.21862626 0.25477612 0.26571533 -0.104585245
000220 22 2b 0b 3c 14 8b a8 3c 78 a9 92 bd 20 e0 7f bd
       0.00849417 0.02057413 -0.0716123 -0.0624696
000230 8f b6 04 bd 23 c5 02 3c 80 dd 22 3e e4 dc 0d 3d
       -0.032400664 0.007981571 0.15904808 0.034634486
000240 25 82 e1 be 23 75 b1 be 15 51 31 be dd da 68 3d
       -0.44044605 -0.3465968 -0.17316087 0.05684935
000250 38 cd 40 be 69 f0 33 3d 30 60 cd 3d 62 50 51 3e
       -0.18828285 0.043930445 0.10028112 0.2044082
000260 47 f9 ef bc 41 86 7a be 39 d7 51 be 4b 35 19 3c
       -0.02929367 -0.24465276 -0.20492257 0.009351085
000270 ba 49 05 be 53 d4 9a 3d 5c a0 a9 3c be 27 29 3e
       -0.13016406 0.07560029 0.020706348 0.16519067
000280 e2 0e 5b bc 28 36 b2 3d 08 6a ea be 98 bb fd be
       -0.013370248 0.08701736 -0.4578402 -0.49557185
000290 6b f5 0f be 79 f1 c2 bd 7a 3c fa be 01 67 a1 be
       -0.14058463 -0.095187135 -0.48874265 -0.31523898
0002a0 fe 8a 33 3e 21 5b ad bd 69 54 24 3e ee 22 58 bd
       0.1753349 -0.08464647 0.16047825 -0.052767687
0002b0 f5 1f 42 bb 93 8c 1b be 92 68 85 3b 8f 1b 26 3e
       -0.0029621099 -0.15190344 0.0040713036 0.1622145
0002c0 fe 45 73 3d 11 e5 2e 3a ee 83 61 3d a6 6d 00 bd
       0.05939292 0.0006671707 0.05505746 -0.03135457
0002d0 d9 76 5f 3e f5 f4 00 3f 67 ac 33 3e 72 d2 83 3e
       0.2182268 0.50373775 0.17546235 0.25746495
0002e0 56 f1 ad 3e 95 8e 8d 3e df 58 f3 bd 70 c9 a1 3c
       0.33973187 0.27647844 -0.11882185 0.019749373
0002f0 92 7c af bd 33 a3 82 be 29 73 79 be c7 80 ba bd
       -0.08568682 -0.25515136 -0.24360336 -0.091065936
000300 aa d7 da be fe 68 ac be ea c5 7b be 99 ba 2b bd
       -0.42742664 -0.33673853 -0.24587217 -0.041926
000310 5d 12 8f bd 1d e7 62 3d 93 23 db 3d 01 ac ef bd
       -0.069859244 0.055396188 0.107001446 -0.11702729
000320 f1 2b 9b 3c ff 2e 0d be 7b 1a 88 bb e2 a8 56 3c
       0.018941851 -0.13787459 -0.0041535473 0.013101788
000330 ff 24 56 bd a2 5f 45 be ef 5a f8 bd bc e0 b3 3e
       -0.052281376 -0.19274762 -0.12126719 0.35132396
000340 4d c8 83 3e 01 83 95 3e 24 40 cd 3e 38 a6 81 3e
       0.25738755 0.2920151 0.40087998 0.25322127
000350 39 9a 34 3e 4c 68 e6 3d 1f 9e 90 3e 8c a4 8e 3d
       0.17636956 0.11250362 0.28245637 0.069649786
000360 20 54 78 be fe 36 7f be d2 63 16 be 76 59 f8 bc
       -0.24250841 -0.24923322 -0.14686516 -0.030316096
000370 54 5c 86 bd f9 65 64 3d ac d4 3a be 1e 4c 11 be
       -0.06560579 0.05576131 -0.1824519 -0.14189193
000380 e8 97 8d bd 9b 66 3e 3d b6 b3 8c 3d 1b 0c bf 3a
       -0.069137394 0.04648457 0.06870215 0.0014575751
000390 a7 f0 ca bd 1d 0e 8a 3e c2 bc cb 3d 7a cf ba be
       -0.09909182 0.26963893 0.09948112 -0.36486417
0003a0 4e 45 7f be 1e 94 89 be 60 6b 47 3e 50 b8 7d 3e
       -0.24928781 -0.26870817 0.19474554 0.24777341
0003b0 9b 05 48 3d b5 10 f4 3d c6 e4 19 3e 18 41 69 bc
       0.04883347 0.11917249 0.15028676 -0.014236711
0003c0 0b e7 65 be 2d 24 42 3c 56 81 db be 4d ab 18 be
       -0.22451417 0.011849445 -0.42872113 -0.14909096
0003d0 49 99 43 bc 54 37 74 bc 96 4f bf 3c 9f f4 56 3e
       -0.0119384015 -0.014905769 0.02335338 0.20991753
0003e0 bb d6 7a 3e 4a 92 17 be e8 09 45 3d 9a 61 38 bd
       0.24495976 -0.14801899 0.04810515 -0.045014955
0003f0 92 0c a0 be 29 58 9a bd 4c 4e dc 3d 5b e5 dd bc
       -0.3125959 -0.075363465 0.107571214 -0.027086904

model.0.bias f4 [16]
000000 42 56 2f be 58 e3 10 be 10 2e 80 3e 3c 0a c6 be
       -0.17122748 -0.14149225 0.25035143 -0.38679683
000010 77 c9 b9 bc 61 c9 5a be 1e 58 fe 3d c2 10 bd 3e
       -0.022679074 -0.21365882 0.12419151 0.36926848
000020 80 3a 37 bf 54 06 13 be 53 b9 d6 bc d5 1e 15 be
       -0.7157364 -0.14357883 -0.026211416 -0.14562543
000030 a4 7e 89 3c 74 41 56 bc 8f d8 c6 bd 76 0f b7 be
       0.01678402 -0.013077129 -0.09709274 -0.35753983

model.3.weight f4 [32, 16, 3, 3]
000000 10 c0 81 bd c4 6c 34 be 06 7d 9d be 2f eb 2f 3c
       -0.06335461 -0.17619616 -0.30759448 0.0107372245
000010 cc 74 aa bd 26 5e ae bd da 09 e9 bc 11 90 9f bd
       -0.083230585 -0.08514051 -0.02844708 -0.0779115
000020 0e 59 f4 bd d2 2f 73 3e 04 6a 36 3d d3 9e 98 be
       -0.11931048 0.23748711 0.044534698 -0.29808673
000030 b5 56 e7 3d f0 10 a5 3c e2 5e 1f be 9e a0 aa 3b
       0.11295835 0.020149678 -0.15563539 0.0052071353
000040 64 94 24 3d 03 91 1d bd d9 31 ed bd 5a 7f 0e bd
       0.04018058 -0.038468372 -0.11581773 -0.03478942
000050 10 5e 61 3e de 20 ad bd d0 e1 ad bd 59 16 0d 3e
       0.22008538 -0.084535345 -0.08490336 0.13778056
000060 47 c2 2d bd ab 6f 22 bc 32 fd 66 3c c1 8c e4 3e
       -0.042421605 -0.009914319 0.014098452 0.44638637
000070 ca d4 db bd 70 2e ff be db df c1 3d 90 86 5b 3c
       -0.10733946 -0.49840117 0.09466525 0.013398781
000080 b8 2e 95 bd 9e 7a aa bc af 6e ac bb eb b0 98 3c
       -0.072843015 -0.020810422 -0.005262218 0.018639049
000090 1d c6 24 3f 0e d6 7c bc 8e 7f 15 bf c2 a4 9a 3e
       0.64364797 -0.015431894 -0.5839776 0.30203825
0000a0 b7 19 47 3b 6c df bc be d1 5d 21 3e 67 57 09 bd
       0.0030380317 -0.36889207 0.15758444 -0.03353062
0000b0 3f db 37 be b2 87 89 be b1 d2 ee 3b f7 a4 83 3e
       -0.1795473 -0.2686134 0.0072883 0.25711796
0000c0 e3 9f 79 be 79 23 73 3d 0d bb 81 3e 5f 84 35 be
       -0.24377398 0.05936 0.2533802 -0.17726277
0000d0 ef df 2f bb 1f 8c d8 3d 3f f6 a4 3e 8d d7 e5 3b
       -0.0026836356 0.10573601 0.3221912 0.007014221
0000e0 83 8e 96 be 69 f1 af bc fe fe 83 3c b0 b1 cc bc
       -0.29405603 -0.021477418 0.0161128 -0.024987072
0000f0 08 40 62 3b 62 b3 c7 3a ce e0 f2 3c c3 8b a2 3e
       0.003452303 0.0015235955 0.02964821 0.31747255
000100 fb 70 f4 bc 34 ec 40 be 84 73 34 3d bd 1c d6 bc
       -0.02983903 -0.18840104 0.044055477 -0.02613675
000110 78 f7 bf bd c1 69 93 3d 40 7e 36 bd cd 1f 32 bd
       -0.09373373 0.07197905 -0.044553995 -0.04348736
000120 0c 7c 39 be df c6 45 3d 4b 2c f6 3d eb 25 9e bc
       -0.18113726 0.04828536 0.12020167 -0.01930519
000130 06 75 81 bd d0 23 ac 3d 3e dd a1 bd 09 bf 97 bc
       -0.063211486 0.08405268 -0.07903527 -0.01852371
000140 bc d8 03 3e 5a 2f b5 3e 8e ad 6c bd de 0e 9b be
       0.12875646 0.3538769 -0.057782702 -0.3028478
000150 50 fa 8b bc 3a cc 9e 3c 13 77 43 3c 9c 02 d0 3c
       -0.017087132 0.019384492 0.011930245 0.02539187
000160 69 c1 64 bd ad 04 df bc 22 31 e9 be 03 6b ba 3d
       -0.055848513 -0.02722391 -0.45545298 0.09102442
000170 1e 73 dc 3e db 72 ac bd b1 ce 64 bd e1 46 89 3d
       0.43056577 -0.084203444 -0.05586118 0.06702972
000180 00 b0 63 bd 8d d1 eb bc 44 77 96 3d ee 19 0b bd
       -0.05558777 -0.028786445 0.07346967 -0.033960275
000190 9f 82 fb bc 0f bf a0 3d d8 48 37 bd 8f ab c5 3c
       -0.030701933 0.078489415 -0.044747204 0.024129657
0001a0 80 a8 09 3d 63 57 be 3c b1 5e 01 3d 86 7b 1e bc
       0.03360796 0.023235029 0.031584445 -0.009673005
0001b0 b7 cc 12 be 01 f2 10 be 46 1d 79 3e 5a b9 12 be
       -0.14335905 -0.14154817 0.24327573 -0.14328519
0001c0 79 ed 2f bd 83 d8 2a 3e c4 fb c6 bc a9 da 17 bd
       -0.04295108 0.16684155 -0.024289973 -0.037073765
0001d0 8c 0a ca 3d eb 6f b4 be e8 fb b9 3c 18 82 e1 3e
       0.09865293 -0.35241637 0.022703126 0.44044566
0001e0 b3 fc 81 be e1 78 de 3c dd 9f 5b 3e 76 80 51 3c
       -0.25388107 0.027157249 0.21447702 0.012786975
0001f0 e5 8d c7 bc 80 a9 1a bd cd 27 d4 bd 3c b1 4b bc
       -0.024359653 -0.037759304 -0.10359154 -0.012432393
000200 ad 23 e0 bd a5 3c 31 3c 5a e3 84 3d 08 9e e3 3c
       -0.109443046 0.010817681 0.06488676 0.027785316
000210 d9 60 3d 3d 4d 44 f2 bc 77 ae 80 bc d1 f9 30 3e
       0.04623494 -0.029573584 -0.015708191 0.17282797
000220 95 2b 43 3d 46 31 62 be 07 eb e6 3d f4 77 01 bc
       0.047648985 -0.22089109 0.11275297 -0.007902134
000230 4b c7 86 bd cd 40 18 3d 1c f0 95 3a a2 2f 7d bd
       -0.06580981 0.037171174 0.0011439356 -0.061813004
000240 8f 33 a3 3e dc 6f 4e 3e 85 20 cd bd 09 3d 78 3e
       0.31875274 0.20159858 -0.10015968 0.24242033
000250 11 96 0c be 3b 87 05 be da 3a 0d 3e 18 b4 3d 3d
       -0.13729121 -0.13039868 0.13791981 0.04631433
000260 3a f8 fd bd c6 11 d8 3c 20 13 e7 bc 63 7f a2 3c
       -0.12400861 0.026375663 -0.028207362 0.019836133
000270 93 37 5f bd 79 be 43 3c 79 a4 97 be c7 7b 99 be
       -0.05449636 0.011947268 -0.2961767 -0.29977247
000280 b6 1d 24 3d 56 3e 6e be 4d 90 c4 bc 78 e7 9b 3d
       0.040067397 -0.23265967 -0.02399459 0.076125085
000290 d3 f4 84 3d 72 a5 f6 bd 2b 3e 73 3d 73 8f 06 bd
       0.06492009 -0.12043275 0.05938546 -0.032851648
0002a0 a8 31 e1 bd 45 ff c5 3d 4e 87 6c 3d 7f e4 cf 3d
       -0.10995799 0.096678294 0.057746224 0.10151004
0002b0 66 ab a1 be c1 08 83 3e c7 c1 fb bd 2c 00 41 be
       -0.3157608 0.25592616 -0.122928195 -0.18847722
0002c0 f3 14 96 3e ca 45 ae bd 09 a9 1b be 6e cb 94 3e
       0.29312858 -0.08509405 -0.152012 0.29061455
0002d0 4e 44 cf 3d c0 b1 39 3b 57 3f 88 3d e3 6c db 3c
       0.1012045 0.0028334707 0.06652706 0.02678532
0002e0 15 e2 65 bd 7d 3a 6f bd 59 66 dd bc cc 00 86 ba
       -0.05612381 -0.05840539 -0.027026342 -0.0010223626
0002f0 10 33 bf 3d e7 8e c3 3e 08 3e 5c 3e 82 68 9c be
       0.09335911 0.38194963 0.21508038 -0.30548483
000300 ac 8f 41 3e 2a 20 87 3b 4c 67 a6 be a9 e6 19 3e
       0.18902463 0.0041237073 -0.32500684 0.15029396
000310 05 05 91 3c 5a 64 90 be aa ab ab 3d fa da d0 3d
       0.017702589 -0.28201562 0.08382352 0.101980165
000320 b7 64 2e 3c 6f e8 80 3d 59 52 4f bc 29 38 4f bd
       0.0106441295 0.06294333 -0.012653911 -0.050590668
000330 ca e0 50 bb ca 95 ad 3b 9b 51 e6 bd 4f 18 76 3c
       -0.0031872266 0.0052973973 -0.11246034 0.015020444
000340 a9 d1 23 3d 93 d6 ab bd ba d3 e1 3c b9 a8 af 3d
       0.03999487 -0.08390536 0.02756678 0.08577103
000350 f1 b5 15 bd 76 b8 ac bc 52 b0 a7 bc f7 f5 1c bd
       -0.036550466 -0.021084052 -0.020469818 -0.038320508
000360 2f 6d cb 3d 54 a7 51 3d a4 20 96 be 81 c8 e1 3c
       0.099329345 0.051184967 -0.29321778 0.027561428
000370 d1 ca 4f 3d 4a 07 87 be fa 90 11 3e 54 18 27 3e
       0.05073053 -0.2637275 0.1421546 0.16317874
000380 76 47 a1 be 52 cb 31 bd 79 ba df 3d 26 25 3f 3d
       -0.31499833 -0.043406792 0.10924239 0.046666287
000390 83 43 76 be 8a 30 f2 bc fd f9 51 3c c3 7c b9 be
       -0.24049191 -0.02956416 0.0128159495 -0.36227998
0003a0 e5 a4 e7 3c ab 5f 04 3e ad 4c da be 52 69 19 bd
       0.02827687 0.1292712 -0.42636624 -0.037453957
0003b0 94 e4 91 3e 89 9a cf bd 83 6e 1c bd b1 b0 0c bd
       0.28494704 -0.10136897 -0.03819133 -0.034348194
0003c0 c0 fa 31 bd 26 19 ab bd e6 8c 11 3e 0b 62 06 3f
       -0.043452024 -0.08354406 0.14213905 0.5249335
0003d0 ba 9c bc 3e af 79 89 be 30 f6 9e 3e 03 44 9e 3e
       0.36838323 -0.2685065 0.310472 0.30911264
0003e0 59 68 9b be a4 bd a6 3e d3 c8 23 3e 22 a4 a5 be
       -0.30353048 0.3256656 0.15994577 -0.32351786
0003f0 6a 0a 4b bd 97 38 d4 3d 9d 8b 93 3c 1b f8 b3 bd
       -0.04957048 0.10362356 0.018010909 -0.08787557

model.3.bias f4 [32]
000000 1e dd a2 bd 0f 95 84 be ab 17 20 be 2e 6a d8 ba
       -0.07952331 -0.25894973 -0.15634029 -0.0016511136
000010 b2 a0 de be 5b 2e e6 be 99 25 36 be 91 08 eb bd
       -0.43481976 -0.4495724 -0.1778778 -0.11476243
000020 14 ff 9e bc 4a f9 1b bd 93 59 7c be 4d 38 ce 3d
       -0.01940874 -0.038079537 -0.24643545 0.10069332
000030 94 d7 97 bd e1 1c 3b bf 28 84 bd bd 94 86 a1 bc
       -0.07414165 -0.7309094 -0.092537224 -0.019717492
000040 35 5e a5 3d 8c 6e 5a 3e 24 52 f9 3d 6c f5 89 bd
       0.08074609 0.21331233 0.1217387 -0.06736264
000050 37 dc 35 bd 6a d4 4d be c2 b5 63 bd 2b 58 60 3e
       -0.044399466 -0.20100561 -0.05559326 0.21908633
000060 b4 9d 27 be de a3 89 bd 00 06 94 bd e5 7d 93 bd
       -0.16368753 -0.06720708 -0.07227707 -0.07201747
000070 e4 86 2b 3e 59 58 28 3c cd d8 a7 3c 75 9c 01 bf
       0.16750675 0.01027497 0.02048912 -0.5062936

model.6.weight f4 [32]
000000 2b ff cb 3f 9d ed 8f 3f 75 8f 6a 3f 39 a3 90 3f
       1.5937246 1.1244389 0.9162515 1.1299812
000010 75 d7 fb 3e 3d e8 19 3f 98 70 44 3f ad dc 9d 3f
       0.49187818 0.6011999 0.76734304 1.233297
000020 9c 31 bd 3f 65 b5 b7 3f f7 80 a5 3f e6 79 38 3f
       1.4780765 1.4352232 1.2929982 0.72061
000030 c6 87 af 3f e7 04 82 3f 0c 7c 9a 3f 68 dc 5d 3f
       1.371331 1.0157746 1.2069106 0.8666444
000040 7c cb 8e 3f 33 78 22 3f 22 3c 80 3f 16 a3 8c 3f
       1.1155849 0.6346466 1.0018351 1.098727
000050 54 92 af 3f 9e 5a 96 3f b0 63 be 3f 0e 06 41 3f
       1.3716531 1.1746404 1.4874172 0.75399864
000060 69 09 a4 3f 9a d3 d9 3f af 8d a4 3f ba fc 90 3f
       1.2815372 1.7017701 1.2855738 1.1327126
000070 6a 73 64 3f 60 47 45 3f ac 98 96 3f 31 56 48 3f
       0.8923861 0.77062035 1.1765342 0.7825652

model.6.bias f4 [32]
000000 1c 72 8f 3e a2 48 25 3e f3 a8 2f be a2 4e 5d 3f
       0.28016746 0.16140988 -0.17154293 0.8644811
000010 4c 98 9b 3f fb ff 81 be 3a cc 35 bf 1f b7 53 3e
       1.2155852 -0.2539061 -0.7101475 0.20675324
000020 af af 5d 3e ad 7d 74 3d 75 f5 39 3d 78 df 33 3f
       0.21649049 0.059690166 0.0454001 0.7026286
000030 15 e7 e0 3d 33 81 8f be f0 3f 07 3e af 1c e1 bd
       0.109815754 -0.2802826 0.13207984 -0.10991799
000040 bb cb e5 be 32 09 81 3e f1 9c 67 be 0d 64 a1 3d
       -0.44881997 0.25202328 -0.22618462 0.07880411
000050 21 a7 fe 3d 37 2a e4 3d e6 bb ce 3e 34 3e 35 be
       0.12434221 0.11140864 0.4037773 -0.1769951
000060 e3 26 27 3e 94 82 12 3e 28 d4 dc 3c 32 2a 56 3d
       0.16323428 0.14307624 0.026956633 0.052286334
000070 ea 92 3c be 84 6b 60 bf 6a e5 b6 be 7b 95 5e bf
       -0.18415418 -0.87664056 -0.35721904 -0.8694684

model.6.running_mean f4 [32]
000000 b8 eb cc 3d e8 8a 49 3d 31 8f 84 3e 3f 0c fa bd
       0.10005897 0.049204737 0.25890496 -0.12209367
000010 81 30 9d 3e ba 2c ca 3d 4a d9 d3 3e d5 7a a5 3d
       0.30701068 0.09871812 0.41376716 0.08080069
000020 f4 53 0f 3e 22 fd f6 3d cd 80 07 3e 29 47 d0 3e
       0.1399687 0.1206 0.13232727 0.4067929
000030 cf 2c 5c 3d 4e a6 4b 3e 3e 09 99 3d 61 5f 1b bd
       0.05375367 0.19887659 0.07472466 -0.037932757
000040 59 21 19 bd 8d 21 8b 3e f7 7c 38 bd 9e 7d 83 3c
       -0.03738532 0.27174035 -0.04504105 0.01605111
000050 33 40 20 3e 5a a3 8a 3d 2b 86 43 3d 66 a2 0f 3e
       0.1564949 0.06769438 0.047735374 0.14026794
000060 e3 08 95 bc 6c 40 a8 3d 37 f9 ad 3d c9 d1 b0 3d
       -0.018192714 0.082154125 0.084947996 0.08633763
000070 8c 99 15 3e 68 7d e9 3b 25 18 14 3d 88 7a 88 3e
       0.14609355 0.0071255453 0.03615584 0.26655984

model.6.running_var f4 [32]
000000 c3 ad 54 3e e5 57 17 3e c3 a7 1b 3f 70 ab 73 3e
       0.2076941 0.14779623 0.6080286 0.23795867
000010 ee 39 98 3f 33 3d d3 3e 65 f5 90 3f 7e b8 07 3e
       1.1892679 0.4125763 1.1324888 0.13253972
000020 3b 81 6a 3e 15 2c 91 3e b7 2b a2 3e 1b 6f ae 3f
       0.2290086 0.28353944 0.31673977 1.3627657
000030 3b 8d 04 3e d2 f0 8a 3f e9 bb 57 3e 94 6a 41 3e
       0.129445 1.0854743 0.21067776 0.18888313
000040 5d 31 6b 3e fb 8a 82 3f ba 7a 02 3e 54 ff 20 3e
       0.2296805 1.0198663 0.12742129 0.157224
000050 cf 20 ba 3e cc 60 3e 3e 00 c2 8a 3d 64 f4 41 3f
       0.36353156 0.18591613 0.06775284 0.75763535
000060 5a 45 04 3e 94 1b 38 3e d4 8f 25 3e 5f cf 7f 3e
       0.1291708 0.1797927 0.16168147 0.2498145
000070 87 97 38 3f 54 12 5c 3e 19 11 cb 3d b1 cf f7 3e
       0.7210621 0.21491367 0.099153705 0.48400643

model.7.weight f4 [64, 32, 3, 3]
000000 09 73 59 be b3 c2 1b bd 4a 36 9d 3d 8f ac 79 be
       -0.21235289 -0.038027477 0.076763704 -0.24382232
000010 64 f0 c1 bd 7a b3 36 3e 92 bb 6f be b0 1b 15 bd
       -0.09469679 0.17841902 -0.23411396 -0.036403358
000020 fa dc dc bd 40 8e ed bc a8 a8 86 bc b2 b0 72 bd
       -0.107843354 -0.028998494 -0.016437843 -0.05925054
000030 09 bb 30 3d d1 0c 14 3d df 6a 81 be 4b 68 48 be
       0.04314712 0.036145035 -0.2527685 -0.19571035
000040 08 3a 3d 3d 12 28 b2 3d b9 f6 fc 3d 62 51 7d 3e
       0.04619792 0.08699049 0.12351746 0.24738076
000050 48 14 a6 be 64 8c 11 3e 09 3b 1b 3c 1e 8f 67 be
       -0.32437348 0.14213711 0.009474524 -0.22613189
000060 aa 5a 96 3e fa c9 23 3e 76 a5 35 be 12 d2 67 3e
       0.29366046 0.15995017 -0.177389 0.22638729
000070 fb 9a e6 bc 3d 7e 18 be da 7c 5a be 58 29 65 be
       -0.028150072 -0.14891906 -0.2133669 -0.22379053
000080 17 64 69 be d8 1f 39 bd ba 76 f8 3d bc 14 7f 3e
       -0.22792087 -0.045196384 0.1213202 0.24910253
000090 be 6f a5 3d 59 4e c0 3d 2e 64 d5 bd 78 b6 f4 3d
       0.08077954 0.09389944 -0.104194984 0.11948866
0000a0 aa 8e e0 bc 93 ae 0a be 86 79 93 3d 03 e9 0d be
       -0.027411778 -0.13543157 0.07200913 -0.13858418
0000b0 28 79 c4 bd 9b d4 22 be a6 dc cf 3d 0f 2f 82 3d
       -0.09593421 -0.15901415 0.10149507 0.06356632
0000c0 f0 ba 39 3e 9b ae d3 3e a8 ed b7 3d a3 15 9a 3d
       0.18137717 0.4134415 0.08980876 0.07523658
0000d0 45 d7 c1 3d 64 6f 32 3b 5c 62 3f be fd 17 05 be
       0.094648875 0.0027227039 -0.18689865 -0.12997432
0000e0 8b 86 85 3d 8f 52 36 3d a1 e1 32 3d 8d 29 f7 bd
       0.06519803 0.044512328 0.043672208 -0.12068472
0000f0 fa af f9 3b df ab fd 3d 42 55 25 bd c7 f5 76 3d
       0.007619855 0.123862974 -0.04036451 0.060292985
000100 03 e5 02 3e 46 58 db bd 3c 68 03 3e d2 54 4c 3e
       0.12782674 -0.10710196 0.12832731 0.19954231
000110 1a 46 c1 bd eb 76 3a 3e 56 03 3f 3e a7 e7 91 3a
       -0.09437199 0.18209426 0.18653616 0.001113166
000120 75 c1 b3 bd 77 4f 0b 3d c6 30 3d 3c 0e d1 35 bd
       -0.087771334 0.03401133 0.011547273 -0.044388823
000130 a5 a0 b0 bc ab b3 93 bc 33 2f 7c bd 8d 4c 3a be
       -0.021560976 -0.018030008 -0.06156845 -0.18193264
000140 ac 73 ef bd 08 68 12 bd 77 43 7d be 88 fe fc 3d
       -0.116919845 -0.035743743 -0.24732767 0.123532355
000150 7b fb 62 be 27 53 a7 3d 63 ea a9 3d 29 c1 86 bd
       -0.22166245 0.08170157 0.08296659 -0.06579811
000160 3d 2e 29 bb 56 33 a9 bd 90 b1 1c bc e6 30 2c bd
       -0.0025814914 -0.08261745 -0.009563819 -0.04203882
000170 5a f3 28 3d ae 8e cb bd 8b 70 ab 3c c2 78 da 3b
       0.041247703 -0.09939323 0.020927688 0.0066672275
000180 2d 1b 70 be b3 92 8b bd eb 5d 85 3d c0 62 c6 3e
       -0.23447867 -0.0681509 0.06512054 0.38747215
000190 ad 39 b8 3d 5a 88 f3 bc 30 2c 16 3e 6d 60 00 be
       0.08995376 -0.029728103 0.14665294 -0.12536784
0001a0 73 2a 44 be 82 db f4 3c 41 98 c8 3c 58 2c d0 3d
       -0.19156818 0.029889826 0.024486663 0.10164708
0001b0 0e 39 a8 bd 03 bb 7e 3e 3f 7d 0e 3e 28 1e 55 3d
       -0.08214007 0.24876027 0.13914965 0.052030712
0001c0 3b f5 84 3e b7 91 69 3d 6a af 27 3e 3f c9 43 3e
       0.25968346 0.05702373 0.16375509 0.19119738
0001d0 38 c3 cd bd 6f a3 83 3e 8f 5a 2b 3d 05 eb a5 be
       -0.10047001 0.25710627 0.04183441 -0.32405868
0001e0 06 78 d2 3e 8e 3f 12 3e 1d ce 6b be c5 95 fc bd
       0.41107196 0.14282057 -0.23027845 -0.12333254
0001f0 45 61 55 be 3e 7d e9 bd bc da 88 be bb 57 1a bd
       -0.20837887 -0.11400841 -0.2672938 -0.037681323
000200 f7 17 19 3e 07 14 8c bd f3 84 64 3e 48 de 2f 3e
       0.14950548 -0.068397574 0.22316341 0.17174637
000210 03 9f 1d 3e 82 82 0a bc ee 44 c8 bd 05 2c 28 3e
       0.1539269 -0.008453967 -0.09778772 0.16423042
000220 09 ad 91 bd 71 6f bc bb 17 96 e2 bd b3 20 e7 3c
       -0.07113082 -0.0057505895 -0.110637836 0.028213834
000230 ee 54 6b bc ca 47 d7 3d ac 3c f3 3c 93 6a 5a 3c
       -0.0143635105 0.105117396 0.029692017 0.013331073
000240 05 00 21 3e ab 1f 9e bc 33 f4 46 be c1 37 9c 3e
       0.15722664 -0.01930221 -0.19429092 0.30511287
000250 14 91 70 3e ba 30 b8 3c df ab 72 3c 58 d3 e0 bd
       0.23492843 0.022484172 0.014811485 -0.109778106
000260 a2 71 cf bd 5a 67 bd 3c 1f 0d 2c be 82 ce 04 3e
       -0.101290956 0.02312057 -0.1680188 0.12969401
000270 21 53 71 be 92 9f 31 be 0f 2e 1f 3e 21 f5 26 3d
       -0.23566867 -0.17346027 0.15544914 0.040761117
000280 4e 6a 39 be a2 d0 38 3e e8 5d b6 3e c6 16 5e 3e
       -0.18106958 0.18048337 0.3561852 0.21688375
000290 76 a6 75 bd 72 66 3c 3e 67 dc 86 3c 55 82 51 be
       -0.059973203 0.18398455 0.016462518 -0.20459874
0002a0 3b 77 88 be 72 5b 58 be 09 6f 33 3c 1e 5e aa 3d
       -0.26653466 -0.21128634 0.010951766 0.08318733
0002b0 a1 be 82 3e a1 3c 34 3e c1 d6 a7 3d d2 2c be 3d
       0.25536063 0.17601253 0.08195258 0.092858925
0002c0 83 0d 09 3e 40 03 25 be f6 5a b0 bc eb cf 26 3d
       0.1338406 -0.16114521 -0.021527749 0.04072563
0002d0 43 0b 07 be 36 64 cd 3d 7b 75 10 3e b4 12 a3 3d
       -0.1318789 0.10028879 0.14107315 0.07962552
0002e0 91 f1 1a 3e 83 b8 55 bd c5 a3 5c bc d9 97 41 3d
       0.15131213 -0.052177917 -0.01346678 0.047263954
0002f0 ad 9f 39 be b9 1a b8 bc 17 31 8c bb d3 1e 0a be
       -0.18127318 -0.02247368 -0.004278313 -0.13488321
000300 01 26 5d 3e c3 b3 1f 3e 1d ca 85 be 30 48 9e 3e
       0.21596529 0.15595917 -0.26130763 0.3091445
000310 0e d6 17 3e 77 96 15 be 06 ab db bd 4e 6e 5d 3e
       0.14827749 -0.14608179 -0.107259795 0.21624109
000320 e0 75 ab 3d 8b 65 c8 3d 0a a3 9e 3d 58 45 d7 bc
       0.08372092 0.09784993 0.07745941 -0.026278183
000330 44 82 91 3e ec cb 06 3e ec 88 f8 bd ef 17 e7 3d
       0.28419697 0.13163728 -0.12135491 0.11283862
000340 d6 06 65 3d bc cf 8c be 80 57 b4 3e 2a 70 ba 3d
       0.055914722 -0.2750224 0.35223007 0.09103425
000350 b5 22 8d be 11 a5 57 3e bb be ea 3d 6a d8 39 3c
       -0.27565542 0.21059062 0.1146216 0.011343101
000360 15 67 3e be eb e5 72 3c 69 67 b1 3d 43 0d 69 3e
       -0.1859401 0.0148253245 0.08662302 0.22758965
000370 eb eb 0f 3e cc 33 5f 3d af 54 c7 3d 40 67 58 3d
       0.1405484 0.054492757 0.09732949 0.052832842
000380 10 cf 24 be ea bd e3 3a a0 13 c1 3d d5 58 e4 3d
       -0.16094613 0.0017375324 0.09427571 0.11149756
000390 86 13 42 bd 80 c4 eb 3d 3f ac 04 3e 27 dc c4 bd
       -0.0473819 0.11512089 0.12956332 -0.09612303
0003a0 42 a4 73 3c 1d c7 55 bd 03 ad 80 3d 9b 21 fb bc
       0.014870705 -0.052191842 0.06282999 -0.030655673
0003b0 cf ed 2e 3d 5f 04 38 3d 52 d1 0f 3e 04 7c 30 be
       0.04270726 0.044926044 0.14044693 -0.17234808
0003c0 1e ff 82 3e a9 af 06 3e f1 a2 21 bd 36 ab 7d be
       0.25585264 0.13152947 -0.039462034 -0.24772343
0003d0 46 2f bd bd bd 59 c9 3c 5b 3e cb bd 3a 8e 04 bb
       -0.09237532 0.024578923 -0.09924003 -0.0020226375
0003e0 a9 fc 11 bd a1 3d 59 be 17 41 b0 bd d9 ed 68 be
       -0.035641346 -0.21214916 -0.08606165 -0.22746982
0003f0 e3 55 e1 3e 23 3c 90 bc 0a 32 2b bb 04 23 38 bd
       0.4401084 -0.0176068 -0.0026122355 -0.04495527

model.7.bias f4 [64]
000000 bb 19 7b be eb c1 11 bf 97 5f 86 be da f1 14 bf
       -0.24521534 -0.5693652 -0.26244804 -0.58181536
000010 78 09 6f be fd f7 5a be 63 ff 08 bf 2e c4 00 bf
       -0.23343456 -0.21383663 -0.5351469 -0.50299346
000020 29 72 0d bf d6 be 57 be 80 f7 07 bf 41 a2 30 bf
       -0.5525232 -0.21068892 -0.5311203 -0.6899758
000030 c0 5c a2 be 43 55 8f be 3f 0f ec be e7 4d d5 be
       -0.31711388 -0.27994737 -0.46105382 -0.41660997
000040 d2 49 1d be ad 03 a1 be 25 26 0a bf 1e 6e 19 bf
       -0.15360191 -0.31448117 -0.53964454 -0.5993365
000050 85 70 4b bd f0 cf 72 be 39 3b 68 be f6 8a e7 be
       -0.049667854 -0.23712134 -0.22678842 -0.45223206
000060 6f 9b f5 be 30 5e 8c be f6 e8 15 bf cc c7 a3 be
       -0.4797015 -0.2741561 -0.58558595 -0.3198837
000070 27 2d 4c be fd 28 73 be 40 52 46 be da 8a 81 be
       -0.19939099 -0.23746105 -0.19367313 -0.25301248
000080 d5 ab 30 bf 13 db 64 be 8a 5f 86 be 15 6c a1 be
       -0.69012195 -0.22349195 -0.26244766 -0.31527773
000090 46 b6 80 be 1c 8f 89 be 52 74 d7 be 03 0c 5a be
       -0.25139064 -0.26866996 -0.42080933 -0.21293645
0000a0 54 ec 2a be 89 b5 de bd 69 7a b1 be 65 b8 ee be
       -0.16691715 -0.10874469 -0.34663704 -0.46625057
0000b0 a2 f8 f8 be fe 9c 29 be 19 6e e1 be 11 44 e7 be
       -0.48627192 -0.16563794 -0.4402931 -0.45169118
0000c0 aa a7 da be 86 49 e5 be 8a 3a 4d be 89 cf 4b be
       -0.42706043 -0.44782656 -0.20041862 -0.19903387
0000d0 56 4d 0d bf 8b 59 06 be 44 39 6e be bb 41 7d be
       -0.5519613 -0.13120095 -0.23264033 -0.24732105
0000e0 5f e7 ae be 02 54 15 bf 8a 3c 04 bf 42 95 18 bf
       -0.34160897 -0.5833131 -0.51654875 -0.5960275
0000f0 61 bc a5 be cd a4 d9 be af 62 4d bf 62 9a b0 be
       -0.32370284 -0.42508546 -0.80228704 -0.34492785

model.10.weight f4 [64]
000000 b7 2b a3 3f 63 1a ce 3f 03 a8 b3 3f d0 b6 98 3f
       1.2747716 1.6101803 1.4035648 1.193079
000010 a5 9c ae 3f 54 95 c9 3f b6 1f ca 3f 6a f9 a2 3f
       1.3641554 1.5748696 1.5790927 1.2732365
000020 ca 95 c8 3f ed 5d e2 3f af 06 d5 3f cb 09 a9 3f
       1.5670712 1.7684914 1.6642665 1.3206114
000030 b2 93 b4 3f 8c b2 d2 3f 1f 82 90 3f 38 5a da 3f
       1.4107573 1.6460738 1.128971 1.7058783
000040 26 f1 81 3f 11 f2 b9 3f 00 ee a1 3f 1c e0 a2 3f
       1.0151718 1.4526998 1.2650757 1.2724643
000050 89 bc c1 3f 4e e1 af 3f 26 c3 8e 3f 62 75 d5 3f
       1.5135661 1.3740633 1.1153305 1.6676447
000060 b4 db b8 3f 6d 48 96 3f 2e 46 b6 3f a6 18 96 3f
       1.4442048 1.1740853 1.4240167 1.1726272
000070 cb 65 b3 3f 03 99 9c 3f b0 bf 95 3f 24 db a7 3f
       1.401544 1.2234195 1.1699123 1.3113751
000080 3e a4 a9 3f a6 57 9a 3f 1b c3 ad 3f 3f 85 ae 3f
       1.3253248 1.2057998 1.3575166 1.3634413
000090 d2 f5 17 40 01 18 8d 3f b3 99 d6 3f cc b6 b0 3f
       2.3743787 1.102295 1.6765655 1.3805785
0000a0 cc 0c af 3f 69 91 b8 3f 6d ce b0 3f 70 ff d6 3f
       1.367578 1.4419376 1.3812996 1.6796703
0000b0 c4 5c 94 3f e8 1d a8 3f 8d 12 b5 3f 5e e6 8d 3f
       1.159081 1.3134127 1.4146286 1.1085927
0000c0 64 ab b5 3f 2c 10 9c 3f 30 a8 85 3f 76 3e df 3f
       1.4192929 1.2192435 1.0441952 1.7440937
0000d0 58 f5 b7 3f 6e 26 b6 3f dd 22 ba 3f f3 19 a7 3f
       1.4371748 1.4230478 1.454189 1.3054794
0000e0 d5 f2 9a 3f 71 a1 e3 3f 10 fc d1 3f a5 31 84 3f
       1.2105356 1.7783643 1.6405048 1.032765
0000f0 62 9a c6 3f 45 e7 c5 3f 87 11 af 3f 5e 88 b7 3f
       1.5515864 1.5461203 1.3677224 1.4338491

model.10.bias f4 [64]
000000 4d 5b 05 3f 57 14 57 3e 09 b0 a1 3f ad 31 36 bd
       0.5209244 0.21003853 1.2631847 -0.04448097
000010 54 e9 3b 3f c1 d1 ab 3d c6 7f 2b 3d 09 2d e5 3d
       0.73402905 0.08389617 0.0418699 0.111902304
000020 08 08 83 bd 4c a0 18 bf d6 ad ee be 04 89 4d bd
       -0.06398016 -0.59619594 -0.46617 -0.050179496
000030 c1 eb a4 bd 6f 2f 4a 3e 0d af c2 3d 46 7b 2f 3e
       -0.08052779 0.19744657 0.095060445 0.17136869
000040 13 af c6 3f 84 9e 27 be ce 23 62 be f0 63 a7 3e
       1.5522178 -0.16369063 -0.22083971 0.32693434
000050 cd 9a 4d 3f 66 da 9c be d0 65 cb 3f 4a 8b e1 3d
       0.8031433 -0.30635375 1.5890446 0.110128954
000060 34 72 f7 bd 18 cf 2e 3e 33 db a8 be 35 5d 07 be
       -0.120823294 0.17071187 -0.32979736 -0.1321915
000070 a5 6c d2 3d 22 6e 0c be 08 fe 6a be b5 ef a6 3d
       0.102746285 -0.13713887 -0.22948468 0.08151189
000080 8e 8b 3e 3f 7a 5b 2d bf ea 1f 0e be 96 52 37 be
       0.74431694 -0.6771771 -0.13879362 -0.17902598
000090 02 c9 c8 3e 28 de bf 3e 26 fe 54 3c b6 ab 5f 3f
       0.39215857 0.3747418 0.013000047 0.87371385
0000a0 29 41 da bd 33 62 02 3f 19 a8 53 be ba b8 5c be
       -0.106569596 0.5093109 -0.20669593 -0.21554843
0000b0 c3 27 b3 be 1b cc 31 be 9e 70 1a bf b0 8a 86 bf
       -0.34991273 -0.17363016 -0.6032809 -1.0511074
0000c0 d3 ed 85 be 61 a8 29 bf 65 6b 81 3e 80 53 8e be
       -0.26158008 -0.6627255 0.25277248 -0.2779808
0000d0 a2 73 0d 3e cd 6d 07 be 56 5b 5f 3e ed 83 5f bf
       0.13813642 -0.1322548 0.21812186 -0.8731068
0000e0 06 8b a1 bc 5c 0d aa bd bf 6c 04 bf 5f d6 c4 bf
       -0.019719612 -0.08303329 -0.51728433 -1.5377921
0000f0 30 a1 94 be 7f 1d 07 be 3a 08 d4 be 50 10 34 be
       -0.29029226 -0.13194846 -0.41412526 -0.17584348

model.10.running_mean f4 [64]
000000 ce 85 a6 3b 41 a5 19 be 26 dc 06 be 86 fc b2 bd
       0.0050818687 -0.15004446 -0.13169917 -0.08739571
000010 8d b5 81 3e 52 4f 3a be c4 bd 47 3d 71 98 db bd
       0.25333825 -0.18194321 0.04876496 -0.10722435
000020 f0 8d 2c be ca 0c 1e bd 3a 40 89 be 61 14 cc 3c
       -0.1685102 -0.038586415 -0.26806813 0.024912061
000030 ce ad 6c be 91 d5 ef 3c c8 a1 d7 3d 0d f1 ec 3d
       -0.23113176 0.029276641 0.10528904 0.11569414
000040 fe 02 0c 3e 0e c0 66 be 6c 05 ca bc d4 74 1e 3d
       0.13673016 -0.225342 -0.024660788 0.038685635
000050 51 66 4b 3d 64 45 b8 bd 3c b9 58 bd c8 09 c3 3c
       0.049658123 -0.0899761 -0.05291103 0.023808375
000060 d4 d1 e4 bc 9e c5 a6 bc 02 7a f2 bd 55 0b 32 bd
       -0.027932085 -0.020357903 -0.118396774 -0.04346784
000070 87 fc e5 3d 3a 0c 48 bd 44 d8 27 be 18 ea 43 3c
       0.112298064 -0.048839785 -0.16391093 0.011957668
000080 12 c1 a2 3c 12 67 7e 3d dc 2e a8 bd 99 bd 8b 3d
       0.019867454 0.062110014 -0.08212063 0.06823272
000090 bc b2 17 3f 41 a3 e2 bd 97 b8 23 be 7f b6 16 3f
       0.592571 -0.110662945 -0.15988384 0.58872217
0000a0 2e d7 0c be de 16 28 be 5f fd 90 3e 6c d3 11 be
       -0.1375396 -0.16414973 0.28318307 -0.14240807
0000b0 7f 04 06 be 5e 8a d9 bd 23 9a 74 bd 29 c3 54 3e
       -0.13087653 -0.106220946 -0.05971731 0.20777573
0000c0 3a 13 ea bb 50 7e bb 3e ff 01 f6 bd 5f 4f 60 be
       -0.0071434053 0.36619806 -0.120120995 -0.21905278
0000d0 a0 b8 f4 3d e7 1c 60 3d 4b 2f bb bd f2 8e 25 3e
       0.11949277 0.054715063 -0.0913988 0.1616781
0000e0 d9 2d fb 3d 27 26 14 3e 8c db 93 bd df 32 88 3d
       0.12264604 0.14467679 -0.072196096 0.06650328
0000f0 bb 27 91 bd 2d d8 06 be 84 91 3e 3e 31 4e 3c bd
       -0.07087656 -0.13168402 0.18610197 -0.045973007

model.10.running_var f4 [64]
000000 49 ae 1c 3f 3c 74 aa 3f 24 1a 09 3f 5d 5e 8f 3f
       0.6120344 1.3316722 0.5355551 1.1200672
000010 ef bb 08 40 1a 2b 07 3f 51 db 10 3f 44 e5 96 3f
       2.1364706 0.5280014 0.5658465 1.1788716
000020 82 99 0e 3f 59 cb fd 3e e4 af 96 3f 2c 1a 50 3f
       0.55702984 0.49569204 1.1772428 0.81289935
000030 6c 8d 00 3f c7 ac 8f 3f 23 01 d2 3f 27 78 e0 3f
       0.5021579 1.1224602 1.6406597 1.7536668
000040 7f cf 51 3f aa f7 ee 3e 0a df 4c 3f 78 96 9d 3f
       0.8195724 0.46673328 0.8002783 1.2311544
000050 e6 36 91 3f aa 17 43 3f de 3f 1d 3f 4d 9e 84 3f
       1.1344879 0.76207983 0.6142558 1.036081
000060 de 24 13 3f 42 53 02 3f 03 e7 85 3f 57 89 60 3f
       0.5747813 0.5090829 1.0461124 0.87709564
000070 42 7f d6 3f 3c 28 2e 3f 37 2a 61 3f bd 6f a8 3f
       1.6757586 0.6803014 0.8795504 1.31591
000080 ce 6b c0 3f a9 f0 da 3f c8 b9 21 3f a3 ba b8 3f
       1.5032899 1.7104694 0.63174105 1.4431957
000090 50 43 7a 40 80 56 4e 3f cd b7 26 3f 03 9b 1b 40
       3.9103584 0.8060074 0.6512421 2.4313362
0000a0 d3 cd fc 3e 39 27 3f 3f df e1 e3 3f cc 9b 14 3f
       0.4937578 0.74669224 1.7803305 0.5805023
0000b0 3d 97 7b 3f 9c 9b 28 3f fe d0 83 3f 71 80 be 3f
       0.98277646 0.6586244 1.0298154 1.4882947
0000c0 db 68 3c 3f dd c1 e8 3f 23 e1 ba 3f fe 0e db 3e
       0.73597497 1.8184162 1.4599956 0.42784876
0000d0 25 02 92 3f 80 8b 60 3f c0 89 5d 3f 32 ca 93 3f
       1.1406904 0.8771286 0.86538315 1.154608
0000e0 17 d5 c8 3f 24 1f d5 3f 2a fc 2e 3f 99 cd ac 3f
       1.569003 1.6650128 0.6835352 1.3500243
0000f0 2c 5a 42 3f c8 1c 42 3f 1f 6f 15 40 7f a5 7b 3f
       0.7591884 0.75825167 2.3349073 0.982994

model.11.weight f4 [128, 64, 3, 3]
000000 73 6f 6c 3e 0d 1c 13 bc f9 a2 55 be 1f 63 26 bb
       0.2308939 -0.008978856 -0.2086295 -0.002538867
000010 6a 8d cb 3c 77 03 b8 bd 14 60 4b 3e 2f a3 07 3e
       0.024847705 -0.08985036 0.1986087 0.13245843
000020 bb e0 8f bd ea a9 2d 3e 5b 0c fa 3c 38 4d 13 3e
       -0.07025286 0.16959348 0.03052347 0.14384925
000030 9f 3c e2 3d 99 97 78 bd 32 6f 8b bd 64 f2 b9 bd
       0.11046719 -0.06069145 -0.06808318 -0.090794355
000040 58 9e 1b bc 70 4b 88 bd 4c 8b 72 3e da 7e dc bd
       -0.009498201 -0.066550136 0.2368595 -0.107663825
000050 6e cc ad 3d 56 73 83 be d6 21 bd 3a 60 1c 2a bd
       0.084862575 -0.25673932 0.001442964 -0.041530967
000060 17 14 3e be de 9c 9c 3d d2 19 0d be 7a 7e 13 bc
       -0.18562351 0.076471075 -0.13779381 -0.009002322
000070 04 9a 1f 3e 35 7e 44 3e b6 fc 3c be 9f 45 12 be
       0.15586096 0.19188769 -0.18455777 -0.14284371
000080 86 7b 37 bd 17 27 1b be bb 11 d3 3d e8 98 6e bd
       -0.044795536 -0.1515163 0.10306116 -0.05825129
000090 d0 82 80 3e bf 7d 64 3d f4 06 fa 3d 1d a9 c7 bd
       0.25099802 0.055783983 0.122083575 -0.09749053
0000a0 7d 21 ee 3d c0 25 a1 3d 7a b0 78 be 5c 04 12 bd
       0.11627481 0.07868528 -0.2428607 -0.03564869
0000b0 41 01 86 bd 6b fe 7b 3e dd 37 70 bc c7 84 d0 3d
       -0.06543208 0.24608772 -0.014661756 0.10181575
0000c0 7b 54 97 3d b1 64 5c 3e 17 91 9a 3e 0a 85 4c bd
       0.0738916 0.21522786 0.3018882 -0.049931563
0000d0 1e 8b 32 3d cc a0 66 3d 09 ef 06 bb ee 91 57 be
       0.043589704 0.05630569 -0.0020589253 -0.21051762
0000e0 27 ff a7 3d 8f cc 29 be 69 c9 78 be 23 8f 21 3d
       0.08202963 -0.16581939 -0.24295582 0.039443146
0000f0 4e dd 0a bc e9 b8 03 bd ff 8e 8e bc 76 c6 66 3d
       -0.008475615 -0.032158766 -0.01740217 0.05634161
000100 86 4a 27 3d 38 36 c1 3d 67 14 07 3b 50 c7 8a 3c
       0.040842555 0.094341695 0.0020611526 0.016940743
000110 b2 55 a7 bd f8 a3 19 3e 5b 61 11 3d df 7d 46 3e
       -0.08170642 0.15003955 0.035493236 0.19383954
000120 c8 1b 89 3e 43 1d 84 3e 5d e2 40 3e fd 37 6e bb
       0.26779008 0.25803575 0.1883635 -0.003634929
000130 72 63 d0 3d 77 34 38 3c 50 bd 46 3e 6e c0 58 3d
       0.10175218 0.011242977 0.19408154 0.05291789
000140 6e 21 c1 3c 67 1c d5 bd b3 17 ae 3e 96 eb fc bd
       0.02357551 -0.10405808 0.34002456 -0.12349622
000150 36 4c 13 be 3e ca e3 3d 44 f8 a8 bd 67 8e 81 bc
       -0.14384541 0.11122559 -0.08250478 -0.015814973
000160 24 18 33 ba 61 7b c6 3b 2b a4 aa 3d fc 3a f0 3d
       -0.00068319053 0.0060571884 0.08332094 0.117300004
000170 22 e2 2b 3d 0a 0d 80 3e 2d 47 e3 bc fa 24 3f 3d
       0.041963704 0.25009948 -0.0277439 0.046666123
000180 b7 b8 8a 3c 77 45 8c bd 53 6d a5 bd 77 ed 12 3c
       0.016933782 -0.06849187 -0.080774926 0.008967749
000190 3b d6 07 3e 2d 4a b0 3d 0c cf 12 bd f6 98 5b 3e
       0.13265316 0.08607898 -0.035841987 0.21445069
0001a0 d0 a5 a2 bd 03 91 33 3d 43 3d 28 3d 3b 8f 88 3d
       -0.079417825 0.043839466 0.04107405 0.06667944
0001b0 d1 e7 d0 bd c2 65 d3 3c 69 68 cc 3d 60 06 80 bc
       -0.102004655 0.025805358 0.09980852 -0.01562804
0001c0 6e 90 10 be 35 02 da bd 7f e6 6b 3d ab 87 c1 3d
       -0.14117596 -0.10644952 0.057592865 0.09449705
0001d0 cc d7 78 3d cf bc 78 3e 4d 01 38 3d ea a8 f5 bd
       0.060752675 0.24290775 0.044923116 -0.119951084
0001e0 0f 74 59 3d ae 79 57 be 85 49 34 be 92 30 55 bd
       0.053089198 -0.21042511 -0.1760617 -0.052048273
0001f0 44 e9 e1 bd 07 40 de 3b e3 74 aa 3c 1d d9 bc 3b
       -0.1103082 0.006782535 0.020807689 0.0057631866
000200 c7 06 81 be e6 02 14 3e f0 b7 2a bb 6d e8 35 3d
       -0.25200483 0.1445423 -0.0026049577 0.04441111
000210 ce 2b 1e bd ce b5 e4 3d af 33 30 3d 4a eb a3 3e
       -0.038615994 0.11167489 0.04301804 0.3201545
000220 ea 3d 29 3d 11 5d ca 3d fe f2 77 3e 6c 1b 83 be
       0.04131881 0.09881032 0.24213788 -0.2560686
000230 15 a7 a3 3d 66 4c d4 3d 82 4b ed bc 6b be 20 bb
       0.07990853 0.10366134 -0.028966669 -0.002452756
000240 07 0e be 3e 96 b1 f1 3c 3b c2 c5 3c 98 0d 85 be
       0.37120077 0.029503625 0.024140468 -0.25986934
000250 79 74 96 be 51 36 b1 3c f6 ed 2d 3d 8b 11 bc 3c
       -0.29385737 0.021632345 0.042463265 0.022957584
000260 ec b8 c1 bd d3 ad 93 3e 2d b2 45 be cc f0 c5 3d
       -0.09459099 0.28843555 -0.1930625 0.09665069
000270 cf 17 06 3d 66 9f a5 3d 54 7f 0f 3d bf 80 b0 bd
       0.03273755 0.080870435 0.03503354 -0.08618306
000280 7b 35 19 3d 08 ad d5 3d 19 96 0a be c8 74 5f 3d
       0.03740452 0.10433394 -0.1353382 0.05455473
000290 16 b0 cd bd 43 eb c6 bc 22 ef 5c ba 93 ee df 3d
       -0.10043351 -0.024282103 -0.00084279676 0.10934176
0002a0 d5 69 e1 bc c0 fa 3a 3e 57 e7 9b 3d 2f 67 ac bd
       -0.027516285 0.18259716 0.07612484 -0.08418118
0002b0 eb 25 48 be 42 51 b0 bc 37 63 21 3d 2f 86 1d be
       -0.19545715 -0.021523122 0.03940126 -0.15383218
0002c0 61 98 0c 3e 90 e5 18 3e f2 ad 38 bb d0 5a 15 bd
       0.13730003 0.14931321 -0.0028179851 -0.03646356
0002d0 1c 5b 9b be 67 11 a4 be c5 56 a9 be fe be 22 bf
       -0.30342948 -0.32044527 -0.33074012 -0.6357268
0002e0 31 db 3a bf 4c cb 0e bf b4 f3 ed be 73 df c5 be
       -0.7299071 -0.55778956 -0.46474993 -0.3864704
0002f0 8f 1e 92 be 75 3c a3 3c 55 a0 3d 3e 83 2f d6 bd
       -0.2853894 0.01992629 0.18518193 -0.10458281
000300 ba f4 00 3d 1c 32 93 3d cc 4f 20 be 3e 00 5f 3c
       0.03148339 0.07187292 -0.1565544 0.013610898
000310 d0 30 3f 3c 69 35 fe bb b8 0b b1 3e 08 37 49 3e
       0.011669353 -0.007757832 0.34579253 0.19649899
000320 a2 e8 2b 3e 32 58 92 bc 36 d1 09 3e 4b 30 a2 3c
       0.16787961 -0.01786432 0.13458714 0.019798419
000330 b2 1e d6 3c 81 7d 0a 3e 3c a2 6e 3d ef e0 8e be
       0.026137684 0.13524438 0.058260188 -0.27905986
000340 84 f9 42 bd 42 a8 38 be f0 15 0b be a7 2d e7 bd
       -0.047601238 -0.18032935 -0.13582587 -0.11288004
000350 9b 00 07 3b 7f 60 cc bd 7a c4 4c be 44 7c e0 bc
       0.0020599726 -0.09979343 -0.19996825 -0.027403004
000360 29 3e 8d 3d 52 85 41 bc d8 7c 42 3d ac f3 a4 bd
       0.06896622 -0.011811571 0.04748234 -0.08054289
000370 2e 28 ca bd 21 a4 5e bd 21 6d 1f 3e 66 59 8c bd
       -0.09870945 -0.054355744 0.15568973 -0.06852989
000380 ee 9d d3 bb 3a a8 c9 bd fa dc 00 3d 73 df 01 be
       -0.0064580357 -0.0984654 0.03146074 -0.12682895
000390 4a bc 98 bd 78 00 cd bd 3a 39 36 be e9 ee 02 3c
       -0.07457788 -0.10009855 -0.17795268 0.007991531
0003a0 59 6d 92 bc 67 ad 6a bc 12 83 e7 3c dc f0 99 3d
       -0.017874407 -0.014323569 0.028260741 0.075166434
0003b0 be ed 92 3d 49 9b 04 3e 81 27 6a bd 47 77 b9 3d
       0.07174252 0.12949862 -0.05716658 0.090559535
0003c0 34 4a 3b 3d e8 5f 4c 3e ae df 28 bc 85 83 08 3e
       0.045725062 0.1995846 -0.010307236 0.1333142
0003d0 6e 19 e6 bd 12 f2 e8 bc 4b 5a 43 3c 1e fc 4f bd
       -0.11235319 -0.02843574 0.011923383 -0.050777547
0003e0 cc 8e 89 bd 9c ec f6 bd e9 95 6d bd 47 60 c0 3c
       -0.067166895 -0.120568484 -0.058004294 0.023483409
0003f0 d2 bd 0c 3e 9f f1 a6 3e 93 27 2f bd b0 ce 91 3d
       0.13744286 0.32606217 -0.04276235 0.07119501

model.11.bias f4 [128]
000000 53 60 97 be 69 f8 9e bd 10 aa d3 bc e2 1e 61 be
       -0.29565677 -0.07762224 -0.025837928 -0.21984437
000010 ce f0 10 be ad 8f 36 be ae 65 5b be 6d 2c ee 3b
       -0.1415436 -0.17828245 -0.21425506 0.0072684796
000020 e3 91 d9 bd 14 84 6e bd 95 e8 da bd da e3 c4 3c
       -0.10623529 -0.05823143 -0.10688893 0.02403443
000030 cb 61 ce bd 8e fa 2f be 31 55 53 bd dd 6f a6 be
       -0.10077246 -0.17185423 -0.051594917 -0.3250722
000040 e3 28 84 bd 44 60 31 be 98 c0 65 be df a5 3b be
       -0.06453111 -0.17321879 -0.2243675 -0.18324994
000050 06 5d 86 be 98 5e 4a be 10 c4 f9 bd 71 88 4e 3b
       -0.26242846 -0.19762647 -0.12195599 0.003151443
000060 cb 95 a3 be 89 eb b8 bd 99 29 27 be 93 42 81 be
       -0.3195022 -0.090293 -0.16324462 -0.25246105
000070 7b d7 f1 be ff f5 91 be 2a 54 87 be 6c ea 56 be
       -0.4723471 -0.28507993 -0.264314 -0.20987862
000080 e5 f1 8a be 4d 17 0f be 77 6c 81 be 02 fd 0b 3e
       -0.27137676 -0.13973732 -0.25278065 0.13670734
000090 90 80 3b be 20 20 c7 bd 9f ab 59 be 9a eb 21 be
       -0.18310761 -0.09722924 -0.21256875 -0.15812531
0000a0 06 77 f2 bc ee fb 09 be aa 92 0b be 08 29 1b 39
       -0.02959777 -0.1347501 -0.13630167 0.00014797237
0000b0 f1 8a 04 be 13 54 9a bc fe c5 55 be 84 5e 09 be
       -0.12943627 -0.018838918 -0.2087631 -0.13414961
0000c0 40 e3 6b be ea 62 eb 3d 0b 94 a9 be c8 48 96 be
       -0.23035908 0.11493476 -0.3312076 -0.29352403
0000d0 40 c9 d9 bd 9b a1 0a be 5e ae 2a be 6b ed 87 bd
       -0.106340885 -0.1353821 -0.16668078 -0.06637081
0000e0 46 b1 8d bd 4f 70 c8 be 2e bd dd bd 90 09 01 be
       -0.06918578 -0.39148185 -0.10827099 -0.12601304
0000f0 7f 17 b1 be 91 db c7 bd 22 2a 93 be 44 e3 94 be
       -0.3458824 -0.09758676 -0.28743082 -0.2907964
000100 64 e7 80 be 79 e8 c4 3d 1b cf 0c bd 32 85 a8 3d
       -0.25176537 0.09614653 -0.0343772 0.0822853
000110 67 20 b2 bd e0 64 21 be 8c ae 5c be 76 d8 a3 be
       -0.086975865 -0.15761137 -0.2155096 -0.32001084
000120 f9 81 80 3d 2a e9 51 be 3f e8 07 be 3c fc c5 bd
       0.0627479 -0.20499101 -0.13272189 -0.096672505
000130 e9 0a 48 be e3 18 02 be 14 1c b9 3c 95 c9 21 be
       -0.19535412 -0.12704806 0.022596397 -0.15799554
000140 fe 03 b4 bd 2e 0e c7 3c c2 ac fd 3d d2 98 e5 3b
       -0.08789824 0.024298754 0.123864666 0.007006743
000150 b7 23 c9 3d a0 6f 06 be 0f 98 51 3d e6 5f 47 be
       0.09821265 -0.13128519 0.051170405 -0.19470176
000160 11 29 24 bd 93 71 4a bd 95 f9 8d be 79 2a 88 be
       -0.040078226 -0.04942472 -0.27729478 -0.26594904
000170 5e ef 5b be 20 3c d9 bc 4e b3 54 3c 4d c7 4f be
       -0.2147803 -0.026517928 0.012982203 -0.20290871
000180 08 80 c6 be 5a fc 45 be 3b f5 8e 3d 79 b9 b7 3c
       -0.38769555 -0.19334546 0.06980368 0.022427307
000190 cc 43 cd 3d d4 43 fd 3c 62 d5 46 be 76 57 30 be
       0.10022697 0.030916132 -0.19417337 -0.17220864
0001a0 56 3a 22 be b3 38 9e bd d7 7d c1 bd 84 2e 21 bd
       -0.15842566 -0.07725658 -0.0944783 -0.039351
0001b0 d7 5b a4 3d 22 df cf be 32 f1 93 be b0 e6 db be
       0.080253296 -0.40599924 -0.28894955 -0.42949438
0001c0 5b cb db be 0b c4 dd bd cc da a6 be 23 99 18 3c
       -0.42928585 -0.10828408 -0.32588804 0.009313854
0001d0 62 8f ef be 1b d3 c8 bd e0 73 84 be 33 d9 f6 3c
       -0.4678908 -0.0980589 -0.25869656 0.030132866
0001e0 34 1e 86 bd ff 11 f7 3c 41 e6 47 3e 9c 21 6f be
       -0.065487295 0.030159948 0.19521429 -0.23352665
0001f0 da b0 49 bd d8 a3 d2 bd 83 5c 9c be 42 0f 92 bd
       -0.049240924 -0.10285157 -0.3053933 -0.071318164

model.14.weight f4 [128]
000000 93 cd 58 3f c7 1e 64 3f 04 02 56 3f d1 ea 91 3f
       0.8468868 0.8910946 0.83596826 1.1399785
000010 15 33 6b 3f d9 5f b6 3f 27 9a c4 3f 43 f9 9f 3f
       0.9187482 1.4248 1.5359544 1.2497944
000020 02 9a a5 3f 66 2e b7 3f 12 c8 a7 3f ca 2f bc 3f
       1.2937624 1.4311035 1.3107932 1.4702084
000030 a7 51 3f 3f fd 42 5a 3f 9a 78 8b 3f 2e 62 16 3f
       0.74733967 0.85258466 1.089618 0.5874356
000040 ce f9 9a 3f f6 99 59 bf 62 a2 ad 3f 5e 89 d1 3f
       1.2107484 -0.8500055 1.356518 1.6370046
000050 27 47 48 3f 7f 9a e1 3f 10 5e 84 3f 5a 39 c7 3f
       0.7823357 1.7625273 1.0341206 1.5564377
000060 74 d1 63 3f b9 68 92 3f 1a 26 a4 3f 89 8e 7e 3f
       0.88991475 1.1438209 1.2824128 0.9943624
000070 b2 3b 30 3f 06 94 98 3f 15 7b b5 3f 4a 34 99 3f
       0.6884109 1.1920173 1.4178187 1.1969082
000080 75 f9 57 3f 32 8e 41 3f 55 fa 5f 3f c4 f6 18 3f
       0.84365016 0.756076 0.8749135 0.59751534
000090 93 0f 4c 3f ba 75 ad 3f 53 57 9b 3f c6 b9 8e 3f
       0.79711264 1.3551552 1.2136024 1.1150444
0000a0 6a 6a a6 3f 01 74 5b 3f a0 bc 8a 3f 2d 1c ab 3f
       1.3001225 0.8572388 1.0838814 1.3367974
0000b0 15 7f a8 3f d0 b4 31 3f 04 50 81 3f e3 c2 ac 3f
       1.3163782 0.6941652 1.0102544 1.3496975
0000c0 32 80 52 3f 12 ba a9 3f ce d1 62 3f 04 a0 a0 3f
       0.8222686 1.3259909 0.88601387 1.2548833
0000d0 fd a6 a2 3f 5d b8 b1 3f a3 87 2b 3f 78 10 ab 3f
       1.2707211 1.3884388 0.6700384 1.3364401
0000e0 69 28 69 3f 78 05 99 3f cb b1 62 3f 55 ec c8 3f
       0.91077286 1.1954794 0.8855254 1.5697123
0000f0 fc 31 58 3f 11 0b 8d 3f 0a cf 9b 3f 95 0c 6e 3f
       0.8445127 1.1019002 1.2172558 0.9298795
000100 d1 97 9e 3f 59 45 7b 3f e4 c9 81 3f 35 71 9c 3f
       1.2390081 0.9815269 1.0139737 1.2222048
000110 9b 27 6f 3f 5e 8a 90 3f 68 f0 a1 3f 46 64 91 3f
       0.9341981 1.1292226 1.2651491 1.1358726
000120 4b 05 93 3f 69 33 4e 3f 29 14 8a 3f c6 10 cc 3f
       1.148599 0.80547196 1.0787402 1.5942619
000130 c3 fc 86 3f 9a 04 cf 3f fa 07 76 3f a3 17 7c 3f
       1.0545887 1.6173279 0.9610592 0.98473567
000140 47 4b 6c 3f 02 09 1f 3f 75 88 a9 3f 65 cb 48 3f
       0.92302364 0.6212312 1.3244768 0.78435355
000150 35 54 86 3f c6 06 d8 3f 0a 2e 95 3f 7a ba 56 3f
       1.0494448 1.6877067 1.1654675 0.8387829
000160 48 34 9f 3f 14 3e 56 3f 13 88 78 3f 96 47 9c 3f
       1.243783 0.83688474 0.9708263 1.2209346
000170 fe 55 f6 3f 7d 95 a4 3f f8 e7 9f 3f a0 65 4f 3f
       1.9244993 1.285812 1.2492666 0.8101444
000180 61 64 9b 3f 83 77 85 3f de 6a 3d 3f 69 4a 49 3f
       1.2140008 1.0427097 0.7399119 0.78629166
000190 ee 5c b6 3f 96 45 11 3f e3 33 43 3f cc 25 72 3f
       1.424711 0.56746805 0.7625105 0.94588923
0001a0 56 cf ac 3f 9c dd c8 3f 46 33 ac 3f e1 a4 a1 3f
       1.3500774 1.569263 1.3453147 1.2628442
0001b0 4e a2 36 3f 8f 82 52 3f 7a cc 8e 3f 10 4f 48 3f
       0.7134141 0.82230467 1.1156151 0.7824564
0001c0 8b f7 4f 3f 50 f2 c5 3f 4b ca aa 3f 1c 6a 81 3f
       0.81237096 1.5464573 1.3342985 1.0110507
0001d0 06 3c 43 3f 95 b2 9b 3f 56 80 49 3f f9 39 3a 3f
       0.76263463 1.2163874 0.7871145 0.7274471
0001e0 7a af 5c 3f cb 96 9f 3f f8 39 69 3f 46 41 b6 3f
       0.86205256 1.2467893 0.9110408 1.423867
0001f0 ef 40 b6 3f 32 99 94 3f 49 6e 81 3f e2 92 bc 3f
       1.4238566 1.1609251 1.0111781 1.4732325
