acgan_models/saved/discriminator_c(750dcnn).pth (torch_old, 419680 bytes, 23 tensors)

model.0.weight f4 [16, 3, 3, 3]
-0.4421409 0.081963554 0.30136806 -0.15977685 0.13106364 0.13863823 -0.2709721 0.065258496
0.11622644 -0.44154438 0.054386333 0.3631698 -0.2243039 0.0044903136 0.18580687 -0.18176927
0.050932825 0.17434943 -0.40743294 0.013917991 0.37974492 -0.2500186 0.049037874 0.11189142
0.11382869 -0.08213013 -0.045264196 0.12820113 0.031122886 0.024614807 -0.046373866 0.07957703
-0.080950215 -0.19662382 0.033134524 -0.10244354 0.4610265 0.33343932 0.17212944 0.094908886
-0.08349142 -0.07478506 -0.60434103 -0.24785565 -0.17212324 0.36447376 0.030282453 0.23103039
0.024801426 0.16070446 0.009559172 -0.33118 -0.21487893 -0.07690392 0.039582465 -0.049168874
0.17470004 0.52908266 0.39253163 0.4437006 0.03424557 0.060360335 0.07593491 -0.14467722
-0.047137115 -0.115346506 0.03705816 -0.20961592 0.006415218 -0.033014733 -0.008299174 0.053036503
0.024867011 0.14119591 -0.10713661 -0.4386758 -0.16409388 -0.45139357 -0.09115767 -0.020830922
-0.14036922 0.011492048 -0.004955074 -0.09253997 -0.13851298 -0.19228387 -0.080273025 0.3820725
0.043285124 0.02955305 0.26739764 -0.11126742 -0.39941883 0.114344336 -0.018310482 -0.27057528
0.41500753 0.06350413 -0.12120697 0.3885481 0.10758171 0.08867942 0.43216175 0.104833834
-0.18446432 0.20604546 0.050900806 -0.11125103 0.2510142 0.314635 0.18483241 0.39632744
0.34621474 0.18806125 0.14202207 0.26059094 0.1410379 -0.7975007 -0.737944 -0.45153365
-0.75358796 -0.5647362 -0.3548682 -0.43577588 -0.37919998 -0.26778346 0.5351447 0.4256256
0.32232955 0.37973604 0.18802759 0.13257506 0.22020648 0.13511401 0.18022564 -0.15938833
0.014672951 -0.037649926 -0.059123717 0.002122913 -0.019684805 0.07531012 0.14835556 0.019541135
-0.41492128 -0.3008486 -0.079400934 -0.06608877 -0.12585887 0.06461363 0.16282801 0.18393013
-0.0721261 -0.28370076 -0.22405317 -0.040980607 -0.13443096 0.086927906 0.058484286 0.20161706
0.0122085195 0.05047643 -0.5101641 -0.538447 -0.1976056 -0.15872803 -0.27564037 -0.23248485
0.09529698 -0.06577746 0.1289488 -0.063562825 -0.08554106 -0.15603828 0.16316508 0.10923007
0.1382913 0.01094919 -0.017328162 -0.04557499 0.3461436 0.7039119 0.20944145 0.18389374
0.20222923 0.23981668 -0.14639257 0.032459807 -0.12577343 -0.23930825 -0.20163065 -0.058162123
-0.39143488 -0.16373068 -0.22028433 -0.21482779 -0.13556723 -0.003214523 0.10490904 -0.10095933
-0.053497735 -0.088874616 0.11546122 0.0047015045 -0.08011183 -0.11729919 -0.051556535 0.30218032
0.2529133 0.22758885 0.35926363 0.011907736 0.09319416 0.2496045 0.21030334 0.1683667
-0.08763759 -0.09247635 -0.021086004 0.12287147 0.021791592 0.20060793 -0.060754694 -0.01157202
0.087518625 -0.043841094 0.027354244 -0.114451185 -0.100999534 0.0883793 -0.011358593 -0.46780694
-0.38590002 -0.369215 0.047810387 0.18928707 -0.022990389 0.0520626 -0.07776209 -0.041347794
-0.18062243 -0.054616008 -0.37617728 -0.18777958 -0.067491286 0.103020325 -0.09221238 0.12157128
0.25785157 0.104068495 0.09311244 0.045902062 -0.3615689 -0.23688705 0.0666264 -0.05699988
00000000: 4b60 e2be 82dc a73d ea4c 9a3e 8b9c 23be
00000010: 8c35 063e 2ef7 0d3e dbbc 8abe 3fa6 853d
00000020: 2108 ee3d 1b12 e2be 34c4 5e3d 64f1 b93e
00000030: ecaf 65be 7b23 933b 2844 3e3e b921 3abe
00000040: f09e 503d a888 323e 0d9b d0be 4908 643c
00000050: ed6d c23e 7002 80be f0db 483d 5427 e53d
00000060: 041f e93d d733 a8bd f366 39bd 2847 033e
00000070: 6cf5 fe3c fea4 c93c 86f2 3dbd 48f9 a23d
00000080: 3ac9 a5bd c157 49be 11b8 073d ebcd d1bd
00000090: aa0b ec3e 8fb8 aa3e b342 303e 975f c23d
000000a0: 8dfd aabd e928 99bd 18b6 1abf dfcd 7dbe
000000b0: 1341 30be 4e9c ba3e e812 f83c 3b93 6c3e
000000c0: 5c2c cb3c b68f 243e 139e 1c3c 6d90 a9be
000000d0: 3909 5cbe cd7f 9dbd 3921 223d 4d65 49bd
000000e0: 91e4 323e f671 073f e8f9 c83e ba2c e33e
000000f0: 1545 0c3d 663c 773d c383 9b3d 4426 14be
00000100: d912 41bd ca3a ecbd 4cca 173d 8ea5 56be
00000110: c036 d23b 753a 07bd 42f9 07bc ce3c 593d
00000120: e7b5 cb3c a995 103e 706a dbbd 1d9a e0be
00000130: 3a08 28be 0f1d e7be dfb0 babd 9ca5 aabc
00000140: f3bc 0fbe 2549 3c3c 2c5e a2bb 9985 bdbd
00000150: 59d6 0dbe 10e6 44be 2f66 a4bd 029f c33e
00000160: be4b 313d 3d19 f23c 58e8 883e 2ce0 e3bd
00000170: a080 ccbe 5d2d ea3d ddff 95bc d888 8abe
00000180: de7b d43e 740e 823d 5c3b f8bd c7ef c63e
00000190: cd53 dc3d 8e9d b53d 4e44 dd3e 1fb3 d63d
000001a0: 37e4 3cbe 95fd 523e 5d7d 503d 94d7 e3bd
000001b0: ef84 803e d717 a13e b544 3d3e 6eeb ca3e
000001c0: 0f43 b13e 2193 403e 3c6e 113e 2d6c 853e
000001d0: 3d6c 103e 0229 4cbf e6e9 3cbf 6b2f e7be
000001e0: 24eb 40bf 8d92 10bf 49b1 b5be 041e dfbe
000001f0: 8026 c2be ea1a 89be 3eff 083f 99eb d93e
00000200: 6108 a53e c36c c23e 4e8a 403e c2c1 073e
00000210: cf7d 613e 545b 0a3e 128d 383e b236 23be
00000220: d166 703c cf36 1abd b62b 72bd 9220 0b3b
00000230: 0742 a1bc 313c 9a3d 85ea 173e bb14 a03c
00000240: 9070 d4be d408 9abe f59c a2bd 8d59 87bd
00000250: 26e1 00be 2754 843d 63bc 263e 2e58 3c3e
00000260: d9b6 93bd 3a41 91be 326e 65be 48db 27bd
00000270: 45a8 09be 4207 b23d 388d 6f3d b474 4e3e
00000280: 3e06 483c 60c0 4e3d 1d9a 02bf aad7 09bf
00000290: 1f59 4abe 9a89 22be bc20 8dbe 8210 6ebe
000002a0: 102b c33d 55b6 86bd 270b 043e 3a2d 82bd
000002b0: 2730 afbd 80c8 1fbe bf14 273e 04b4 df3d
000002c0: 3c9c 0d3e 3b64 333c caf3 8dbc d7ac 3abd
000002d0: bc39 b13e 9233 343f d277 563e a44e 3c3e
000002e0: 2e15 4f3e 8192 753e efe7 15be 93f4 043d
000002f0: c0ca 00be 390d 75be 4478 4ebe 683b 6ebd
00000300: 276a c8be 04a9 27be 3792 61be d1fb 5bbe
00000310: 23d2 0abe bfaa 52bb 8dda d63d c4c3 cebd
00000320: 7120 5bbd e503 b6bd ef76 ec3d 140f 9a3b
00000330: ac11 a4bd 8f3a f0bd f22c 53bd 61b7 9a3e
00000340: da7d 813e 0d0d 693e 67f1 b73e aa18 433c
00000350: 94dc be3d 5298 7f3e c259 573e 5268 2c3e
00000360: 567b b3bd 3e64 bdbd 8ebc acbc 0aa4 fb3d
00000370: 4884 b23c 2a6c 4d3e ead9 78bd 9298 3dbc
00000380: f73c b33d b892 33bd 0216 e03c 6265 eabd
00000390: d8d8 cebd 3500 b53d 6419 3abc 6484 efbe
000003a0: b094 c5be c009 bdbe d3d4 433d 78d4 413e
000003b0: 5756 bcbc 983f 553d bb41 9fbd 4e5c 29bd
000003c0: 16f5 38be 09b5 5fbd 4f9a c0be 4a49 40be
000003d0: df38 8abd 52fc d23d d8d9 bcbd 5dfa f83d
000003e0: 1f05 843e dd21 d53d bcb1 be3d cd03 3c3d
000003f0: 8f1f b9be 8592 72be 6c73 883d b578 69bd

model.0.bias f4 [16]
-0.15329884 -0.14258981 0.032763638 -0.51633936 -0.001861012 -0.21903725 0.053824224 0.21882583
-1.1266046 -0.1299113 -0.062016137 -0.13282287 -0.009869175 -0.021235263 -0.086902186 -0.5111235
00000000: 5ffa 1cbe 1003 12be 2a33 063d d12e 04bf
00000010: 33ed f3ba 4d4b 60be ca76 5c3d e113 603e
00000020: 9434 90bf 7807 05be a204 7ebd b802 08be
00000030: 52b2 21bc 93f5 adbc c6f9 b1bd fdd8 02bf

model.3.weight f4 [32, 16, 3, 3]
-0.1786457 -0.2940313 -0.28440052 0.053311348 -0.1268415 -0.1607486 -0.04414551 -0.12147114
-0.05518431 0.31624666 0.04025027 -0.37572563 0.13078241 0.012663337 -0.14271635 0.030685175
-0.01818666 0.011254551 -0.32484743 -0.059084553 0.42881024 -0.08030388 -0.08314462 0.12207576
-0.0011327732 -0.04257127 0.032077458 0.4956521 -0.04606272 -0.556163 0.07799063 -0.02737133
-0.05252852 -0.032414265 0.019768618 -0.02348764 0.7452873 0.015506146 -0.6804646 0.17889105
0.05785988 -0.26227438 0.068354584 0.02639566 -0.11996598 -0.26088703 0.003349236 0.22800331
-0.2959285 0.04329922 0.2815876 -0.13899574 0.012819271 0.14346774 0.4765913 -0.017148929
-0.40027118 0.011337264 0.025593348 -0.100221954 0.024023602 -0.03270404 0.029397752 0.3899236
-0.044269986 -0.28225607 0.07900729 -0.04213188 -0.117487475 0.083605506 -0.060642857 -0.015843121
-0.29676786 -0.024049727 0.2865301 -0.20086475 0.032457907 0.16917665 -0.19329488 0.05605663
0.1442468 0.51196283 0.008735227 -0.5655695 0.07586577 0.043625437 -0.1194213 0.06154872
0.026290901 -0.07257561 -0.381172 -0.04044476 0.46772948 -0.09074608 -0.06980175 0.09919164
-0.08946639 0.014853522 0.03141042 0.0023783857 0.006460397 0.03610937 -0.07086786 0.014970378
0.021443112 -0.010252495 -0.04432234 -0.02921232 -0.114429556 -0.09691061 0.26564768 -0.13224927
-0.033522412 0.10635638 0.0073394678 -0.0371363 0.009623907 -0.5925817 0.011997825 0.6268772
-0.3988702 0.066607185 0.24118143 0.004849473 0.065707326 -0.078736946 -0.15748455 -0.185697
-0.096477814 -0.06015477 0.059446022 0.050796706 -0.015509097 0.016010039 0.033897072 0.1617731
-0.004350669 -0.15955937 0.035814274 0.03347883 0.015580961 0.026975323 -0.004852856 -0.09149799
0.34214735 0.12444938 -0.25895086 0.2124855 -0.024920935 -0.29232362 0.102635585 0.0044851503
-0.22206594 0.06181698 0.0011588087 -0.10811268 0.14631402 -0.08075472 -0.20125404 -0.12645724
-0.21433225 -0.076995015 0.079623714 0.10392494 0.0038303323 -0.085521765 0.029875623 -0.09274355
-0.06436693 0.042350706 0.022952415 -0.0007880268 -0.5546793 0.16802791 -0.10697266 -0.06707781
0.39053872 -0.16733 -0.12645641 0.31224027 0.009661902 -0.09514651 0.055044293 0.08983761
-0.08578351 0.05324763 -0.024025906 -0.048514847 0.021230277 0.5522756 0.2366435 -0.41295272
0.39350745 0.18806867 -0.70201874 0.23326722 -0.02567333 -0.5480156 -0.09779191 0.03266899
0.052200936 -0.061382424 0.01268652 0.00062876515 -0.04555627 0.0017999384 -0.025795994 0.016566044
-0.009931289 -0.01466969 0.09069245 0.050965983 0.005592346 -0.006646701 -0.027789066 -0.104746774
0.2702373 0.18697926 -0.46708766 0.31989783 0.33850756 -0.4158026 0.3263187 0.2472116
-0.60406274 -0.27710602 0.106327266 0.1325456 -0.34995154 -0.06412922 0.08616124 -0.29180518
0.07635627 0.26217934 -0.49559268 -0.1565145 0.14688863 -0.12050028 -0.041159842 -0.0070001674
-0.07706758 -0.057188254 0.1081499 0.5713287 0.34102762 -0.23287748 0.3181512 0.12375277
-0.4498263 0.2623216 0.056629743 -0.45930725 0.08656292 0.16283183 -0.13415761 0.046135418
00000000: e6ee 36be 458b 96be f29c 91be 005d 5a3d
00000010: bde2 01be 489b 24be ecd1 34bd dcc5 f8bd
00000020: f108 62bd 15eb a13e 78dd 243d 1c5f c0be
00000030: d3eb 053e e379 4f3c 3c24 12be 7a5f fb3c
00000040: 31fc 94bc 0265 383c 6752 a6be a502 72bd
00000050: 048d db3e 5c76 a4bd ba47 aabd db02 fa3d
00000060: 9079 94ba 365f 2ebd a763 033d 1dc6 fd3e
00000070: 43ac 3cbd b360 0ebf 8db9 9f3d d739 e0bc
00000080: 2528 57bd d2c4 04bd ccf1 a13c 2769 c0bc
00000090: 26cb 3e3f 7d0d 7e3c ee32 2ebf 372f 373e
000000a0: 7bfe 6c3d d448 86be 7dfd 8b3d b63b d83c
000000b0: b9b0 f5bd fc92 85be db7e 5b3b b379 693e
000000c0: f183 97be 865a 313d 402c 903e e654 0ebe
000000d0: eb07 523c 35e9 123e c603 f43e e97b 8cbc
000000e0: 58f0 ccbe efbf 393c 24a9 d13c 2b41 cdbd
000000f0: 25cd c43c acf4 05bd 8ed3 f03c 11a4 c73e
00000100: 7254 35bd de83 90be 93ce a13d 7a92 2cbd
00000110: 469d f0bd 5d39 ab3d a564 78bd 6fc9 81bc
00000120: f5f1 97be ef03 c5bc 13b4 923e 7daf 4dbe
00000130: 95f2 043d a53c 2d3e 18ef 45be a39b 653d
00000140: 6fb5 133e ff0f 033f 331e 0f3c 2ac9 10bf
00000150: 835f 9b3d 96b0 323d 2893 f4bd 831a 7c3d
00000160: 0460 d73c 85a2 94bd fa28 c3be 68a9 25bd
00000170: 3d7a ef3e 15d9 b9bd 38f4 8ebd fd24 cb3d
00000180: 283a b7bd 305c 733c 36a8 003d b1de 1b3b
00000190: bdb1 d33b 6be7 133d 2b23 91bd 5146 753c
000001a0: 77a9 af3c 15fa 27bc 588b 35bd ad4e efbc
000001b0: 0b5a eabd 1279 c6bd f902 883e 5a6c 07be
000001c0: cc4e 09bd 60d1 d93d eb7f f03b 3c1c 18bd
000001d0: 97ad 1d3c 6fb3 17bf 8692 443c 067b 203f
000001e0: b738 ccbe 5969 883d 44f8 763e 54e8 9e3b
000001f0: 9091 863d d640 a1bd a143 21be 5b27 3ebe
00000200: 2996 c5bd d964 76bd ac7d 733d 3510 503d
00000210: de19 7ebc 7c27 833c a8d7 0a3d d9a7 253e
00000220: 0f90 8ebb 8863 23be fdb1 123d 1921 093d
00000230: 4947 7f3c 5afb dc3c b504 9fbb 4c63 bbbd
00000240: f02d af3e 51df fe3d 3595 84be cd95 593e
00000250: fd26 ccbc 71ab 95be 9b32 d23d 2bf8 923b
00000260: 4165 63be cd33 7d3d 2be3 973a 2e6a ddbd
00000270: 58d3 153e bb62 a5bd 8a15 4ebe 027e 01be
00000280: ea79 5bbe 90af 9dbd c211 a33d 99d6 d43d
00000290: 5006 7b3b 0926 afbd b9bd f43c 55f0 bdbd
000002a0: cfd2 83bd ef77 2d3d b406 bc3c 9593 4eba
000002b0: 76ff 0dbf 820f 2c3e 7b14 dbbd 1760 89bd
000002c0: b1f4 c73e 8e58 2bbe ca7d 01be f5dd 9f3e
000002d0: f44c 1e3c 2cdc c2bd 2076 613d c8fc b73d
000002e0: 44af afbd 301a 5a3d fad1 c4bc 81b7 46bd
000002f0: 1eeb ad3c ef61 0d3f ac52 723e 8a6e d3be
00000300: cf79 c93e 1395 403e 80b7 33bf 9add 6e3e
00000310: e050 d2bc c04a 0cbf 2047 c8bd ebcf 053d
00000320: a6d0 553d 236c 7bbd 1fdb 4f3c b7d3 243a
00000330: 3699 3abd e9eb eb3a 1f52 d3bc 83b5 873c
00000340: d8b6 22bc 2459 70bc f7bc b93d b5c1 503d
00000350: 0040 b73b 92cc d9bb e5a5 e3bc 7a85 d6bd
00000360: 8b5c 8a3e 7e77 3f3e 1d26 efbe a6c9 a33e
00000370: dd50 ad3e 14e4 d4be 3f13 a73e 0a25 7d3e
00000380: dba3 1abf d7e0 8dbe 1cc2 d93d 09ba 073e
00000390: d92c b3be 2e56 83bd 4e75 b03d 7d67 95be
000003a0: ad60 9c3d 5f3c 863e 53be fdbe 5645 20be
000003b0: f969 163e dac8 f6bd 3997 28bd a961 e5bb
000003c0: 9bd5 9dbd 3b3e 6abd b27d dd3d 9942 123f
000003d0: 2c9b ae3e 6f77 6ebe b7e4 a23e 1872 fd3d
000003e0: a24f e6be 044f 863e 97f4 673d 522a ebbe
000003f0: e647 b13d 63bd 263e 9d60 09be 7ef8 3c3d

model.3.bias f4 [32]
-0.08925874 -0.2135945 -0.3416393 -0.010867646 -0.607492 -0.66379327 -0.2757998 -0.08617054
-0.040653482 -0.041864503 -0.07604529 0.02700974 -0.056592945 -0.65227455 -0.10842073 0.08768314
0.13472754 0.050771862 0.059552904 -0.112529345 -0.03925756 -0.15038465 -0.046059065 0.26492813
-0.16796501 -0.079572275 -0.030701943 -0.055842612 0.1736216 0.033852704 0.037622448 -1.3054649
00000000: 49cd b6bd 84b8 5abe 59eb aebe 360e 32bc
00000010: 9984 1bbf 5bee 29bf a235 8dbe 2e7a b0bd
00000020: 4484 26bd 1d7a 2bbd a2bd 9bbd 8843 dd3c
00000030: 01ce 67bd 77fb 26bf b00b debd 3893 b33d
00000040: 04f6 093e 28f6 4f3d bfed 733d c975 e6bd
00000050: 89cc 20bd 6ffe 19be 6ea8 3cbd a9a4 873e
00000060: 05ff 2bbe caf6 a2bd a482 fbbc 39bb 64bd
00000070: dcc9 313e 22a9 0a3d ff19 1a3d 7919 a7bf

model.6.weight f4 [32]
1.5354645 1.074261 0.7082001 1.0193827 0.40914837 0.64297324 0.8194359 1.2985747
1.3535875 1.4685378 1.5775443 0.6251244 1.5209767 0.91224533 1.1833078 0.79995865
0.8958699 0.6028413 0.80313575 0.9578113 1.4394969 1.0824195 1.8548844 0.749832
1.3410373 1.5609628 1.1926429 1.0851432 0.791179 0.8975678 1.0457069 0.8949879
00000000: 1a8a c43f 6281 893f 9a4c 353f 227b 823f
00000010: e57b d13e e599 243f 8dc6 513f b237 a63f
00000020: 5b42 ad3f 0cf9 bb3f f9ec c93f 2708 203f
00000030: 5daf c23f e988 693f a176 973f 17ca 4c3f
00000040: bb57 653f cf53 1a3f 4e9a 4d3f 1f33 753f
00000050: 6f41 b83f b98c 8a3f da6c ed3f fdf4 3f3f
00000060: 1ca7 ab3f a1cd c73f 86a8 983f f9e5 8a3f
00000070: b58a 4a3f 01c7 653f b9d9 853f ed1d 653f

model.6.bias f4 [32]
0.29148573 0.091097094 -0.3542961 0.61364007 1.5882105 -0.046599604 -0.7440529 0.19440405
0.18163276 0.10851654 -0.01803492 0.7551924 0.16969487 -0.31912777 0.10540963 -0.11376751
-0.5473482 0.2832689 -0.26123267 0.06889044 0.05864356 0.046355385 0.36059758 -0.325682
0.12043185 0.14700635 -0.016889658 0.06193863 -0.3565844 -0.7961223 -0.3185451 -0.9773739
00000000: 9e3d 953e 1d91 ba3d 4c66 b5be 8417 1d3f
00000010: 7b4a cb3f 3adf 3ebd 407a 3ebf db11 473e
00000020: f0fd 393e eb3d de3d f8bd 93bc 4a54 413f
00000030: 7ec4 2d3e b764 a3be 01e1 d73d f1fe e8bd
00000040: 031f 0cbf 9f08 913e 4ac0 85be 6e16 8d3d
00000050: 3b34 703d 25df 3d3d 3fa0 b83e cbbf a6be
00000060: f9a4 f63d d588 163e 2e5c 8abc 5cb3 7d3d
00000070: 3b92 b6be acce 4bbf 5818 a3be 2d35 7abf

model.6.running_mean f4 [32]
0.0910387 -0.0006693007 0.22183308 -0.17516525 0.14105369 -0.027398635 0.5086955 0.049082365
0.14447296 0.1372074 0.105459355 0.8262032 0.04456337 0.22384219 0.07188612 -0.107324496
-0.009214628 0.31987634 0.015232496 0.075238526 0.15757595 0.08480693 0.054966304 0.2092134
-0.11824079 0.076917335 0.07433805 0.099667095 0.3200445 -0.023449106 0.046150092 -0.03170127
00000000: 7f72 ba3d 0274 2fba 3628 633e 855e 33be
00000010: 6170 103e 1a73 e0bc de39 023f 970a 493d
00000020: b8f0 133e 1980 0c3e 13fb d73d 0e82 533f
00000030: 1588 363d e336 653e 0839 933d f2cc dbbd
00000040: f3f8 16bc d5c6 a33e b891 793c a816 9a3d
00000050: 975b 213e 41af ad3d 5924 613d 0a3c 563e
00000060: 3a28 f2bd d686 9d3d 8c3e 983d 431e cc3d
00000070: dfdc a33e 5718 c0bc e107 3d3d 31d9 01bd

model.6.running_var f4 [32]
0.25706595 0.19131827 0.61554 0.40655985 1.2969542 0.27686164 1.669728 0.098936595
0.32418227 0.30064884 0.26669124 2.9682431 0.11065362 1.4739467 0.23400559 0.31245422
0.46593943 1.4419371 0.2525233 0.2460487 0.30642283 0.19668849 0.08134949 0.6693263
0.10514549 0.21034491 0.17079304 0.2649098 0.99085265 0.17635988 0.14047118 0.22046839
00000000: 269e 833e f0e8 433e 0894 1d3f 9d28 d03e
00000010: 9802 a63f cfc0 8d3e a6b9 d53f 459f ca3d
00000020: 38fb a53e a5ee 993e c18b 883e b2f7 3d40
00000030: 5d9e e23d 49aa bc3f 299f 6f3e 00fa 9f3e
00000040: 9d8f ee3e 6591 b83f bc4a 813e 31f4 7b3e
00000050: 74e3 9c3e b568 493e 909a a63d f858 2b3f
00000060: 8556 d73d a864 573e 5fe4 2e3e 42a2 873e
00000070: 85a8 7d3f af97 343e add7 0f3e 77c2 613e

model.7.weight f4 [64, 32, 3, 3]
-0.28015137 -0.066834055 0.18477677 -0.23626204 0.075437285 0.19235896 -0.08593267 -0.11915207
-0.14882885 0.11284442 0.15479277 -0.13606453 0.22054774 0.2174566 0.031173723 -0.09846617
0.1530208 0.07904811 0.23321821 0.04303274 -0.35827765 0.26036593 0.04700932 -0.35426363
0.3253256 0.0024870068 -0.22975059 0.40517876 -0.048256095 -0.30327797 0.09196115 -0.18349686
-0.16902964 0.13107966 0.14085871 0.15495521 0.065853685 0.07886495 -0.14661048 0.21620324
0.05843944 -0.15523545 0.08175372 -0.2081483 -0.042833425 -0.14732036 0.1582944 -0.1431061
0.055783994 0.31153515 0.085899815 0.12250129 0.14067785 -0.12088917 -0.24168049 0.066092744
0.083289094 0.0709429 0.350755 0.16515902 0.06338896 0.25454047 -0.027438328 0.03390752
0.021132456 -0.066880964 0.21882787 0.0050440896 -0.089240156 0.15043938 -0.062815756 -0.03624909
-0.3567225 -0.035102908 0.12973426 -0.09599183 0.041641854 0.27201375 -0.121575765 -0.03994052
-0.03752045 -0.4844433 -0.286042 0.05744118 -0.15413623 -0.031525124 0.20715705 0.08570127
-0.010965156 0.014944226 -0.04201503 0.10243797 0.11104815 -0.3667489 0.047149766 0.07951041
-0.15769036 0.17378518 0.13122037 0.40975216 0.18578854 -0.094110295 0.13111709 0.020289065
-0.14551166 0.04336841 0.026550874 -0.144903 -0.22512028 0.24222602 0.03740662 0.11306989
0.12859505 -0.069286756 0.19433515 0.0062497472 -0.081822224 0.51739126 0.12326487 -0.69154507
0.47188947 0.13478503 -0.41931814 -0.007340062 -0.14008947 -0.03160335 -0.36757097 -0.2733906
-0.111893974 -0.11906165 0.075714864 -0.021261765 -0.1960711 -0.071297035 0.0049452884 0.3466309
0.029296543 -0.25976095 0.10686637 -0.1354035 -0.19678691 0.17660671 0.099546626 0.027512591
0.3244455 0.14618437 -0.111893274 0.3680515 -0.05912567 -0.2667302 0.06282163 -0.03208966
-0.10098528 -0.11357118 -0.16852115 0.14001895 0.07262834 -0.0028093809 0.23715526 -0.0910732
-0.17950815 0.13951991 0.4628655 0.030282782 -0.18359268 0.07059128 0.08852879 0.056640323
0.01364291 -0.16660205 -0.013063384 -0.13771707 0.40243673 0.3371774 -0.011734486 0.19233118
0.2328545 0.0031573353 0.06697944 -0.14262494 -0.17714764 0.04271566 0.060066514 -0.0960046
0.1695012 -0.036114126 0.09099775 -0.033182107 -0.10053882 0.32052 0.05904084 0.037298325
0.5927464 0.25346252 -0.28313598 0.40418005 0.059678297 -0.06819077 -0.114142515 0.14533195
0.19509996 0.13999443 0.23993419 0.09012222 0.22565812 0.11092635 -0.22725326 0.16396789
0.16075744 -0.269531 0.3486285 0.12667245 -0.38983476 0.1680759 0.098285526 -0.15553032
-0.11170685 0.25179645 -0.0007901909 0.250207 0.11838974 0.02975021 0.12743723 0.0198441
0.020940475 -0.06706058 0.11804183 0.11607787 -0.1670612 0.13768026 0.29778713 -0.0057799183
0.013648511 -0.07716504 0.08797174 0.0056324704 0.0078053004 0.2147343 0.15078177 -0.093953766
0.45716023 0.2836825 -0.18438187 -0.34830347 -0.119851395 0.09195589 -0.17666055 -0.07688762
0.15215927 -0.07312274 0.032280847 -0.080316246 0.4663021 0.030894155 -0.096339524 0.21095528
00000000: 0070 8fbe 4be0 88bd 1f36 3d3e adee 71be
00000010: dd7e 9a3d bff9 443e 78fd afbd 0006 f4bd
00000020: 9766 18be fa1a e73d ff81 1e3e 8054 0bbe
00000030: 44d7 613e f1ac 5e3e 0960 ff3c a2a8 c9bd
00000040: 7cb1 1c3e fae3 a13d c1d0 6e3e 1943 303d
00000050: 2b70 b7be af4e 853e d88c 403d 0b62 b5be
00000060: 1491 a63e 0dfd 223b bd43 6bbe 9773 cf3e
00000070: 2fa8 45bd 4047 9bbe 2156 bc3d 9ae6 3bbe
00000080: 1b16 2dbe bf39 063e 443d 103e 94ac 1e3e
00000090: 4cde 863d f283 a13d 0f21 16be 6264 5d3e
000000a0: 325e 6f3d 0bf6 1ebe 7f6e a73d d424 55be
000000b0: 1a72 2fbd 26db 16be ed17 223e 688a 12be
000000c0: c27d 643d 8981 9f3e 3eec af3d f5e1 fa3d
000000d0: db0d 103e be94 f7bd 177b 77be a25b 873d
000000e0: 7993 aa3d 834a 913d 2996 b33e 721f 293e
000000f0: 12d2 813d 2153 823e 58c6 e0bc 9de2 0a3d
00000100: f91d ad3c e3f8 88bd 6a14 603e e448 a53b
00000110: 8bc3 b6bd c80c 1a3e 8ca5 80bd ed79 14bd
00000120: 55a4 b6be 11c8 0fbd 0fd9 043e 5d97 c4bd
00000130: a690 2a3d 6345 8b3e b7fc f8bd ac98 23bd
00000140: 0baf 19bd f408 f8be 1974 92be 7147 6b3d
00000150: e3d5 1dbe 7d20 01bd fa20 543e 2684 af3d
00000160: 33a7 33bc a0d8 743c f417 2cbd 00cb d13d
00000170: 366d e33d 83c6 bbbe 1d20 413d 5bd6 a23d
00000180: 9579 21be bef4 313e a25e 063e 09cb d13e
00000190: 5a3f 3e3e e6bc c0bd 8f43 063e 4135 a63c
000001a0: 0201 15be 13a3 313d 3881 d93c 7461 14be
000001b0: ee85 66be 190a 783e af37 193d 3091 e73d
000001c0: 6cae 033e 37e6 8dbd cbff 463e aeca cc3b
000001d0: 6992 a7bd c173 043f 4b72 fc3d 1909 31bf
000001e0: 7f9b f13e 1605 0a3e deb0 d6be e784 f0bb
000001f0: 9d73 0fbe 8472 01bd 4332 bcbe daf9 8bbe
00000200: ab28 e5bd 98d6 f3bd 6510 9b3d 272d aebc
00000210: ddc6 48be 2e04 92bd 160c a23b 9b79 b13e
00000220: 4eff ef3c 63ff 84be c1dc da3d 37a7 0abe
00000230: 8282 49be 64d8 343e 1adf cb3d 1662 e13c
00000240: b81d a63e 5bb1 153e 4d28 e5bd 3f71 bc3e
00000250: c22d 72bd dc90 88be a0a8 803d 7370 03bd
00000260: 5fd1 cebd 0298 e8bd cf90 2cbe 2161 0f3e
00000270: 2bbe 943d 971d 38bb d4d8 723e 9684 babd
00000280: fcd0 37be 4fde 0e3e b5fc ec3e 9913 f83c
00000290: b8ff 3bbe 2992 903d 954e b53d afff 673d
000002a0: 8386 5f3c ba99 2abe ce07 56bc b405 0dbe
000002b0: 300c ce3e 84a2 ac3e 0042 40bc 77f2 443e
000002c0: 6971 6e3e 4ceb 4e3b 842c 893d 460c 12be
000002d0: 3166 35be 9ef6 2e3d 4e08 763d 0f9e c4bd
000002e0: b991 2d3e 68ec 13bd 075d ba3d f6e9 07bd
000002f0: 4ce7 cdbd 331b a43e cfd4 713d 21c6 183d
00000300: 3abe 173f d7c5 813e 33f7 90be b0f0 ce3e
00000310: 3b71 743d 9aa7 8bbd 8dc3 e9bd e6d1 143e
00000320: 49c8 473e b35a 0f3e 4fb1 753e 0092 b83d
00000330: ec12 673e 5b2d e33d 14b5 68be 33e7 273e
00000340: 999d 243e f8ff 89be 6f7f b23e 6cb6 013e
00000350: 6c98 c7be 171c 2c3e ec49 c93d 5743 1fbe
00000360: 90c6 e4bd 77eb 803e d024 4fba 221b 803e
00000370: 5276 f23d b6b6 f33c e87e 023e 1890 a23c
00000380: 5c8b ab3c 0f57 89bd eabf f13d 3cba ed3d
00000390: 1712 2bbe 0efc 0c3e 8e77 983e 7865 bdbb
000003a0: 019e 5f3c b408 9ebd 872a b43d 9690 b83b
000003b0: 9bc3 ff3b 4fe3 5b3e 8966 1a3e d56a c0bd
000003c0: e810 ea3e d53e 913e 9ace 3cbe d554 b2be
000003d0: a674 f5bd 5f53 bc3d 81e6 34be 4277 9dbd
000003e0: a4cf 1b3e 60c1 95bd ec38 043d d87c a4bd
000003f0: 26bf ee3e bd15 fd3c a84d c5bd a904 583e

model.7.bias f4 [64]
-0.34515244 -0.6130118 -0.3308778 -0.65359426 -0.26921004 -0.4409063 -0.7016652 -0.6362442
-0.62717783 -0.38513467 -0.5584222 -1.0982515 -0.42511994 -0.23956688 -0.790693 -0.68663657
-0.34463435 -0.65326935 -0.7338717 -0.97132206 -0.076282576 -0.2746104 -0.35189074 -0.57130015
-0.65435046 -0.24127403 -0.72565037 -0.47700652 -0.15183185 -0.29596084 -0.18326241 -0.28797537
-0.88013023 -0.32497782 -0.27451777 -0.31573611 -0.35349378 -0.22132547 -0.49179545 -0.23714527
-0.15324165 -0.06472243 -0.32094175 -0.53372955 -0.8457357 -0.26982656 -0.61502993 -0.7044967
-0.58011556 -0.64085186 -0.07955015 -0.2628409 -0.6261748 -0.06960057 -0.29456943 -0.4854157
-0.27798852 -0.86106604 -0.5586297 -0.74807864 -0.34824017 -0.6110071 -1.0973815 -0.4058328
00000000: d2b7 b0be 57ee 1cbf d168 a9be f451 27bf
00000010: e6d5 89be 78be e1be 55a0 33bf e6e0 22bf
00000020: ba8e 20bf 5f30 c5be c2f4 0ebf 8193 8cbf
00000030: 52a9 d9be 0551 75be db6a 4abf 6ac7 2fbf
00000040: ea73 b0be a93c 27bf 04df 3bbf 90a8 78bf
00000050: 0a3a 9cbd bc99 8cbe 062b b4be ba40 12bf
00000060: 8383 27bf 8a10 77be 39c4 39bf 333a f4be
00000070: cf79 1bbe 2e88 97be 24a9 3bbe 8271 93be
00000080: 3750 61bf 7e63 a6be 988d 8cbe 2aa8 a1be
00000090: 23fd b4be 25a3 62be 9dcc fbbe 36d6 72be
000000a0: 61eb 1cbe 328d 84bd 7a52 a4be 80a2 08bf
000000b0: 2382 58bf b526 8abe 9a72 1dbf e559 34bf
000000c0: 7482 14bf de0e 24bf 30eb a2bd 1593 86be
000000d0: fe4c 20bf be8a 8ebd ced1 96be 6888 f8be
000000e0: 8354 8ebe d36e 5cbf 5b02 0fbf 1582 3fbf
000000f0: 894c b2be f66a 1cbf ff76 8cbf 51c9 cfbe

model.10.weight f4 [64]
1.4904671 1.7972445 1.5700853 1.4252179 1.5330417 1.6455954 1.7755806 1.5356954
1.7313954 1.8054014 1.8320736 1.3965832 1.6114388 1.77781 1.2750288 1.8299793
1.1781719 1.6940274 1.3636736 1.3489932 1.4854572 1.3793262 1.3300083 1.6345695
1.600506 1.2771797 1.6752665 1.3706627 1.6707501 1.353942 1.407239 1.4619403
1.5046978 1.4401083 1.401923 1.4024619 2.4376788 1.3379432 1.7405634 1.4978486
1.4017346 1.4809777 1.5357494 1.6811936 1.2755579 1.4520957 1.3993124 1.287318
1.5722485 1.2960688 1.3596456 1.747852 1.6206592 1.4883941 1.6591581 1.6315188
1.3872733 1.9073299 1.7745094 1.2504864 1.6171726 1.5641721 1.5179329 1.6554774
00000000: a0c7 be3f 1c0c e63f 8ef8 c83f 8a6d b63f
00000010: b63a c43f dfa2 d23f 3a46 e33f ab91 c43f
00000020: 5d9e dd3f 6517 e73f 6381 ea3f 3dc3 b23f
00000030: a043 ce3f 478f e33f 2534 a33f c33c ea3f
00000040: 56ce 963f e4d5 d83f db8c ae3f cfab ac3f
00000050: 7623 be3f c38d b03f b63d aa3f 9339 d13f
00000060: 61dd cc3f a07a a33f 226f d63f e071 af3f
00000070: 24db d53f f94d ad3f 6820 b43f dc20 bb3f
00000080: f099 c03f 7855 b83f 3672 b33f df83 b33f
00000090: ee02 1c40 b941 ab3f c8ca de3f 81b9 bf3f
000000a0: 0a6c b33f ad90 bd3f 7093 c43f 5a31 d73f
000000b0: 7b45 a33f 46de b93f ab1c b33f d6c6 a43f
000000c0: 703f c93f 95e5 a53f de08 ae3f 9db9 df3f
000000d0: c371 cf3f b383 be3f 4b5f d43f 9cd5 d03f
000000e0: 2c92 b13f 6323 f43f 2023 e33f f00f a03f
000000f0: 83ff ce3f cb36 c83f a04b c23f afe6 d33f

model.10.bias f4 [64]
0.6949894 0.2901145 1.5143089 -0.18979503 1.0093241 0.012501683 -0.04608361 -0.001612552
-0.22752632 -0.8128776 -0.6722387 -0.3227096 -0.116224855 0.18874525 -0.017848145 0.16519801
1.967421 -0.331933 -0.4197801 0.17251572 1.0699533 -0.5270875 2.3152878 0.07049688
-0.27207485 0.12844726 -0.42725235 -0.22219893 0.21136384 -0.43030378 -0.3585698 -0.012051531
0.72858506 -0.945512 -0.24242571 -0.4159135 0.5957753 0.5639254 -0.06476742 1.3462899
-0.22802904 0.54691094 -0.283497 -0.3343998 -0.55065924 -0.27612817 -0.9688367 -1.5432957
-0.43027148 -1.1255385 0.15711442 -0.5471996 0.24002546 -0.30823615 0.25913244 -1.2158034
-0.042879783 -0.21081594 -0.571501 -2.2058113 -0.5224412 -0.31183308 -0.5256055 -0.14267984
00000000: d3ea 313f e389 943e e0d4 c13f a159 42be
00000010: 8831 813f dcd3 4c3c 2bc2 3cbd 445c d3ba
00000020: a9fc 68be bf18 50bf d617 2cbf 313a a5be
00000030: 4c07 eebd 6f46 413e 4636 92bc ab29 293e
00000040: 74d4 fb3f 1ff3 a9be 6bed d6be f6a7 303e
00000050: 3bf4 883f 35ef 06bf ad2d 1440 ab60 903d
00000060: 654d 8bbe ae87 033e d2c0 dabe 1e88 63be
00000070: c36f 583e c750 dcbe 7696 b7be c973 45bc
00000080: 8d84 3a3f 130d 72bf 723e 78be 9df2 d4be
00000090: bb84 183f 6a5d 103f c8a4 84bd 3a53 ac3f
000000a0: 7280 69be 5b02 0c3f 8526 91be 7336 abbe
000000b0: 01f8 0cbf ac60 8dbe af05 78bf b78a c5bf
000000c0: 8b4c dcbe a511 90bf 9ae2 203e 4615 0cbf
000000d0: 3cc9 753e 21d1 9dbe 02ad 843e 729f 9bbf
000000e0: b6a2 2fbd 22e0 57be e44d 12bf 032c 0dc0
000000f0: b5be 05bf 96a8 9fbe 158e 06bf aa1a 12be

model.10.running_mean f4 [64]
-0.015138578 -0.13312946 0.082765 -0.07850536 -0.018229986 -0.12012646 0.039456423 -0.18625762
-0.15791652 -0.15540737 -0.26985088 0.07626977 -0.21234064 0.03306851 0.19077027 -0.019233324
0.36024514 -0.083763786 -0.18871364 0.13556795 0.10853858 -0.057044793 -0.10593206 -0.029642303
-0.032556437 -0.054361846 -0.33814585 -0.29873508 0.2673907 -0.25038898 0.003936925 0.08605225
-0.09841166 -0.18196343 0.10916223 -0.14607853 0.43372703 0.14602092 -0.15280771 0.2657849
-0.15263073 0.038538367 0.36038145 -0.1930181 0.18789451 -0.2774048 0.3969396 0.18397918
-0.22379445 0.11584916 -0.116688 -0.33559847 0.07226574 -0.05129231 0.1010223 -0.16581582
0.33213082 0.45115322 -0.048997078 0.37156838 -0.21900167 -0.19194375 0.14323877 -0.0075171595
00000000: cc07 78bc 1753 08be b280 a93d 6bc7 a0bd
00000010: 0d57 95bc dd04 f6bd 0f9d 213d 51ba 3ebe
00000020: deb4 21be 1c23 1fbe e529 8abe 5333 9c3d
00000030: d36f 59be d972 073d 4859 433e 348f 9dbc
00000040: 0d72 b83e 598c abbd 263e 41be 53d2 0a3e
00000050: 7a49 de3d cda7 69bd e8f2 d8bd 6ad4 f2bc
00000060: e659 05bd 87aa 5ebd 7421 adbe cef3 98be
00000070: 6fe7 883e fc32 80be 5201 813b 293c b03d
00000080: 0d8c c9bd 9f54 3abe 7290 df3d 9c95 15be
00000090: 7811 de3e 8286 153e a079 1cbe f514 883e
000000a0: 3b4b 1cbe 68da 1d3d eb83 b83e 89a6 45be
000000b0: 6b67 403e 0008 8ebe ab3b cb3e 0a65 3c3e
000000c0: 5f2a 65be 5342 ed3d 1efa eebd 90d3 abbe
000000d0: 0f00 943d e317 52bd c8e4 ce3d 9fcb 29be
000000e0: 0d0d aa3e 8efd e63e 29b1 48bd 363e be3e
000000f0: f941 60be e78c 44be 2fad 123e 8152 f6bb

model.10.running_var f4 [64]
1.1140726 2.7276297 1.3816594 1.6603401 1.9806889 1.0595862 0.7777275 1.7674053
0.95012 0.53302467 2.2280066 1.2755209 0.7695179 1.0931771 3.6062374 2.1931665
1.196471 1.1392341 1.1660722 2.1286378 1.5981265 1.2973658 1.0530443 1.1834182
0.8830253 0.8474847 1.1514741 1.0788071 3.4490266 1.0458337 1.7014543 2.5168142
1.9525076 1.7149316 1.8090382 1.3531665 4.4321103 1.8006126 0.97080266 1.8841062
0.8833448 1.2578827 2.698319 1.0713989 2.76493 1.4467967 3.1885438 2.0511298
0.72007257 2.2004626 1.797582 0.8057769 1.615027 1.0526135 1.7745551 1.4301194
2.8716588 4.3330207 0.951354 2.4195607 1.1632892 0.9495374 2.9124365 1.423949
00000000: ee99 8e3f 7c91 2e40 37da b03f 0686 d43f
00000010: 3787 fd3f 85a0 873f 2619 473f 563a e23f
00000020: 103b 733f 4e74 083f a997 0e40 4544 a33f
00000030: 20ff 443f 3aed 8b3f 98cc 6640 d75c 0c40
00000040: f625 993f 6cd2 913f db41 953f 9a3b 0840
00000050: 698f cc3f 1510 a63f 28ca 863f 3f7a 973f
00000060: f20d 623f c2f4 583f 8163 933f 5a16 8a3f
00000070: dabc 5c40 e1dd 853f 41c9 d93f 7c13 2140
00000080: c5eb f93f e182 db3f 908e e73f 8f34 ad3f
00000090: d9d3 8d40 797a e63f 8686 783f 642a f13f
000000a0: e322 623f 4d02 a13f 42b1 2c40 9923 893f
000000b0: 9df4 3040 a230 b93f 1a11 4c40 b645 0340
000000c0: ad56 383f 61d4 0c40 2b17 e63f 6547 4e3f
000000d0: 34b9 ce3f 0abc 863f 9f24 e33f 270e b73f
000000e0: 42c9 3740 1ba8 8a40 f08b 733f 15da 1a40
000000f0: a9e6 943f e214 733f 5c65 3a40 f643 b63f

model.11.weight f4 [128, 64, 3, 3]
0.2749192 0.2430331 -0.21346931 0.059436616 0.19883507 -0.0773965 0.021008201 -0.1085622
-0.035995044 0.057585955 -0.2575738 0.1742279 -0.0029389556 -0.14800227 -0.08849358 -0.14934032
0.25944284 -0.017264592 0.27115455 -0.0061026993 -0.17415239 -0.11818557 -0.10884558 -0.006757281
-0.030292884 0.071810275 -0.060847085 -0.06671799 -0.43119016 -0.069047205 0.058374073 -0.5489216
0.015813537 0.15900134 -0.08677928 -0.06988896 0.48843598 0.24773397 0.1440181 -0.10507748
-0.118217394 -0.039616656 -0.27947134 -0.1694315 -0.41777185 0.18877469 -0.05719466 0.18635775
-0.06486882 0.36291468 0.29423288 0.16951406 0.2571775 -0.017077697 0.28288516 -0.17721333
-0.0026292815 -0.07930899 -0.024981786 -0.008987861 -0.08327864 -0.16298734 -0.12353778 0.1212203
0.20766987 0.08635296 0.30676484 -0.05382945 -0.11254173 0.5550449 0.11745255 0.26037785
0.48503515 0.5097441 0.29298478 -0.051155932 0.041396786 0.08463018 0.13995427 -0.05764146
0.11109891 -0.24918424 0.3616518 -0.03483042 -0.100387424 0.021521572 0.26200506 -0.09715747
0.12981518 -0.06534438 0.12448809 0.08899709 0.07388025 0.23392138 -0.103917606 0.036014087
0.27099016 -0.021874145 0.036460716 0.27937123 0.19146955 0.3876886 0.10399548 0.25930274
0.09209472 0.11205946 0.05532688 -0.04118941 -0.28192118 0.025775362 0.04459302 0.017946344
-0.00791301 0.17242448 0.07857785 0.16898921 0.12557562 0.3130111 0.006257349 -0.040936623
0.059487805 -0.36643922 -0.13714492 -0.005342739 0.004175353 0.00943101 -0.124035984 -0.05274626
-0.07273535 -0.16818318 -0.13033211 0.02295127 -0.009346575 -0.036364004 -0.10687361 0.3991074
0.16631456 0.16315934 0.18915004 -0.4248565 -0.031181207 0.17823072 -0.08102626 -0.030661004
0.36944908 0.18079622 0.023550432 -0.46680465 -0.123867504 -0.045942638 0.02652702 0.2154793
-0.13576014 0.04465855 -0.03737453 0.3014162 0.24661921 0.15685625 0.08704663 -0.026471823
0.07517498 0.042900015 -0.29354843 0.3619325 0.018165113 -0.07500048 0.08708404 0.050876718
0.18419184 0.31732455 -0.035835657 0.062459275 -0.10625106 0.10805945 0.30827928 0.024088683
0.12520479 -0.07040574 -0.013372443 -0.025446795 -0.53151953 -0.5176835 -0.75543165 -0.8899428
-0.82643026 -0.6147618 -0.46882272 -0.2144116 -0.23636197 0.1324233 0.3757456 -0.039589643
0.0019909686 0.33253267 0.10411967 0.12452685 0.021487629 0.013254742 0.62078154 0.08743197
0.15458228 -0.00065927266 0.20671351 0.12851377 0.06622658 0.097225845 0.054738987 -0.44780177
-0.2710973 -0.21530774 -0.03864761 -0.045066528 0.017697304 0.03460544 -0.19011149 0.13233033
-0.058427196 0.010353963 -0.16433622 6.347514e-05 0.041811515 -0.16450809 0.11234734 -0.011601658
0.016933192 -0.062009864 0.113509625 -0.2939384 -0.087707475 0.12533471 0.15167604 -0.060900576
-0.020156609 -0.020633765 0.23164484 0.42176026 0.11360499 -0.10382945 -0.1864515 -0.11780192
-0.08388172 -0.009773323 -0.13723642 0.22532675 0.004943333 0.13431275 -0.10701491 -0.517437
0.005842444 0.02006839 -0.014441155 -0.10051958 -0.0598472 0.21085432 -0.09927953 -0.24638385
00000000: 36c2 8c3e abdd 783e b397 5abe cf73 733d
00000010: 6c9b 4b3e 0e82 9ebd 6419 ac3c dc55 debd
00000020: 8a6f 13bd 40df 6b3d b7e0 83be cc68 323e
00000030: 7e9b 40bb e88d 17be 1f3c b5bd abec 18be
00000040: b1d5 843e 796e 8dbc c5d4 8a3e 27f9 c7bb
00000050: 0155 32be 470b f2bd 6eea debd 2e6c ddbb
00000060: c828 f8bc 4411 933d cb3a 79bd 71a3 88bd
00000070: f5c4 dcbe 9f68 8dbd a719 6f3d 2086 0cbf
00000080: 648b 813c 3fd1 223e 56b9 b1bd f121 8fbd
00000090: 4814 fa3e f9ad 7d3e 7b79 133e dd32 d7bd
000000a0: f61b f2bd 1345 22bd de16 8fbe 737f 2dbe
000000b0: 31e6 d5be 274e 413e f344 6abd 91d4 3e3e
000000c0: f2d9 84bd f4cf b93e b1a5 963e 1895 2d3e
000000d0: c5ac 833e 87e6 8bbc 53d6 903e 6977 35be
000000e0: 0650 2cbb c06c a2bd 9aa6 ccbc d241 13bc
000000f0: fe8d aabd 27e6 26be 6001 fdbd 5942 f83d
00000100: 69a7 543e d2d9 b03d 4810 9d3e 457c 5cbd
00000110: 477c e6bd 6c17 0e3f f68a f03d 3f50 853e
00000120: 8756 f83e 977e 023f 1a02 963e e288 51bd
00000130: ad8f 293d 9652 ad3d 2c50 0f3e 7419 6cbd
00000140: d387 e33d 272a 7fbe 6d2a b93e 58aa 0ebd
00000150: ec97 cdbd 024e b03c 8725 863e 7ffa c6bd
00000160: 45ee 043e 46d3 85bd 9df3 fe3d 1b44 b63d
00000170: 874e 973d 1689 6f3e c1d2 d4bd 8283 133d
00000180: 39bf 8a3e 6831 b3bc d557 153d bf09 8f3e
00000190: 9810 443e 1f7f c63e 95fb d43d 54c3 843e
000001a0: 289c bc3d 6e7f e53d 709e 623d 3ab6 28bd
000001b0: f957 90be da26 d33c 2ca7 363d 3604 933c
000001c0: 92a5 01bc 0b90 303e 6ced a03d 820b 2d3e
000001d0: e596 003e fe42 a03e 730a cd3b 29ad 27bd
000001e0: 7ca9 733d ec9d bbbe b86f 0cbe 2512 afbb
000001f0: 66d1 883b 8684 1a3c 9406 febd 760c 58bd
00000200: 45f6 94bd 3638 2cbe c875 05be 4d04 bc3c
00000210: 6022 19bc 6cf2 14bd 8de0 dabd ce57 cc3e
00000220: 5d4e 2a3e 3e13 273e 8cb0 413e cb86 d9be
00000230: bb6f ffbc 1d82 363e 19f1 a5bd c92c fbbc
00000240: 6e28 bd3e a522 393e d6ec c03c 0501 efbe
00000250: 3fae fdbd 592e 3cbd 314f d93c 9ba6 5c3e
00000260: b504 0bbe e2eb 363d 0916 19bd 3953 9a3e
00000270: bf89 7c3e ed9e 203e 8145 b23d 70db d8bc
00000280: 57f5 993d edb7 2f3d fb4b 96be 374f b93e
00000290: 01cf 943c da99 99bd 1e59 b23d 1b64 503d
000002a0: c99c 3c3e 5d78 a23e 69c8 12bd 4cd5 7f3d
000002b0: 289a d9bd 464e dd3d c8d6 9d3e a155 c53c
000002c0: af35 003e e230 90bd 1718 5bbc cc75 d0bc
000002d0: aa11 08bf e886 04bf f863 41bf 4bd3 63bf
000002e0: ef90 53bf 0861 1dbf 8809 f0be b78e 5bbe
000002f0: df08 72be f999 073e ba61 c03e c028 22bd
00000300: e97a 023b b941 aa3e b23c d53d ef07 ff3d
00000310: d306 b03c 6b2a 593c 8aeb 1e3f 880f b33d
00000320: d14a 1e3e 0ad3 2cba b5ac 533e 1d99 033e
00000330: cda1 873d 581e c73d fd35 603d 4646 e5be
00000340: 44cd 8abe a279 5cbe f54c 1ebd ae97 38bd
00000350: f0f9 903c 6fbe 0d3d 96ac 42be 9a81 073e
00000360: 5b51 6fbd aba3 293c c147 28be f51d 8538
00000370: 8d42 2b3d cf74 28be 5d16 e63d e114 3ebc
00000380: 7ab7 8a3c 0efe 7dbd bc77 e83d 187f 96be
00000390: fa9f b3bd be57 003e f750 1b3e e272 79bd
000003a0: 791f a5bc 2408 a9bc 4e34 6d3e f6f0 d73e
000003b0: bca9 e83d 89a4 d4bd 24ed 3ebe 2242 f1bd
000003c0: 2eca abbd 4a20 20bc b487 0cbe 0ebc 663e
000003d0: affb a13b 4889 093e a22a dbbd c076 04bf
000003e0: f971 bf3b 7766 a43c 989a 6cbc 36dd cdbd
000003f0: 5622 75bd 32ea 573e 1153 cbbd 0c4c 7cbe

model.11.bias f4 [128]
-0.5226593 -0.12235225 0.070489034 -0.19493563 -0.2029917 -0.13306281 -0.16321446 0.018651363
-0.18642394 -0.057179973 -0.06291462 0.060704082 -0.16691533 -0.1368551 -0.05800346 -0.5913165
-0.08272778 -0.16703998 -0.30679613 -0.3798388 -0.33506632 -0.39605084 -0.14199033 0.0049518254
-0.4173049 -0.1483391 -0.103931904 -0.34530964 -0.6482598 -0.3374507 -0.4294523 -0.27344295
-0.37340882 -0.10323102 -0.2253131 0.39409596 -0.24678072 -0.17206696 -0.37699276 -0.22655918
-0.12259684 -0.25052902 -0.31305113 -0.093632564 -0.24162006 -0.05347037 -0.22479929 -0.17373206
-0.29773164 0.23888186 -0.4177596 -0.51743764 -0.076684825 -0.17465265 -0.31880146 -0.09558678
-0.1817221 -0.7024486 -0.20511912 -0.20581904 -0.75843203 -0.1589033 -0.3996065 -0.3239866
-0.3276551 0.16135922 0.035048172 0.18689097 -0.02830022 -0.41771746 -0.5029782 -0.39660987
0.19488062 -0.43219042 -0.17754182 -0.12813634 -0.27876785 -0.18301898 0.04775419 -0.32437244
-0.012633337 0.006662164 0.20297585 0.0492512 0.10632773 -0.117008924 0.101548225 -0.40195924
-0.031238787 -0.011530628 -0.4084084 -0.32235783 -0.552066 -0.031803463 -0.037030846 -0.16268948
-0.49152902 -0.29522407 0.21870105 0.076769516 0.18571825 0.079443 -0.5789637 -0.43748388
-0.16203219 -0.14529593 -0.12381886 -0.026472544 0.21059561 -0.6019938 -0.37315196 -0.60669
-0.49273106 -0.13712037 -0.59949416 0.23732269 -0.75318307 -0.1409189 -0.32325903 0.111300685
-0.030344864 0.051204767 0.28883517 -0.3662744 -0.007378954 -0.18054654 -0.34968436 0.0379677
00000000: 00cd 05bf d193 fabd 8e5c 903d 359d 47be
00000010: 0edd 4fbe 9e41 08be b121 27be beca 983c
00000020: ebe5 3ebe 8c35 6abd 61d9 80bd d8a4 783d
00000030: daeb 2abe be23 0cbe 0995 6dbd 8560 17bf
00000040: 2f6d a9bd 870c 2bbe 6214 9dbe 3b7a c2be
00000050: d08d abbe 2dc7 cabe ea65 11be ec42 a23b
00000060: fda8 d5be 34e6 17be 40da d4bd 6dcc b0be
00000070: 5bf4 25bf 57c6 acbe 2ce1 dbbe b700 8cbe
00000080: 712f bfbe c96a d3bd 7ab8 66be f2c6 c93e
00000090: 16b4 7cbe 5232 30be 3205 c1be 21ff 67be
000000a0: 0d14 fbbd 5745 80be 3d48 a0be 6ec2 bfbd
000000b0: 406b 77be bf03 5bbd c931 66be d1e6 31be
000000c0: 4870 98be 729d 743e 96e4 d5be cb76 04bf
000000d0: ef0c 9dbd 25d8 32be f239 a3be 00c3 c3bd
000000e0: 5c15 3abe acd3 33bf bf0a 52be 3ac2 52be
000000f0: 9a28 42bf 8cb7 22be 3999 ccbe 92e1 a5be
00000100: 69c2 a7be 5a3b 253e ac8e 0f3d 5960 3f3e
00000110: ddd5 e7bc 10df d5be 2ec3 00bf 7310 cbbe
00000120: c98e 473e 1048 ddbe 86cd 35be 2c36 03be
00000130: a9ba 8ebe 5469 3bbe e699 433d 2514 a6be
00000140: 0efc 4ebc 484e da3b e7d8 4f3e a0bb 493d
00000150: 5ac2 d93d 60a2 efbd 84f8 cf3d 9acd cdbe
00000160: 7ce8 ffbc f6ea 3cbc e81a d1be 160c a5be
00000170: 3354 0dbf 5944 02bd a8ad 17bd 1298 26be
00000180: b1a9 fbbe 9c27 97be 2bf3 5f3e 5639 9d3d
00000190: ed2c 3e3e 03b3 a23d f736 14bf e3fd dfbe
000001a0: c4eb 25be 75c8 14be be94 fdbd f3dc d8bc
000001b0: 60a6 573e 441c 1abf c60d bfbe 0950 1bbf
000001c0: 3f47 fcbe 4869 0cbe 7378 19bf b804 733e
000001d0: 9bd0 40bf 0b4d 10be 3582 a5be 9df1 e33d
000001e0: cb95 f8bc 17bc 513d 34e2 933e 5188 bbbe
000001f0: 27cb f1bb 31e1 38be d409 b3be 0584 1b3d

model.14.weight f4 [128]
0.77313256 0.89085215 0.766203 1.102872 0.8407517 1.3824238 1.3875545 1.1963273
1.223291 1.3892783 1.244817 1.5477813 0.73884326 0.8806996 1.1277603 0.59259886
1.1702572 -0.8281415 1.3372298 1.6105143 0.7179926 1.646264 1.0011536 1.6164243
0.84103453 1.1660515 1.3911805 1.0017298 0.6518799 1.152647 1.3175905 1.2062035
0.72837156 0.63168997 0.8868964 0.55048424 0.7438115 1.39621 1.1636155 1.1390806
1.2120571 0.7859495 1.0189441 1.474338 1.1485186 0.64808 1.0184027 1.4229159
0.836927 1.2571415 0.94376 1.2136061 1.2352582 1.4502081 0.60453516 1.2829562
0.9333743 1.1947281 0.8052617 1.6152681 0.7641599 1.1281499 1.174007 0.887125
1.2587806 1.0093323 0.9250016 1.1455166 0.9070397 1.001132 1.0693645 1.1268086
1.1226119 0.7853716 1.0715358 1.6190697 1.1783597 1.5142984 0.9525865 0.8208634
0.8792831 0.6784302 1.3525287 0.8377184 0.9652545 1.614831 1.0676763 0.7698837
1.2787877 0.88754284 0.79956996 1.3256354 1.8662055 1.3151213 1.16032 0.7110411
1.152163 1.0726215 0.75913393 0.7253835 1.3450965 0.5874932 0.7239357 0.86446464
1.3654475 1.4470148 1.4305054 1.2975609 0.7266727 0.80339545 1.0189053 0.7981766
0.8193031 1.5975287 1.119706 0.87483317 0.69894284 1.2566266 0.8371983 0.72336143
0.9259245 1.3937193 0.96568793 1.4440932 1.4716638 1.1468028 1.0110654 1.3658018
00000000: 04ec 453f e30e 643f e125 443f e92a 8d3f
00000010: 813b 573f 43f3 b03f 639b b13f 4121 993f
00000020: cd94 9c3f dfd3 b13f 2a56 9f3f b31d c63f
00000030: d524 3d3f 8775 613f 735a 903f 8fb4 173f
00000040: fdca 953f 1501 54bf 592a ab3f 5525 ce3f
00000050: 5dce 373f c7b8 d23f cd25 803f fee6 ce3f
00000060: 0a4e 573f 2d41 953f 3412 b23f af38 803f
00000070: 9ae1 263f f089 933f cea6 a83f e064 9a3f
00000080: 8f76 3a3f 6fb6 213f a40b 633f 89ec 0c3f
00000090: 6e6a 3e3f 02b7 b23f 5af1 943f 65cd 913f
000000a0: b024 9b3f fd33 493f c36c 823f 1cb7 bc3f
000000b0: a802 933f 92e8 253f 055b 823f 1c22 b63f
000000c0: d940 563f 03ea a03f 419a 713f 7257 9b3f
000000d0: f11c 9e3f 6ba0 b93f d1c2 1a3f e937 a43f
000000e0: 9ef1 6e3f daec 983f a125 4e3f 1bc1 ce3f
000000f0: fc9f 433f 3767 903f dd45 963f a01a 633f
00000100: b91f a13f cd31 813f e8cc 6c3f 4aa0 923f
00000110: c133 683f 1825 803f f0e0 883f 443b 903f
00000120: bfb1 8f3f 1d0e 493f 1628 893f ad3d cf3f
00000130: 7ed4 963f 88d4 c13f b5dc 733f 1b24 523f
00000140: b218 613f 9aad 2d3f a91f ad3f b774 563f
00000150: eb1a 773f c8b2 ce3f 9ea9 883f 1917 453f
00000160: 51af a33f 0236 633f 9eb0 4c3f 6cae a93f
00000170: d2df ee3f e555 a83f 5e85 943f ca06 363f
00000180: 147a 933f a94b 893f 9a56 423f bcb2 393f
00000190: 1f2c ac3f f465 163f da53 393f 8e4d 5d3f
000001a0: fcc6 ae3f c837 b93f cd1a b73f 7a16 a63f
000001b0: 3907 3a3f 53ab 4d3f 7d6b 823f 4d55 4c3f
000001c0: d9bd 513f d27b cc3f 8752 8f3f 11f5 5f3f
000001d0: ebed 323f 24d9 a03f a152 563f 372e 393f
000001e0: 6309 6d3f 6565 b23f 5337 773f 0cd8 b83f
000001f0: 7b5f bc3f 6fca 923f 976a 813f 98d2 ae3f

model.14.bias f4 [128]
-0.014252185 -0.020610323 -0.0040245513 0.028517649 0.019932762 0.03880305 0.017966839 -0.0069030244
-0.0048662615 0.013823178 -0.03322517 0.004420187 -0.010814801 0.021951798 0.009059079 -0.029869862
0.018969666 0.0017442171 0.011606245 0.048512395 -0.018100463 0.11811184 0.06032217 0.06844855
0.049378138 0.013191078 0.040532783 -0.01163156 -0.042805266 0.03398369 0.007876331 0.08523623
0.012548515 0.043429002 -0.0013642883 -0.023344038 0.024395635 0.050536945 -0.019330528 0.008966251
-0.018536171 -0.014919224 -0.034905042 -0.008634912 0.045073956 0.017096661 0.043944236 0.008591223
0.0012455299 0.010018808 0.026234185 0.017714072 0.05380988 0.05440934 -0.01741873 -0.0025798471
0.0057215975 -0.010359101 0.01983991 0.022693405 -0.004128006 0.03761787 0.021870527 -0.015743425
0.00632279 0.014083149 0.018365253 0.013410135 0.019720368 -0.016931893 0.035246722 0.0221517
-0.0039742547 -0.045267895 0.063304946 0.073514305 -0.02039568 0.06852204 -0.002033718 0.0180016
0.0021403881 0.0029809258 -0.0027116335 0.022266285 -0.003466578 0.07557458 -0.037134077 -0.025884453
0.01634568 0.01665027 -0.015860824 -0.024359187 0.054304488 0.032191865 0.0723381 -0.025804633
-0.022032073 0.032680135 -0.003960742 -0.016981442 -0.006327032 0.016957846 -0.0287488 0.00015881352
0.042457964 0.04910042 0.01007587 0.091876656 -0.0011884343 -0.00546439 0.024267387 -0.029188095
-0.022750381 0.02810298 -0.013243957 0.001039854 -0.004417243 0.052446168 -0.022582272 -0.008951929
0.009597207 -0.025956087 0.053901102 -0.0042601777 0.022610888 0.024774779 -0.00864804 0.00059894257
00000000: ff81 69bc fbd6 a8bc 62e0 83bb d89d e93c
00000010: 084a a33c f2ef 1e3d 312f 933c c432 e2bb
00000020: 2975 9fbb 9c7a 623c 1e17 08bd 37d7 903b
00000030: 9030 31bc 42d4 b33c 886c 143c a4b1 f4bc
00000040: 4666 9b3c 379e e43a 1f28 3e3c efb4 463d
00000050: 6c47 94bc 9fe4 f13d 6114 773d c12e 8c3d
00000060: bb40 4a3d 641f 583c b405 263d 4c92 3ebc
00000070: 9354 2fbd 7b32 0b3d ba0b 013c 5590 ae3d
00000080: 4998 4d3c 9ce2 313d ebd1 b2ba ff3b bfbc
00000090: 5bd9 c73c d4ff 4e3d 0e5b 9ebc 2fe7 123c
000000a0: 2bd9 97bc c36f 74bc 97f8 0ebd 7279 0dbc
000000b0: 789f 383d 4c0e 8c3c dffe 333d 33c2 0c3c
000000c0: 0c41 a33a ed25 243c 13e9 d63c 1a1d 913c
000000d0: c067 5c3d 54dc 5e3d b9b1 8ebc a712 29bb
000000e0: 3d7c bb3b 38b9 29bc 4f87 a23c 85e7 b93c
000000f0: 3944 87bb 3215 1a3d d229 b33c 5bf8 80bc
00000100: 682f cf3b 02bd 663c ba72 963c 2fb6 5b3c
00000110: 9c8c a13c c1b4 8abc de5e 103d 7b77 b53c
00000120: 773a 82bb d46a 39bd 06a6 813d ab8e 963d
00000130: d714 a7bc 4955 8c3d 2048 05bb 1778 933c
00000140: c145 0c3b a35b 433b a9b5 31bb c967 b63c
00000150: 872f 63bb d8c6 9a3d e719 18bd a20b d4bc
00000160: 60e7 853c 2666 883c 8fee 81bc eb8c c7bc
00000170: 626e 5e3d 9edb 033d ff25 943d 3d64 d3bc
00000180: 9b7c b4bc 9bdb 053d 1dc9 81bb aa1c 8bbc
00000190: fe52 cfbb 2eeb 8a3c 9a82 ebbc 2e87 2639
000001a0: 67e8 2d3d 861d 493d 4315 253c d429 bc3d
000001b0: 3dc5 9bba a00e b3bb 66cc c63c df1b efbc
000001c0: 025f babc 3938 e63c 2ffd 58bc b64b 883a
000001d0: 85be 90bb cbd1 563d 75fe b8bc 1dab 12bc
000001e0: 9b3d 1d3c dca1 d4bc 67c7 5c3d f698 8bbb
000001f0: 783a b93c 7af4 ca3c 82b0 0dbc 5b02 1d3a

model.14.running_mean f4 [128]
-2.0635405 -2.1797915 -2.3317006 2.8488815 3.1535833 4.449415 0.4871641 -2.4171863
-1.8296309 2.7022266 -2.5171463 0.7223876 -2.2553544 2.9685998 2.4498615 -1.6725938
0.04629012 4.1704664 1.9284517 0.2644948 -2.7024817 2.7550292 2.7414784 3.052261
3.1454773 1.8636508 1.7396874 -2.9444547 -3.1675558 3.5682633 -2.6863122 2.29264
-1.2876778 -1.7200905 2.243926 -2.1108973 4.323256 2.297638 -2.1919093 3.2085104
3.775895 -1.5303801 -2.5134916 0.28681815 -1.6736428 -2.3511662 1.6066672 2.3782387
3.5797174 3.6530123 2.9261498 -2.626319 3.6906219 2.428529 -2.400212 1.5008768
2.3202257 -2.834645 -2.5057237 4.9436436 -2.6197536 4.110583 -2.0028942 -2.3807304
2.6467822 3.6441114 -2.7376034 -2.3604171 3.4826386 -1.8632028 -1.4251713 3.784787
3.4470572 -2.6486747 3.5308833 0.9758512 -1.9766951 0.31501678 3.887155 -1.5358416
-1.8656085 -2.4566069 3.5717924 -2.2923965 3.5909438 0.71342385 -2.4630096 -2.196331
4.909536 3.1507032 -1.3108784 -2.187378 0.6224099 2.2822075 3.0044723 -2.3202865
-2.2617998 3.3669364 5.432385 2.8297145 0.2081512 -2.51966 -1.859941 -2.6706371
2.502807 3.4913118 3.0561213 3.350869 -2.6710691 -2.8675444 -2.2590978 -1.695917
-2.621731 3.2620537 -1.9854103 -2.4655159 -2.6087298 2.871902 2.661501 -2.3720808
2.747052 1.0681806 3.9144042 4.3409257 2.6829123 1.7368536 -2.248364 -2.3939996
00000000: 0c11 04c0 b481 0bc0 953a 15c0 1354 3640
00000010: 4fd4 4940 9c61 8e40 936d f93e 2eb3 1ac0
00000020: 5831 eabf 48f1 2c40 ed18 21c0 65ee 383f
00000030: ba57 10c0 8afd 3d40 88ca 1c40 8e17 d6bf
00000040: b59a 3d3d 7674 8540 81d7 f63f dd6b 873e
00000050: 76f5 2cc0 6652 3040 6274 2f40 3f58 4340
00000060: 804f 4940 1c8c ee3f 14ae de3f f271 3cc0
00000070: 3cb9 4ac0 6d5e 6440 8aec 2bc0 9dba 1240
00000080: a0d2 a4bf ed2b dcbf 7c9c 0f40 f118 07c0
00000090: 1d58 8a40 800c 1340 3e48 0cc0 3c58 4d40
000000a0: 44a8 7140 7fe3 c3bf 0cdd 20c0 d4d9 923e
000000b0: ed39 d6bf 8279 16c0 45a7 cd3f 1035 1840
000000c0: 171a 6540 f4ca 6940 0a46 3b40 9c15 28c0
000000d0: 2633 6c40 056d 1b40 139d 19c0 bb1c c03f
000000e0: 947e 1440 d36a 35c0 c75d 20c0 5432 9e40
000000f0: 0baa 27c0 e589 8340 6b2f 00c0 e35d 18c0
00000100: e164 2940 1f39 6940 e534 2fc0 1311 17c0
00000110: 8de3 5e40 6e7d eebf 036c b6bf f339 7240
00000120: 969c 5c40 e383 29c0 fef9 6140 62d1 793f
00000130: 5804 fdbf e149 a13e 26c7 7840 7596 c4bf
00000140: 42cc eebf 0c39 1dc0 3f98 6440 a0b6 12c0
00000150: 06d2 6540 f2a2 363f f3a1 1dc0 b090 0cc0
00000160: eb1a 9d40 1fa5 4940 ddca a7bf 00fe 0bc0
00000170: 4156 1f3f b00f 1240 4649 4040 937f 14c0
00000180: 54c1 10c0 e37b 5740 19d6 ad40 0b1a 3540
00000190: 9725 553e 1c42 21c0 8c12 eebf b8eb 2ac0
000001a0: fd2d 2040 a771 5f40 7e97 4340 a374 5640
000001b0: ccf2 2ac0 d985 37c0 0f95 10c0 cf13 d9bf
000001c0: 71ca 27c0 7dc5 5040 ed21 febf 03cb 1dc0
000001d0: 6ef5 26c0 3ecd 3740 0856 2a40 2cd0 17c0
000001e0: b3cf 2f40 24ba 883f 9985 7a40 dde8 8a40
000001f0: d6b4 2b40 3851 de3f 32e5 0fc0 4a37 19c0
