acgan_models/saved/discriminator(200).pth (torch_old, 142746 bytes, 17 tensors)

model.0.weight f4 [16, 1, 3, 3]
0	0x3e1c4a56	0.15262732
1	0x3e3b746b	0.18306129
2	0x3eed518d	0.4635128
3	0x3d875697	0.066083126
4	0x3e19f80a	0.15036026
5	0xbdb4c8c7	-0.08827358
6	0xbf153a17	-0.58291763
7	0xbea90144	-0.33008778
8	0xbeb637ee	-0.35589546
9	0x3ef45d2a	0.4772733
10	0x3d1ff64b	0.039053243
11	0xbdb38134	-0.08764878
12	0xbdf0a911	-0.11750997
13	0xbec5bfc0	-0.38622856
14	0x3db6ecaf	0.089318626
15	0x3ed50aaf	0.41609713
16	0x3c911b56	0.01771323
17	0xbc928c4f	-0.01788917
18	0x3d5dbc9a	0.054134943
19	0xbd810caa	-0.063012436
20	0xbe43b722	-0.19112828
21	0xbe93d886	-0.28876132
22	0x3e85e106	0.26148242
23	0x3e5244dc	0.2053408
24	0xbe96d610	-0.29460192
25	0x3eb3ef44	0.35143483
26	0x3dff8ca1	0.12477995
27	0xbee548aa	-0.44782
28	0x3e2ce68d	0.16884823
29	0xbe125fac	-0.14294308
30	0xbdc731c4	-0.09726289
31	0xbecf4543	-0.4048253
32	0xbe2df5b3	-0.16988258
33	0xbde4d891	-0.11174119
34	0xbd28374a	-0.041068353
35	0xbd9642e2	-0.07336976
36	0x3e8c36ac	0.2738546
37	0xbdc0a8a6	-0.09407167
38	0xbeb98707	-0.3623583
39	0x3c189eaf	0.009315177
40	0xbea7fe1f	-0.32811067
41	0x3e3c83f8	0.18409717
42	0xbe3884da	-0.18019429
43	0x3c3aca70	0.011400804
44	0x3ef6d729	0.4821103
45	0xbe2ec718	-0.17068136
46	0xbb9306c1	-0.004486889
47	0x3e8e28b4	0.2776543
48	0x3eaffae8	0.34371114
49	0x3e13b656	0.14425024
50	0x3e01310a	0.12616363
51	0xbe9be267	-0.3044617
52	0x3e9021ba	0.2815073
53	0xbecd1723	-0.40056714
54	0x3f1e9ebc	0.6196096
55	0xbdbfb621	-0.0936091
56	0xbd67c2ba	-0.05658219
57	0xbf20ad37	-0.62764305
58	0x3f5ac6e1	0.85459715
59	0xbdda36db	-0.10654994
60	0x3ca7a90d	0.020466352
61	0xbe1d9c2b	-0.15391605
62	0x3df0b208	0.11752707
63	0xbee2432c	-0.44191873
64	0x3e8383f1	0.256866
65	0xbe4202a5	-0.18946321
66	0x3ed2c50c	0.4116596
67	0x3e9dbfd4	0.30810416
68	0x3e9d1489	0.3067973
69	0xbe91f5a6	-0.28507727
70	0xbd96f89d	-0.07371638
71	0x3e4ba0cb	0.19885556
72	0x3e8bd3d7	0.27310058
73	0xbcb23ab6	-0.021756511
74	0xbeb337a0	-0.35003376
75	0x3f0c7a4c	0.5487411
76	0xbd8288b4	-0.0637373
77	0x3e043c9f	0.1291375
78	0x3e162795	0.14663537
79	0x3e5042cc	0.20337981
80	0x3eaf94a8	0.34293103
81	0x3e4b6baa	0.1986529
82	0x3e461adc	0.19346184
83	0xbebe1a78	-0.3712957
84	0x3e23c945	0.15994747
85	0x3ecdf7ae	0.40228027
86	0xbebb9015	-0.36633363
87	0xbe15c3dd	-0.14625497
88	0x3e6f7374	0.23383886
89	0xbdb15b17	-0.08659952
90	0x3c02e425	0.007988964
91	0x3a5c39fc	0.00084009743
92	0x3ea28934	0.31745303
93	0x3cc33918	0.023830935
94	0x3f1f7bcd	0.6229828
95	0xbd004796	-0.03131827
96	0xbeacaa50	-0.33723688
97	0xbeaacb24	-0.3335811
98	0x3d1b4a19	0.037912462
99	0x3e7e3748	0.24825776
100	0x3e919195	0.28431383
101	0x3eb42979	0.3518789
102	0xbead1401	-0.33804324
103	0xbe8796e8	-0.2648232
104	0x3e0b7531	0.13618924
105	0xbe46c727	-0.19411908
106	0xbedc78ec	-0.43061006
107	0x3e3482b0	0.17627978
108	0x3e3538f1	0.17697503
109	0xbe61666a	-0.22011724
110	0xbdac2051	-0.08404601
111	0x3ca3ca66	0.019993972
112	0xbf08232c	-0.5317867
113	0x3eb06179	0.34449366
114	0xbe18a627	-0.14907132
115	0xbe0b5a80	-0.13608742
116	0xbc088f0a	-0.008334884
117	0xbeb2abfa	-0.34896833
118	0xbe9b2d3d	-0.30307952
119	0xbf160f05	-0.5861667
120	0x3c66a85f	0.014078229
121	0x3e050048	0.12988389
122	0xbe559a73	-0.20859699
123	0x3ddbf07e	0.107392296
124	0x3ed7c5ba	0.4214304
125	0x3e367064	0.17816311
126	0x3ce03587	0.027369274
127	0x3de6e3b7	0.11273902
128	0x3eb3de57	0.3513057
129	0xbd451cf9	-0.048123334
130	0x3edb9638	0.42888045
131	0xbd1db0f1	-0.038498823
132	0x3f001801	0.5003663
133	0x3dc705ee	0.09717928
134	0xbed7ab1e	-0.4212274
135	0x3e85fdc2	0.26170164
136	0xbdd017ec	-0.10160813
137	0xbdb116ed	-0.08646951
138	0xbf1bd989	-0.6087881
139	0xbcca9fe2	-0.024734441
140	0xbe94217f	-0.28931805
141	0xbdd147a9	-0.10218746
142	0xbdf748cf	-0.12074434
143	0x3eb36fbb	0.3504618

model.0.bias f4 [16]
0	0xbec6b775	-0.38811842
1	0xbc2b303b	-0.010448511
2	0x3e176b94	0.14787132
3	0xbf1ecb1b	-0.62028664
4	0xbbc3f75d	-0.0059804157
5	0x3e8feab1	0.28108743
6	0xbcade5a1	-0.02122766
7	0x3efa0519	0.48832014
8	0x3df45fbb	0.11932322
9	0x3e54b17a	0.20770827
10	0x3e89ca8b	0.2691234
11	0xbe4fd129	-0.20294632
12	0xbed49c4a	-0.4152549
13	0xbeac9cf6	-0.33713502
14	0x3bd2bbb0	0.0064310655
15	0xbf105cce	-0.5639161

model.3.weight f4 [32, 16, 3, 3]
0	0xbe559506	-0.20857629
1	0xbe0008e0	-0.12503386
2	0x3d5bd216	0.05366715
3	0xbe9dfdf9	-0.30857828
4	0x3dfc436a	0.12317546
5	0x3e326afa	0.17423621
6	0xbd4c900b	-0.049942058
7	0x3e40e9d8	0.18839204
8	0x3cc4d16b	0.02402564
9	0xbe029c40	-0.12754917
10	0xbe39b762	-0.18136361
11	0x3d2f0734	0.04273148
12	0x3e84e81b	0.25958332
13	0xbb5f42db	-0.0034066949
14	0x3cb8e1ce	0.02256861
15	0x3e00aa04	0.12564856
16	0x3e43fa5e	0.19138476
17	0x3d9e8b1e	0.07741378
18	0x3e28861a	0.16457406
19	0xbd29c67a	-0.041449048
20	0x3d287728	0.04112926
21	0x3d90de77	0.07073682
22	0x3dd64dbe	0.10464047
23	0xbd3bb3a4	-0.045825616
24	0xbc5a5827	-0.013326681
25	0xbe48e698	-0.19619215
26	0xbd529ba3	-0.051417958
27	0x3dcea12a	0.10089333
28	0x3d7ffe7f	0.062498566
29	0xbe303f1f	-0.17211579
30	0x3da3020a	0.07959373
31	0xbe945402	-0.28970343
32	0x3cb1e6a3	0.021716421
33	0xbe72e83e	-0.23721406
34	0xbc951708	-0.018199459
35	0x3d3fddda	0.046842434
36	0xbcd7f167	-0.026360227
37	0x3df313f4	0.1186904
38	0x3e4ae829	0.19815125
39	0xbe08e942	-0.13370231
40	0x3e022c25	0.12712152
41	0x3e317b59	0.1733221
42	0xbe4414e0	-0.19148588
43	0xbd9618b0	-0.073289275
44	0x3cd48494	0.025942124
45	0xbde60de5	-0.11233119
46	0xbdee1003	-0.11624148
47	0x3d84dc78	0.064873636
48	0x3dcda28d	0.1004077
49	0x3db9b8ed	0.09068475
50	0x3c06a215	0.008217354
51	0x3c6e94af	0.014561816
52	0x3da1f1eb	0.0790747
53	0xbdf5b593	-0.11997523
54	0x3ba429d6	0.00500987
55	0xbde111f8	-0.109897554
56	0xbd47c99f	-0.048776265
57	0x3c85209c	0.0162509
58	0xbe34d8c0	-0.17660809
59	0xbe1ba85e	-0.15200946
60	0xbe42c0d1	-0.19018866
61	0xbdef853c	-0.11695334
62	0x3d96c6f3	0.07362165
63	0xbd9bd998	-0.07609862
64	0xbc174358	-0.009232365
65	0x3d8215ae	0.06351791
66	0x3ca65eee	0.020308938
67	0x3d8d814e	0.069094285
68	0xbd5656cd	-0.052328873
69	0x3d46c227	0.048525
70	0x3b9fec68	0.0048804767
71	0x39e49e4c	0.0004360549
72	0x3c05f923	0.008177075
73	0x3dc213ea	0.094764546
74	0xbd8ad38a	-0.06778629
75	0xbbdb1be3	-0.006686674
76	0x3ca672c6	0.0203184
77	0x3d99c891	0.07508958
78	0x3db53c18	0.088493526
79	0x3dad5cde	0.08464979
80	0xbd1e8383	-0.038699638
81	0xbd0bb96c	-0.03411238
82	0x3d2d6078	0.042328328
83	0xbd7e8c14	-0.062145308
84	0xbe36c82d	-0.17849799
85	0xbcd53a48	-0.026028767
86	0x3e25c317	0.16187702
87	0x3db834fe	0.089944825
88	0x3e2d8729	0.16946091
89	0x3e0022f0	0.12513328
90	0xbdc8143a	-0.09769483
91	0xbe139144	-0.14410883
92	0x3d6849ce	0.05671101
93	0x3d9da8eb	0.07698234
94	0x3b575819	0.0032858907
95	0x3cf1f6e7	0.029536678
96	0x3e025350	0.12727094
97	0x3daf4f53	0.08560052
98	0xbcf19f93	-0.029495036
99	0xbdbccdc9	-0.09218938
100	0xbe808283	-0.25099573
101	0xbe153498	-0.14570844
102	0xbe8c3704	-0.27385724
103	0xbd613f17	-0.054991808
104	0x3e07a5fb	0.1324691
105	0xbe24641d	-0.16053815
106	0x3dbfc7c0	0.09364271
107	0x3da89881	0.08232213
108	0x3d9d860b	0.07691582
109	0x3bdfb301	0.006826759
110	0xbdec39b6	-0.11534445
111	0xbdb4f97f	-0.0883665
112	0xbe9ff818	-0.31243968
113	0x3dae471c	0.08509657
114	0xbe7e8e49	-0.24858965
115	0xbbe9ea1a	-0.007138503
116	0x3e0e9044	0.1392222
117	0xbdbd2368	-0.09235269
118	0xbdfa454b	-0.12220248
119	0x3d0d709e	0.03453123
120	0xbc8078b0	-0.015682548
121	0x3cbd1e3a	0.023085702
122	0x3dbdc7dd	0.092666365
123	0xbe1bd429	-0.15217651
124	0xbdcbc694	-0.09949985
125	0x3dbf6706	0.09345822
126	0x3d849713	0.064741276
127	0x3e270d4e	0.16313669
128	0x3e11790a	0.14206329
129	0x3e4ca661	0.19985344
130	0x3dd377ad	0.10325561
131	0xbce3cd92	-0.027807985
132	0x3e25f718	0.1620754
133	0x3e3a014a	0.18164554
134	0xbc518acc	-0.012789439
135	0x3c750803	0.014955523
136	0x3daf354e	0.08555089
137	0xba33e806	-0.00068628823
138	0x3e2cac90	0.16862702
139	0x3a0d75b2	0.0005396261
140	0xbd29773f	-0.041373488
141	0xbe1cef8d	-0.15325756
142	0xbd168a75	-0.036753137
143	0x3dd2c8f5	0.10292236
144	0x3d1c0173	0.03808732
145	0x3d1222e4	0.035677806
146	0xbd3ee837	-0.046608176
147	0x3d990e4f	0.07473432
148	0xbe152620	-0.14565325
149	0x3d1f9431	0.038959686
150	0x3dc31640	0.09525728
151	0xbdbda8f5	-0.092607416
152	0x3d10f329	0.035388146
153	0x3e2ef5f6	0.17086014
154	0x3d7b3a3c	0.061334834
155	0xbd4c5352	-0.049884148
156	0xbe37eb07	-0.1796075
157	0xbe451d8a	-0.1924955
158	0xbe223175	-0.15839179
159	0xbe186703	-0.14883046
160	0xbe93b959	-0.28852347
161	0x3d8d837f	0.069098465
162	0xbe209102	-0.15680316
163	0xbe98d237	-0.2984788
164	0xbe2789ae	-0.16361114
165	0xbe785c7d	-0.24254031
166	0x3de82e85	0.11336998
167	0x3e26fdf6	0.16307816
168	0xbe1699d7	-0.14707123
169	0x3dd93da9	0.10607464
170	0x3daed564	0.08536795
171	0xbdeaa785	-0.11457733
172	0xbcba136d	-0.022714341
173	0x3d658430	0.056034267
174	0x3d57561b	0.05257235
175	0x3c11b6a3	0.008893642
176	0x3c10c59e	0.008836178
177	0x3de219a3	0.11040046
178	0xbd35abbd	-0.044353236
179	0xbd7e2c08	-0.06205371
180	0xbe483ef6	-0.19555268
181	0x3d7a7376	0.06114527
182	0x3dcff072	0.10153283
183	0xbd700cc7	-0.058605935
184	0x3e144cab	0.14482372
185	0x3df6afb0	0.120452285
186	0xbd1b14bf	-0.037861582
187	0x3d26a81c	0.040687665
188	0x3da1e734	0.079054266
189	0x3d634a8d	0.05549102
190	0xbdc0c1e7	-0.09411984
191	0xbe2f6432	-0.17128065
192	0xba9ab886	-0.001180426
193	0xbe45e7bb	-0.1932668
194	0x3e114947	0.1418811
195	0xbe9fda0f	-0.31221053
196	0x3d04ddd7	0.032438125
197	0x3d9a6b44	0.075399905
198	0x3dcc9ff5	0.09991447
199	0xbc4a6c4a	-0.01235492
200	0xbdbeaaee	-0.09309946
201	0xbde87ca9	-0.11351902
202	0xbe113463	-0.1418014
203	0xbda47aea	-0.080312565
204	0xbe44be76	-0.1921328
205	0x3da0cac1	0.07851172
206	0x3c0b20e0	0.008491725
207	0x3bc82cde	0.006108864
208	0xbdd1d601	-0.10245896
209	0xbdb66b63	-0.08907201
210	0xbe2ea11a	-0.17053643
211	0xbdb20f1a	-0.08694287
212	0x3dde4251	0.108524926
213	0xbdbe8353	-0.09302392
214	0x3dd8b3b1	0.105811484
215	0x3c92f2f5	0.017938117
216	0x3e10bfdb	0.14135687
217	0x3c7408ee	0.014894707
218	0xbd2ba040	-0.041900873
219	0xbc38b555	-0.011273702
220	0xbe412557	-0.188619
221	0x3b6f987c	0.0036559394
222	0xbe3631b0	-0.17792392
223	0xbdc5261e	-0.09626411
224	0x3dc1f3a0	0.09470296
225	0x3e03ca9e	0.12870261
226	0x3d2fc660	0.042913795
227	0xbd81b2e2	-0.06332947
228	0x3c26405f	0.010147183
229	0xbe9d4167	-0.3071396
230	0xbe94621d	-0.28981104
231	0xbd7688dc	-0.060189113
232	0x3d9d0e6c	0.076687664
233	0x3d0a8ff9	0.03382871
234	0x3d8847c3	0.066543125
235	0x3cf888ea	0.030338723
236	0xbdeed896	-0.11662404
237	0xbd6db6f4	-0.058035806
238	0xbeb0325e	-0.34413427
239	0x3bc44637	0.0059898156
240	0xbe9e7fa1	-0.30956748
241	0x3d20ed0e	0.039288573
242	0x3dca1a0f	0.098682515
243	0xbc401efd	-0.011726138
244	0x3c1f063d	0.009706077
245	0xbd0ec7f4	-0.03485866
246	0xbe0d859a	-0.13820496
247	0xbdb39294	-0.08768192
248	0xbded4b6e	-0.11586653
249	0xbe534793	-0.20632772
250	0x3caafca7	0.020872427
251	0x3d6ba5b3	0.05753107
252	0x3d95f9ec	0.073230594
253	0xbd0cccaa	-0.03437487
254	0xbd3ff313	-0.046862673
255	0xbd6bc954	-0.05756505

model.3.bias f4 [32]
0	0xbdf01849	-0.11723382
1	0xbdfc4d4c	-0.12319431
2	0xbcf8215c	-0.030289344
3	0xbece0826	-0.40240592
4	0x3cce3d03	0.025175577
5	0xbe636097	-0.22204815
6	0xbe39721d	-0.18109937
7	0xbddb6fbe	-0.107146725
8	0xbe5600f4	-0.20898801
9	0x3d3bf4ee	0.04588788
10	0xbd6a0b6f	-0.05713981
11	0xbe3aaf96	-0.18231043
12	0xbe05ceda	-0.13067189
13	0xbc86b782	-0.016444925
14	0xbd2af391	-0.04173619
15	0xbde3fa13	-0.11131682
16	0xbe629b81	-0.22129633
17	0xbe3df3cc	-0.18550032
18	0xbe140a79	-0.1445712
19	0xbe577c73	-0.21043567
20	0xbe771234	-0.24128038
21	0x3e3f5bcd	0.18687363
22	0x3bcc4f8a	0.0062350677
23	0x3cef6cd1	0.029226692
24	0x3e9f9d4d	0.31174698
25	0xbd97062f	-0.07374226
26	0xbd437012	-0.0477143
27	0xbdfc87f3	-0.12330618
28	0xbe86ce11	-0.2632909
29	0xbde8c9f9	-0.11366648
30	0x3e8f231a	0.27956468
31	0xbe8a7f39	-0.27050188

model.6.weight f4 [32]
0	0x3f5352b1	0.8254805
1	0x3f8774a9	1.0582477
2	0x3f89eda5	1.0775648
3	0x3f71dd34	0.94478154
4	0x3f6e97fe	0.9320067
5	0x3f61f6c2	0.8826715
6	0x3f750858	0.95715857
7	0x3f709c6e	0.9398869
8	0x3f4c01a7	0.7969002
9	0x3f6d0376	0.92583406
10	0x3f7dba6b	0.99112576
11	0x3f84a1e8	1.036191
12	0x3f274a4c	0.65347743
13	0x3f9489ed	1.1604592
14	0x3f0744d0	0.52839375
15	0x3f310d02	0.69160473
16	0x3f7c7f74	0.9863198
17	0x3f6a745a	0.9158379
18	0x3f6e648c	0.9312217
19	0x3f7a5182	0.9778062
20	0x3f6fc51d	0.93660146
21	0x3f5be2a7	0.8589272
22	0x3f8258be	1.0183332
23	0x3f813685	1.0094763
24	0x3f82e7a9	1.0226947
25	0x3f4baf73	0.7956459
26	0x3f42804e	0.7597703
27	0x3f90d083	1.1313633
28	0x3f4a5053	0.79028815
29	0x3f8c555e	1.0963552
30	0x3f24bfff	0.6435546
31	0x3f34c44a	0.70612013

model.6.bias f4 [32]
0	0x3cca304f	0.024681238
1	0x3e0d1028	0.13775694
2	0x3bd75b81	0.0065721874
3	0x3db048aa	0.086076096
4	0x3d482d71	0.04887146
5	0x3d2b27d0	0.041786015
6	0x3d070b59	0.032969806
7	0xbc384132	-0.0112460125
8	0x3dfe9bbf	0.1243205
9	0x3d450c26	0.04810729
10	0xbdd43305	-0.10361294
11	0xbd0dd7a1	-0.034629468
12	0xbdd07b02	-0.10179712
13	0x3e04356e	0.12911007
14	0xbdc402b0	-0.09570825
15	0x3de38cb4	0.11110821
16	0x3db843d7	0.089973144
17	0x3d9fe0f7	0.078065805
18	0x3e5d59ef	0.21616338
19	0x3e6ebd43	0.23314385
20	0x3c56fe90	0.013122216
21	0x3e23c02e	0.1599128
22	0x3d20acdb	0.039227348
23	0x3e41570b	0.1888086
24	0xbddd9775	-0.10819904
25	0xbdec4362	-0.1153629
26	0x3dcdfac3	0.100575946
27	0x3d83ca16	0.06435029
28	0x3e73fe29	0.23827423
29	0x3b60643a	0.0034239427
30	0xbe621a9e	-0.22080466
31	0x3d112e45	0.035444517

model.6.running_mean f4 [32]
0	0x3dadfb32	0.08495177
1	0x3d14ff72	0.036376424
2	0x3e409934	0.18808442
3	0x3cb55645	0.022135863
4	0x3dccc605	0.09998707
5	0x3d9ff94e	0.07811223
6	0xbd250d6a	-0.040295996
7	0x3e2caffc	0.16864008
8	0x3cc418f8	0.023937687
9	0x3e3f6743	0.18691735
10	0x3d2c20e9	0.042023573
11	0x3cba8159	0.022766756
12	0x3dcf0ca2	0.101098314
13	0x3dc496e1	0.0959909
14	0x3ddc01a8	0.107425034
15	0x3d77d643	0.06050707
16	0x3c973c39	0.018461334
17	0x3e61d89c	0.22055286
18	0x3d37bcd1	0.044857804
19	0x3d63975f	0.05556428
20	0x3d40b8c6	0.047051214
21	0x3e7fd468	0.2498337
22	0x3d86b9f1	0.06578434
23	0x3c802dc1	0.015646817
24	0x3e566e77	0.20940576
25	0x3bb66d53	0.0055672317
26	0x3d93c458	0.07215184
27	0x3dbfddc7	0.093684725
28	0x3e0391f6	0.12848648
29	0x3e38c5a8	0.1804415
30	0x3e3dea91	0.18546511
31	0x3d247f6b	0.040160578

model.6.running_var f4 [32]
0	0x3eb2a31f	0.34890077
1	0x3e19125b	0.14948408
2	0x3ec88993	0.3916746
3	0x3e06f30b	0.13178651
4	0x3e512c74	0.20427114
5	0x3e2a680c	0.16641253
6	0x3e7cdd32	0.24693754
7	0x3eac7294	0.33681166
8	0x3e7832ff	0.24238203
9	0x3e9212f9	0.285301
10	0x3e050924	0.12991768
11	0x3df5ba9c	0.119984835
12	0x3e9753aa	0.29556018
13	0x3e7bb1ae	0.24579498
14	0x3e9a73e6	0.30166548
15	0x3e9c5995	0.30537096
16	0x3db2bb1e	0.08727096
17	0x3f09e26c	0.5386112
18	0x3eacc533	0.337442
19	0x3e3fdcf9	0.18736638
20	0x3ea0e0f3	0.31421623
21	0x3fbb2e93	1.4623588
22	0x3e7f6085	0.24939163
23	0x3e092b5d	0.13395448
24	0x3ea68d1d	0.32529536
25	0x3e39ad29	0.18132462
26	0x3ea65c8a	0.32492477
27	0x3e8daa12	0.27668816
28	0x3e94f1f1	0.29090837
29	0x3edcc2ec	0.43117464
30	0x3eb8469f	0.3599138
31	0x3e3b3526	0.18281993

model.7.weight f4 [64, 32, 3, 3]
0	0xbe28fda3	-0.16503005
1	0xbd5e5354	-0.054278687
2	0x3ad2e899	0.0016091048
3	0xbcc5b39a	-0.024133492
4	0xbe651029	-0.22369446
5	0xbdcba0ba	-0.099427655
6	0x3d493162	0.04911936
7	0x3cfcea53	0.030873453
8	0xbdad1908	-0.0845204
9	0xbcdbac31	-0.026815506
10	0x3d074ea6	0.03303399
11	0xbe5e6b2f	-0.21720575
12	0x3d5bd88f	0.053673323
13	0xbe6413d7	-0.22273193
14	0xbe716eb0	-0.2357738
15	0x3e035a42	0.128274
16	0xbd69087e	-0.056892864
17	0xbc73bd8d	-0.014876735
18	0x3dc42c53	0.09578767
19	0xbdb63ea5	-0.08898667
20	0xbe45f8b8	-0.1933316
21	0x3dd31ed3	0.10308614
22	0xbdcb776d	-0.09934888
23	0x3cd09fd2	0.025466833
24	0x3d987d04	0.0744572
25	0xbe0179a3	-0.12644057
26	0xbe0e695d	-0.1390738
27	0x3e38b028	0.18035948
28	0xbe23ba98	-0.15989149
29	0xbd5169a1	-0.051126126
30	0x3dc832a8	0.09775287
31	0x3ea99358	0.33120227
32	0x3e084ad0	0.13309789
33	0x3d85720b	0.065158926
34	0x3dbe24a9	0.09284336
35	0xbdac2d08	-0.084070265
36	0xbddb3c1f	-0.107048266
37	0xbdeefc26	-0.11669187
38	0xbdb709e7	-0.089374356
39	0xbe24bda6	-0.1608797
40	0x3cf54627	0.029940678
41	0xbe5658e0	-0.2093234
42	0xbd3bdb15	-0.04586323
43	0xbd207d86	-0.03918221
44	0x3d68ad3b	0.05680583
45	0x3d206e27	0.03916755
46	0xbcc2e45f	-0.023790536
47	0xbd62f6fa	-0.055411316
48	0x3ab7950a	0.0014006209
49	0xbc695a6a	-0.014242748
50	0xbe280b0f	-0.16410469
51	0xba2d90ac	-0.0006620984
52	0xbd568ac1	-0.05237842
53	0xbdd07b29	-0.10179741
54	0x3d5d9a57	0.054102268
55	0x3c6ecc9d	0.014575151
56	0xbd06c71c	-0.03290473
57	0xbd8b59bf	-0.06804227
58	0x3c192d5a	0.009349192
59	0xbe0c1299	-0.1367897
60	0xbde60f86	-0.112334296
61	0xbd2a066e	-0.041510038
62	0x3e03ba93	0.12864141
63	0x3e068433	0.13136367
64	0xbda8b9c9	-0.08238561
65	0xbe214531	-0.1574905
66	0x3dfcd5cb	0.12345465
67	0x3d78d92a	0.06075398
68	0xbdc40656	-0.09571521
69	0xbd320d90	-0.043469965
70	0xbe00f8fd	-0.12594981
71	0xbe629e24	-0.22130638
72	0x3e482057	0.19543587
73	0x3e057c91	0.130358
74	0x3b6c45b7	0.0036052295
75	0x3e2f3374	0.17109472
76	0x3e7733ff	0.24140929
77	0x3dfc46f3	0.1231822
78	0x3de391dc	0.11111805
79	0x3deb1682	0.114789024
80	0x3cde9584	0.027170904
81	0x3db30f3d	0.08743141
82	0x3d6ac072	0.057312436
83	0xbdbeccfb	-0.09316441
84	0xbd175d5f	-0.03695428
85	0xbd66d1c4	-0.05635239
86	0xbc8382dc	-0.01605361
87	0x3dc4b1d9	0.09604234
88	0xbc8acebe	-0.016944285
89	0xbdd13acb	-0.10216292
90	0x3e5c87d0	0.21536183
91	0x3d65492d	0.05597799
92	0xbd0d88eb	-0.034554403
93	0xbd0ea36e	-0.034823827
94	0xbd558899	-0.052132223
95	0x3d588700	0.05286312
96	0xbcfeba77	-0.031094773
97	0xbd2df25e	-0.042467467
98	0x3ae797e0	0.0017669164
99	0xbe1dac53	-0.15397768
100	0xbcae30b2	-0.021263454
101	0x3c7c3fea	0.015396098
102	0x3e3b1721	0.18270542
103	0xbe3be19b	-0.1834778
104	0xbcb1fe28	-0.021727636
105	0xbe1aeb84	-0.15128905
106	0x3c8ab3a9	0.016931372
107	0xbc72f650	-0.014829233
108	0xb8ebe2e8	-0.00011247938
109	0x3e0055db	0.12532751
110	0x3e586121	0.21130802
111	0xbc1e24d9	-0.00965234
112	0x3e353918	0.17697561
113	0xbc701cc1	-0.014655293
114	0xbd9731cc	-0.07382545
115	0xbba82035	-0.0051307925
116	0xbdb4192a	-0.08793862
117	0x3e03bdc9	0.12865366
118	0xbda1e3fb	-0.07904812
119	0xbe565adc	-0.20933098
120	0x3e1f0f32	0.1553314
121	0xbd7d6708	-0.061865836
122	0xbe0bcd53	-0.13652544
123	0x3e3b48a1	0.18289424
124	0xbe076536	-0.13222203
125	0xbcc2068b	-0.02368476
126	0xbda1dc7e	-0.07903384
127	0x3dd002fa	0.10156818
128	0xbda3c08d	-0.079957105
129	0xbe3ce715	-0.18447526
130	0xbd81cdc5	-0.063380755
131	0xbd354930	-0.04425925
132	0xbe82f7a6	-0.25579566
133	0xbe2ab86c	-0.16671914
134	0xbd0192af	-0.03163403
135	0xbe92c6e2	-0.2866736
136	0xbe687843	-0.22702126
137	0xbd9d8cb8	-0.076928556
138	0xbb8868d2	-0.004162886
139	0xbdc24869	-0.094864674
140	0xbda8fa81	-0.08250905
141	0x3dda95fe	0.1067314
142	0xbd065987	-0.032800224
143	0xbd32e81f	-0.0436784
144	0xbd58f51d	-0.052968133
145	0xbdbfd59e	-0.09366916
146	0xbe63a0fe	-0.22229382
147	0x3dff84e4	0.12476519
148	0xbd148c95	-0.036266882
149	0xbe80756b	-0.25089583
150	0xbe4da3c1	-0.20081998
151	0x3e0de5fa	0.1385726
152	0xbdc1dd7f	-0.09466075
153	0xbd079da3	-0.03310932
154	0xbdba5efd	-0.09100149
155	0xbe5d4965	-0.21610029
156	0xbc08b46c	-0.008343797
157	0xbdb15f5e	-0.08660768
158	0xbe31051b	-0.17287104
159	0x3dded18a	0.1087981
160	0x3cbb674a	0.0228764
161	0x3c8b3e2a	0.016997416
162	0xbdf5d894	-0.120041996
163	0x3d50913c	0.050919756
164	0xbdf3f9f9	-0.11912913
165	0xbd312d74	-0.043256238
166	0x3d29cfbc	0.041457877
167	0xbe0e90ec	-0.13922471
168	0x3df7a087	0.12091165
169	0x3da0dd92	0.07854761
170	0x3d0d16d5	0.034445602
171	0xbc9c09de	-0.019047674
172	0xbe096212	-0.13416317
173	0xbecbcb0f	-0.3980336
174	0x3db07884	0.086167365
175	0x3b96017c	0.0045778137
176	0xbe09b09b	-0.13446276
177	0xbc2fc748	-0.010728665
178	0xbd76e7c3	-0.06027962
179	0x3e76ad89	0.24089636
180	0x3e485e48	0.19567215
181	0x3c59108a	0.013248572
182	0x3bc2a6e2	0.005940304
183	0x3e656678	0.2240237
184	0x3cb3df53	0.021957075
185	0xbe67fa15	-0.22653992
186	0x3d5b8194	0.053590372
187	0x3d2a0118	0.04150495
188	0xbce8ce8f	-0.028418807
189	0xbe3b2e24	-0.1827932
190	0xbe0e63c7	-0.1390525
191	0xbd2a9c7c	-0.04165314
192	0xbeb35338	-0.35024428
193	0xbdf27991	-0.11839593
194	0x3ce32917	0.027729554
195	0x3e819e97	0.25316307
196	0xbdf4c5dd	-0.11951802
197	0xbd834e72	-0.06411447
198	0xbd46ec5c	-0.048565254
199	0x3e599814	0.2124942
200	0x3d2b2c9c	0.04179059
201	0x3d4f5d1f	0.050625917
202	0x3ead0890	0.33795595
203	0x3e504da6	0.2034212
204	0x3e4e8601	0.20168306
205	0xbe208a7f	-0.15677832
206	0x3c2e3ec2	0.01063508
207	0x3cc227f4	0.023700692
208	0xbe022641	-0.12709905
209	0x3c89189b	0.016735366
210	0x3d21031f	0.039309617
211	0xbe0c18f1	-0.1368139
212	0xbbea5728	-0.007151503
213	0x3dd1116d	0.10208402
214	0xbe94a11a	-0.2902916
215	0x3c805cca	0.015669245
216	0xbdfbee5d	-0.123013236
217	0x3cf034d6	0.02932207
218	0x3d090e28	0.033460766
219	0x3d9cce29	0.076565094
220	0xbe06fe9f	-0.13183068
221	0xbd474562	-0.048650153
222	0x3e91e1aa	0.2849248
223	0xbe1d49e3	-0.15360217
224	0x3d8d4e07	0.06899648
225	0xbdb35f9d	-0.08758471
226	0xbddc026e	-0.10742651
227	0xbdb286ed	-0.08717141
228	0x3d734445	0.05939128
229	0x3e3f6629	0.18691315
230	0x3e201114	0.15631515
231	0x3dce036f	0.10059249
232	0x3d3753f9	0.044757817
233	0xbdd1257b	-0.10212227
234	0x3d012f99	0.031539533
235	0x3d12dcdc	0.03585516
236	0xbdba8830	-0.09108007
237	0x3d629605	0.05531885
238	0x3e2e16ca	0.17000881
239	0x3e01011b	0.12598078
240	0xbe029e16	-0.12755617
241	0xbd9f996e	-0.07792936
242	0x3decfdc0	0.115718365
243	0x3e130100	0.1435585
244	0xbdca4381	-0.098761566
245	0xbe4040a4	-0.18774658
246	0x3dd69865	0.10478286
247	0x3d8cf12b	0.06881937
248	0xbdeb9660	-0.11503291
249	0xbde8ed97	-0.11373442
250	0xbcc63e22	-0.02419955
251	0x3db2ca91	0.08730043
252	0x3e622777	0.22085367
253	0x3e336326	0.17518291
254	0xbe0b9a39	-0.1363305
255	0x3d1cf80d	0.038322497

model.7.bias f4 [64]
0	0xbe125600	-0.14290619
1	0xbdf1f898	-0.118149936
2	0xbe60821e	-0.21924636
3	0xbd085a4d	-0.033289243
4	0xbda413ad	-0.08011565
5	0xbe7dbc75	-0.24778922
6	0xbdda28cb	-0.10652312
7	0xbd923d13	-0.07140555
8	0xbd3fc0a1	-0.046814565
9	0xbde05214	-0.10953155
10	0x3d2550e7	0.040360358
11	0xbd83989b	-0.064255916
12	0xbd601045	-0.054703016
13	0xbe1f619c	-0.15564579
14	0xbe0bb0b0	-0.1364162
15	0xbd8c385b	-0.068466865
16	0xbdc648ca	-0.09681852
17	0xbddbc48a	-0.10730846
18	0xbd58f0ac	-0.052963898
19	0xbc4a116f	-0.012333258
20	0xbdccad7b	-0.09994026
21	0xbc70f117	-0.014705918
22	0xbd28d496	-0.041218363
23	0x3cb4d8ff	0.022076128
24	0xbdb023e4	-0.086005956
25	0x3c925d2d	0.017866695
26	0xbd81f609	-0.063457556
27	0xbd9faed4	-0.07797018
28	0xbd828d6c	-0.0637463
29	0xbe736a66	-0.23771057
30	0xbe4867d5	-0.19570859
31	0xbe079f86	-0.13244447
32	0xbbabdaaa	-0.0052445726
33	0xbcf526e4	-0.029925771
34	0xbe8ecaf4	-0.27889216
35	0xbe521dc5	-0.20519169
36	0xbdc5848a	-0.096444204
37	0xbdeaed91	-0.114710934
38	0xbcb8b67b	-0.022547951
39	0xbdcb6e78	-0.099331796
40	0x3d170fcf	0.03688031
41	0xbc393028	-0.011302985
42	0xbd3f4a36	-0.046701632
43	0xbd5bdc58	-0.053676933
44	0x3c70779f	0.014676957
45	0xbe0f8ba2	-0.1401811
46	0xbec12d6b	-0.37729964
47	0xbe0058ff	-0.1253395
48	0xbdfb09bd	-0.12257717
49	0xbd270263	-0.04077376
50	0xbd94feaa	-0.07275136
51	0xbe907411	-0.28213552
52	0xbdbb115d	-0.09134171
53	0xbdea5e6f	-0.11443793
54	0x3daba75a	0.08381529
55	0xbda2c18a	-0.07947071
56	0xbe1b77cb	-0.15182416
57	0xbd492685	-0.049109
58	0xbe2488c4	-0.16067797
59	0xbd18bf89	-0.037292037
60	0x3dae7cac	0.08519873
61	0xbd242cdc	-0.040081844
62	0xbe063149	-0.13104738
63	0xbd8032dc	-0.06259701

model.10.weight f4 [64]
0	0x3e887acc	0.26656187
1	0x3f7efd98	0.99605703
2	0x3f493799	0.7860046
3	0x3f6205a3	0.8828985
4	0x3f917838	1.1364813
5	0x3f34ad93	0.70577353
6	0x3ed294f9	0.41129282
7	0x3f242a8b	0.64127415
8	0x3fadfabb	1.3592142
9	0x3f2f8346	0.6855968
10	0x3f87c803	1.0607914
11	0x3f020fa5	0.5080512
12	0x3f4bc032	0.7959014
13	0x3f70712c	0.93922687
14	0x3fa79ca9	1.3094684
15	0x3f9b1d97	1.2118405
16	0x3f9660a4	1.1748242
17	0x3f7c36b7	0.9852099
18	0x3eb7df1f	0.35912415
19	0x3f0478de	0.5174693
20	0x3f99d85f	1.2019156
21	0x3f79d54f	0.9759111
22	0x3f1a11c7	0.60183376
23	0x3f98fb71	1.1951734
24	0x3f88b510	1.0680256
25	0x3fbbc1f7	1.4668568
26	0x3fa3d4ee	1.2799356
27	0x3f672a5b	0.90299004
28	0x3ed3f1f0	0.4139552
29	0x3f76e29d	0.96439534
30	0x3f5366ab	0.82578534
31	0x3f3b522d	0.73172265
32	0x3f8419ae	1.0320337
33	0x3fa3506a	1.2758915
34	0x3f3b0564	0.730551
35	0x3f810d7f	1.0082244
36	0x3fab1e66	1.3368652
37	0x3f91441a	1.1348908
38	0x3e9c052f	0.30472705
39	0x3f1aca23	0.60464686
40	0x3f0248f7	0.50892586
41	0x3f26ef7e	0.65209186
42	0x3f17d15a	0.5930382
43	0x3f84b385	1.0367285
44	0x3f527e56	0.82224023
45	0x3f661d35	0.89888316
46	0x3ea9040f	0.3301091
47	0x3f8e80b1	1.1133024
48	0x3f8d7abe	1.1053083
49	0x3f5f06df	0.8711986
50	0x3f4616a5	0.773783
51	0x3f9572a4	1.167561
52	0x3f726afd	0.946945
53	0x3f8e3e84	1.1112828
54	0x3f929d58	1.1454268
55	0x3f86073a	1.0470955
56	0x3f92424d	1.1426483
57	0x3f6436af	0.8914594
58	0x3f26323f	0.6492042
59	0x3fb61baa	1.4227192
60	0x3fac4950	1.3459873
61	0x3fa611f9	1.2974235
62	0x3f990ad3	1.1956428
63	0x3f5a55bf	0.8528709

model.10.bias f4 [64]
0	0x3cd4a986	0.025959741
1	0x3d659c80	0.056057453
2	0x3b5393a2	0.003228404
3	0x3db01ab0	0.0859884
4	0x3db17f08	0.086668074
5	0x3c83ce4b	0.01608958
6	0xbc9584e0	-0.018251836
7	0x3dbef43c	0.09323928
8	0x3ca1e283	0.01976133
9	0x3cc8d90c	0.024517559
10	0x3deb975b	0.11503478
11	0x3d316789	0.04331163
12	0xbaa1c6b3	-0.0012342542
13	0x3d62765f	0.05528867
14	0x3dd2ba23	0.10289409
15	0x3c00267b	0.007821674
16	0x3e043685	0.12911423
17	0x3d8f79cf	0.07005655
18	0x3d41fc7d	0.047359932
19	0x3d781ecf	0.060576256
20	0x3e03d873	0.12875538
21	0x3dba9b35	0.09111635
22	0x3d95a39c	0.07306597
23	0x3e647ae0	0.22312498
24	0xb9a96650	-0.0003231042
25	0x3d10f569	0.03539029
26	0x3daef222	0.08542277
27	0x3d362b1a	0.0444747
28	0x3c1ef902	0.009702923
29	0x3e4b6299	0.19861831
30	0x3d3846e1	0.04498947
31	0x3e012e40	0.12615299
32	0x3dce88ab	0.10084661
33	0x3d73ead0	0.059550107
34	0x3de0736c	0.10959515
35	0x3cbf095d	0.023319894
36	0x3e11af8f	0.14227127
37	0x3c380359	0.011231267
38	0x3cd07280	0.025445223
39	0x3b2e1b64	0.002656662
40	0x3cefa445	0.029253135
41	0x3d53da64	0.051721945
42	0xbd183fb3	-0.037170123
43	0x3d28cacd	0.04120903
44	0x3db5c10d	0.08874712
45	0x3d098576	0.033574544
46	0x3cab87c3	0.02093876
47	0x3dcf806f	0.10131919
48	0x3d218fcb	0.039443772
49	0x3d6db8d4	0.058037594
50	0x3dce267b	0.10065933
51	0x3b8e01a0	0.00433369
52	0x3d8ddbe7	0.06926709
53	0x3dac17a8	0.084029496
54	0x3d867ead	0.0656713
55	0x3e106fdb	0.1410517
56	0x3df84180	0.12121868
57	0xbd64f359	-0.055896137
58	0x3a9c396f	0.0011918972
59	0x3e006d5c	0.12541717
60	0x3d7be8d7	0.06150135
61	0x3d9e25f9	0.077220865
62	0x3dd3a5a3	0.10334327
63	0x3e020464	0.12696987

model.10.running_mean f4 [64]
0	0x3c1b9c68	0.009497739
1	0x3e1ea41e	0.15492293
2	0xbc8be091	-0.017074855
3	0x3e861670	0.26188993
4	0x3e12a32b	0.14320056
5	0x3f36ed1e	0.7145556
6	0xbd8b799d	-0.06810305
7	0x3e52f491	0.20601107
8	0xbcc12977	-0.023579342
9	0x3ec32c62	0.381198
10	0x3e8b7955	0.27241006
11	0x3dead762	0.11466862
12	0x3df86c56	0.121300384
13	0x3ea6138e	0.32436794
14	0x3dc5aaa6	0.09651689
15	0x3e0d8720	0.13821077
16	0x3e6cc624	0.2312246
17	0x3dd37f35	0.10326997
18	0x3e55716a	0.20844045
19	0x3e969aca	0.2941497
20	0x3ee58b63	0.44832906
21	0x3d8fe322	0.07025744
22	0x3da81ff2	0.08209218
23	0x3ec254a9	0.37955216
24	0x3e64736c	0.22309655
25	0x3dc056e0	0.0939157
26	0x3ea4feea	0.32225734
27	0x3da625c1	0.0811267
28	0xbd062028	-0.03274551
29	0x3ee6786e	0.45013756
30	0x3e19ea6b	0.1503083
31	0x3e0089cd	0.12552567
32	0x3e918dc5	0.28428474
33	0x3e5b2621	0.21401264
34	0x3d3365f8	0.043798417
35	0x3d2785aa	0.040898956
36	0x3e9cdfce	0.306395
37	0x3d7c8e82	0.061659344
38	0x3dcbd9ef	0.09953677
39	0x3dcdcb1d	0.100485064
40	0x3e38c972	0.18045595
41	0x3e066633	0.13124923
42	0xbc0cf299	-0.008602762
43	0x3d7bc431	0.0614664
44	0x3ea97cd3	0.33103046
45	0x3d1da48b	0.038487
46	0x3bbfbbdc	0.005851252
47	0x3e10a1d5	0.14124234
48	0x3e00aa26	0.12564906
49	0x3dcb0e28	0.099148095
50	0x3f18413e	0.5947455
51	0xbd58b7ac	-0.05290954
52	0x3d3dd6d4	0.046347454
53	0x3d7dea0e	0.06199079
54	0x3dcae779	0.09907431
55	0x3e88da03	0.2672883
56	0x3da8ab5a	0.08235808
57	0x3dd2b38c	0.10288152
58	0x3e6e24c4	0.23256212
59	0x3eeaff58	0.45897937
60	0x3e73444e	0.23756525
61	0x3e47c2f4	0.19507962
62	0x3e5b5fae	0.21423218
63	0x3f1024f6	0.563064

model.10.running_var f4 [64]
0	0x3e3726fc	0.17885965
1	0x3e9aad73	0.30210456
2	0x3e49dec8	0.1971389
3	0x3f47f857	0.7811331
4	0x3eb416ec	0.35173738
5	0x4005e579	2.092131
6	0x3e32df35	0.17467959
7	0x3f0651c3	0.5246851
8	0x3e814f10	0.25255632
9	0x3f8f32c4	1.1187367
10	0x3f0d64c5	0.5523189
11	0x3e9e8d1f	0.30967042
12	0x3ee78e17	0.45225593
13	0x3f8221fc	1.0166621
14	0x3f2527da	0.64513934
15	0x3f16fe4b	0.5898177
16	0x3f1ef1c2	0.62087643
17	0x3ebd08e1	0.36920837
18	0x3f0624b5	0.5239976
19	0x3eb0c555	0.34525552
20	0x3f898e71	1.0746595
21	0x3ec778e1	0.3895941
22	0x3e994501	0.29935458
23	0x3f5f973c	0.8734014
24	0x3efcb310	0.49355364
25	0x3e8b33d5	0.27187982
26	0x3f9b612e	1.2139032
27	0x3e6fd686	0.23421678
28	0x3e080a28	0.13285124
29	0x3f83ecba	1.0306618
30	0x3f5ea2fd	0.8696745
31	0x3ecc4367	0.39895174
32	0x3eb85316	0.3600089
33	0x3ebe17fe	0.3712768
34	0x3ebb8433	0.36624297
35	0x3e876f1b	0.26451954
36	0x3f6304d2	0.8867923
37	0x3e5574d1	0.20845343
38	0x3e5fc494	0.21852332
39	0x3eff73d7	0.49893066
40	0x3f179273	0.5920784
41	0x3eb56373	0.35427436
42	0x3e0abc62	0.13548425
43	0x3e85ee3d	0.26158324
44	0x3f1a3937	0.6024355
45	0x3f0002d6	0.5000433
46	0x3e3acf3d	0.18243118
47	0x3ef857fe	0.48504633
48	0x3ef297d7	0.4738147
49	0x3f06ec9b	0.5270478
50	0x3f9fe831	1.2492734
51	0x3ebabc88	0.36471963
52	0x3edc4b45	0.43026176
53	0x3e9c736b	0.30556807
54	0x3f047a0c	0.5174873
55	0x3f3825c6	0.7193264
56	0x3eba397e	0.36371988
57	0x3ef88e0f	0.48545882
58	0x3edd0af3	0.43172416
59	0x3f93a4ca	1.1534665
60	0x3f006a2d	0.5016201
61	0x3efaa880	0.4895668
62	0x3f64af0e	0.8932961
63	0x3f899a30	1.0750179

result.0.weight f4 [10, 1024]
0	0xbe44dd04	-0.19224936
1	0xbe68aa8c	-0.22721308
2	0xbdb24a59	-0.08705587
3	0x3e63ef94	0.2225936
4	0xbd634060	-0.055481315
5	0x3e01a6b4	0.12661248
6	0xbe9c9c14	-0.30587828
7	0xbe6e9ed7	-0.2330278
8	0xbe2bb64e	-0.16768762
9	0x3e9b07f2	0.302795
10	0xbdbbea9a	-0.09175606
11	0xbd0ad8b4	-0.03389807
12	0xbd7fbcee	-0.062436037
13	0xbc858fc8	-0.016303912
14	0xbe69e2e2	-0.22840455
15	0xbe8d03e4	-0.2754203
16	0xbd3f704d	-0.046737958
17	0x3e143add	0.1447558
18	0xbd6531ff	-0.055955883
19	0xbb610036	-0.00343324
20	0xbe6a3d13	-0.2287486
21	0xba732486	-0.0009275157
22	0x3d3e012a	0.04638783
23	0xbd2bae0f	-0.041914042
24	0x3e788b72	0.24271944
25	0x3c4b7380	0.012417674
26	0x3efd9821	0.49530128
27	0xbdf8afff	-0.121429436
28	0xbd39eff2	-0.045394845
29	0xbe1c8336	-0.15284428
30	0x3df6eab0	0.12056482
31	0x3e02c821	0.12771656
32	0xbdbc40ff	-0.091920845
33	0xbd2b1ef2	-0.04177756
34	0xbdf2928c	-0.11844358
35	0xbd403fc2	-0.046935804
36	0x3cfd239e	0.030900773
37	0x3ccb1efc	0.024795048
38	0x3e904246	0.28175563
39	0x3e28a989	0.16470923
40	0x3e2425e4	0.16030079
41	0xbe8b30dc	-0.27185714
42	0x3d932153	0.071840905
43	0x3ec54344	0.38527882
44	0xbda94687	-0.08265405
45	0x3e4604f3	0.19337825
46	0xbeba6b8e	-0.36410183
47	0xbccc0b39	-0.024907695
48	0x3e5e3509	0.21699919
49	0xbdc8f39b	-0.09812089
50	0x3e66848f	0.22511505
51	0x3cce2e51	0.02516857
52	0x3e7869d7	0.24259125
53	0x3ec5c473	0.3862644
54	0xbe3c8e0d	-0.18413563
55	0x3df1759c	0.1179001
56	0xbf292630	-0.66073895
57	0xbee574bd	-0.44815627
58	0x3e9e66b3	0.30937728
59	0xbf35f9e9	-0.7108446
60	0xbbbb8d29	-0.0057236147
61	0xbd80615b	-0.06268569
62	0x3ea44a09	0.32087734
63	0x3e451308	0.19245541
64	0x3da7b8a4	0.08189514
65	0xbd9ac0e5	-0.07556323
66	0x3d1a59bd	0.037683237
67	0x3e717a02	0.23581699
68	0xbaef766c	-0.0018269545
69	0xbe19f1a1	-0.1503358
70	0xbf1437d5	-0.5789769
71	0xbd40ae57	-0.047041263
72	0x3ebd7042	0.36999708
73	0xbcfedeeb	-0.031112155
74	0x3df89fe6	0.12139873
75	0xbd13ed1c	-0.036114797
76	0x3ebb11e4	0.36537087
77	0x3eae0af0	0.3399272
78	0xbf1ce5ba	-0.61288035
79	0xbd1e010a	-0.03857521
80	0x3dc15e53	0.09441819
81	0xbdb48ef6	-0.0881633
82	0x3c7ab7e4	0.015302632
83	0x3e0b622d	0.1361167
84	0x3db48969	0.088152714
85	0x3d1ab7e0	0.037773013
86	0x3d97be73	0.07409372
87	0x3f0c426e	0.54788864
88	0x3e030eab	0.12798564
89	0xbeed0c14	-0.46298277
90	0xbf6f6ab5	-0.93522197
91	0x3dca60e6	0.09881763
92	0x3dc5c3a2	0.096564546
93	0x3db18ed2	0.08669819
94	0x3e9d2bbc	0.3069743
95	0x3da1c753	0.07899346
96	0x3d7d6172	0.06186051
97	0xbe0f0220	-0.13965654
98	0xbc573ac2	-0.013136568
99	0xbb9cadd9	-0.0047814664
100	0x3e0a3661	0.13497306
101	0x3e562fe7	0.20916711
102	0xbdc208f4	-0.09474364
103	0xbe073812	-0.13204983
104	0x3e3a76fd	0.18209453
105	0xbdef0eba	-0.11672731
106	0xbdc22ac3	-0.094808124
107	0xbe93b7e0	-0.28851223
108	0xbd976c21	-0.07393671
109	0x3d3aa72e	0.04556959
110	0x3f503168	0.8132539
111	0x3e265f75	0.16247351
112	0xbd8de77f	-0.0692892
113	0xbd157b35	-0.036494453
114	0x3d61c5ec	0.055120394
115	0xbda3143a	-0.07962842
116	0xbd8dd230	-0.06924856
117	0xbc9571f9	-0.018242823
118	0xbcb36ad1	-0.02190152
119	0x3c04584a	0.00807769
120	0x3e271102	0.16315082
121	0xbe13ca17	-0.1443256
122	0xbc71e3d5	-0.014763792
123	0xbd2bc1b4	-0.041932777
124	0xbe1ad20d	-0.1511919
125	0xbf06e676	-0.52695405
126	0x3c7b663f	0.015344202
127	0x3d94309a	0.072358325
128	0x3cd2ce4f	0.025733141
129	0xbd579a07	-0.052637126
130	0x3ddd1e91	0.10796846
131	0x3a6cc13e	0.0009031481
132	0xbda86b5b	-0.082236014
133	0xbe5825cd	-0.2110817
134	0x3ee3f407	0.44522116
135	0x3e94628e	0.2898144
136	0xbe26f4ee	-0.16304371
137	0xbd8455a8	-0.0646165
138	0xbeeb1404	-0.45913708
139	0xbde6cd9f	-0.11269688
140	0x3debdeba	0.11517091
141	0x3e1ce925	0.15323313
142	0xbde4c93c	-0.11171195
143	0xbd2d6a2f	-0.042337593
144	0x3e0aa728	0.13540328
145	0x3e6b85a3	0.23000197
146	0x3d4781b1	0.048707668
147	0x3c8484f6	0.016176682
148	0x3e10d021	0.14141895
149	0xbccb800d	-0.024841333
150	0x3ea015e2	0.31266695
151	0xbe3140d3	-0.17309885
152	0x3e3d9e53	0.18517427
153	0xbec2dcd8	-0.38059115
154	0xbf47802b	-0.77929944
155	0xbf26dcae	-0.6518048
156	0x3e076aac	0.13224286
157	0x3da5769f	0.08079266
158	0x3c8c0429	0.017091827
159	0xbe76bac7	-0.24094687
160	0x3cdf210d	0.02723744
161	0xbd247159	-0.04014716
162	0xbd52b7d6	-0.05144485
163	0xbcf358bd	-0.0297054
164	0xbe2ae3bc	-0.16688436
165	0x3e79b486	0.2438527
166	0xbf07d69a	-0.5306183
167	0xbc849398	-0.01618366
168	0xbebdcd31	-0.3707061
169	0x3cdd07db	0.026981285
170	0x3e7e54dd	0.2483706
171	0x3e6db45c	0.23213333
172	0xbdcbc315	-0.09949318
173	0xbe23f6cd	-0.16012116
174	0x3d24a7bf	0.040199038
175	0xbed408ac	-0.41412866
176	0x3e1a2f57	0.15057121
177	0xbe3faf01	-0.18719102
178	0xbda07ca1	-0.07836271
179	0xbe019099	-0.12652816
180	0xbdccb8fd	-0.09996221
181	0x3e1895ee	0.14900944
182	0xbd80d08e	-0.06289779
183	0x3d4fc62f	0.050726112
184	0xbce1d0a7	-0.027565314
185	0x3d5d5996	0.054040514
186	0x3d84b302	0.064794555
187	0xbe153cbd	-0.14573951
188	0x3b2ebb24	0.0026661837
189	0x3ddfd9d3	0.109302185
190	0xbe89a93f	-0.26886937
191	0xbebc1004	-0.3673097
192	0x3d56aedc	0.052412853
193	0x3d8d55af	0.069011085
194	0x3d7418a0	0.059593797
195	0xbd4599f9	-0.048242543
196	0x3e941eaf	0.2892966
197	0x3f0f6797	0.5601744
198	0xbe9316c0	-0.28728294
199	0x3dec60a1	0.11541868
200	0xbd997076	-0.07492153
201	0xbeb6dfc5	-0.35717598
202	0xbe4e2b95	-0.20133813
203	0xbed144eb	-0.40872893
204	0xbdf55956	-0.1197993
205	0xbb9a032b	-0.0047000847
206	0x3ee5af85	0.44860473
207	0x3c4b0ded	0.012393457
208	0x3de22d52	0.110438004
209	0x3d2155fa	0.039388634
210	0x3d2eda01	0.042688373
211	0xbdbdff5d	-0.09277222
212	0x3d8128f0	0.06306636
213	0x3d9993e2	0.074989095
214	0x3e33997a	0.17539015
215	0x3f0c0b26	0.5470451
216	0x3e35fa5f	0.1777129
217	0xbc59ad98	-0.013286017
218	0xbf91d25f	-1.1392325
219	0xbd7e106a	-0.062027372
220	0x3deb76b0	0.11497247
221	0x3e507a8c	0.20359248
222	0x3ee904cb	0.4551147
223	0x3e496da9	0.19670738
224	0xbd0dd250	-0.034624398
225	0x3e3d9736	0.18514714
226	0x3dbef6e3	0.09324434
227	0x3ddc2284	0.10748771
228	0x3d406d7f	0.046979424
229	0x3de3c03b	0.111206494
230	0xbe48517e	-0.19562337
231	0x3e9e6bec	0.30941713
232	0x3eaf8777	0.3428304
233	0x3de96ac3	0.11397316
234	0x3f2dff1d	0.67967397
235	0xbf2835d2	-0.65707123
236	0xbdc3791d	-0.09544585
237	0xbd422215	-0.047395784
238	0x3ed6dd95	0.4196593
239	0x3b52e89e	0.0032182108
240	0xbe7450cb	-0.23858945
241	0xbd9ac152	-0.07556404
242	0xbd5c49a9	-0.053781185
243	0x3d9a8daf	0.07546555
244	0x3dd6e92a	0.10493691
245	0x3d73b503	0.059498798
246	0x3e83789b	0.25677952
247	0x3efa1272	0.48842198
248	0x3b90f628	0.0044238754
249	0x3eac41fa	0.33644086
250	0xbee44d90	-0.44590425
251	0x3ebea73b	0.37236962
252	0x3dfdad75	0.123866
253	0x3e0a8620	0.13527727
254	0xbd45f8d9	-0.048333023
255	0x3cdbae3a	0.026816476

result.0.bias f4 [10]
0	0xbddfc1c6	-0.10925631
1	0x3d5f83e3	0.054569136
2	0x3e1fd5ba	0.15608874
3	0xbd47b257	-0.048754063
4	0x3b63f641	0.003478423
5	0x3d7dc122	0.061951764
6	0xbd8d6c0e	-0.069053754
7	0x3dba282b	0.09089693
8	0xbd06ef65	-0.03294315
9	0xbda9d1cf	-0.08291971

validity.0.weight f4 [1, 1024]
0	0x3e593017	0.21209751
1	0xbc1dddfa	-0.009635443
2	0x3cb80e76	0.022467833
3	0xbd07f76f	-0.033194955
4	0x3d916443	0.070992015
5	0xbc8bb996	-0.017056268
6	0xbb3f0b89	-0.0029151163
7	0xbb969545	-0.004595431
8	0x3d7e5744	0.06209494
9	0xbbab80d3	-0.005233863
10	0xbbe6deea	-0.0070456164
11	0x3c570d80	0.013125777
12	0xbcaeffb6	-0.021362167
13	0xbc6e532d	-0.014546198
14	0x3cb58473	0.022157883
15	0xbb3c77d2	-0.0028757942
16	0xbb4c9320	-0.0031215623
17	0x3c81c236	0.015839677
18	0x3b4811b6	0.0030528135
19	0x3b84ee1c	0.004056705
20	0xbb0b99e7	-0.002130145
21	0xbbf340d9	-0.007423502
22	0xbb5f62f2	-0.0034086076
23	0xbbcab55e	-0.0061861714
24	0xba716929	-0.00092090905
25	0x3bc0cf03	0.0058840527
26	0xba60d674	-0.0008576878
27	0xbbc1a9c4	-0.00591013
28	0xbbaea3c6	-0.005329582
29	0x3b41a984	0.0029550502
30	0x3b761a5d	0.0037552335
31	0xbb4f895a	-0.0031667561
32	0x3d3ecd08	0.04658225
33	0x3bc0fa20	0.005889192
34	0x3c4fd90c	0.012686025
35	0xbcf4d06e	-0.029884543
36	0x3d19ee2b	0.03758065
37	0xbbd03c3c	-0.0063548367
38	0x3b3e33d1	0.0029022584
39	0x3b05ddb5	0.0020426337
40	0x3c987422	0.018610064
41	0xbb0f6d13	-0.0021885082
42	0x3bb17bc1	0.005416364
43	0x3b972139	0.0046121147
44	0x3b47077f	0.0030369458
45	0xbb8af150	-0.0042401925
46	0x3bb3c9ee	0.0054867184
47	0xbc30a96d	-0.010782582
48	0xbd46b217	-0.048509683
49	0x3a8b0289	0.0010605614
50	0x3b88bbd5	0.004172782
51	0xbbd4b96f	-0.006491832
52	0x3c139f4d	0.009010148
53	0x3b845ff1	0.0040397574
54	0xba446280	-0.0007491484
55	0xbb1a736a	-0.0023567327
56	0x3b9789bd	0.004624574
57	0xba4f206e	-0.0007901256
58	0xbaa8bc17	-0.0012873438
59	0x3a54e1c4	0.00081208
60	0xba227f65	-0.0006198793
61	0x3b4c223e	0.003114834
62	0xbb926cfe	-0.0044685593
63	0xbbddcdd8	-0.0067689233
64	0xbd012ff6	-0.03153988
65	0xbb6df2e1	-0.0036308097
66	0xbb71987f	-0.0036864576
67	0x3c183870	0.0092907995
68	0x3c845d85	0.016157875
69	0x3bffdd0e	0.007808334
70	0x3ba4dd66	0.0050312756
71	0x3a23bb78	0.00062458916
72	0xbb5c5456	-0.0033619604
73	0xbb11926f	-0.0022212525
74	0xb9d912b5	-0.00041403403
75	0x3a255707	0.00063072186
76	0x3b888edf	0.004167422
77	0x3acb8419	0.0015527039
78	0xbb837b28	-0.004012484
79	0xbad8c8cb	-0.0016539333
80	0x3d0c8568	0.034306914
81	0x3be8c02c	0.007102987
82	0x3b82cee3	0.003991948
83	0xba79c14e	-0.0009527401
84	0x3d1ca3a4	0.038241997
85	0x3a930c3b	0.0011218855
86	0xbbec5078	-0.007211741
87	0xbacf57d9	-0.0015819027
88	0x3cc33d0f	0.023832826
89	0x3b33d9f7	0.002744315
90	0x3c1697e7	0.00919149
91	0x3c7a6078	0.015281789
92	0x3d180c30	0.037120998
93	0xbb047e7b	-0.002021699
94	0x3a03c35c	0.0005026364
95	0x3c1d4dd1	0.009601072
96	0xbd84bea6	-0.06481676
97	0x3ca1403f	0.019683955
98	0x3cc1f732	0.023677442
99	0x3d341bd6	0.04397186
100	0x3c974728	0.018466547
101	0xbc8fd693	-0.017558372
102	0xbc10b51f	-0.008832245
103	0x3aee0e6b	0.0018162256
104	0x3bbbda9d	0.005732848
105	0xbbafad9d	-0.0053612725
106	0x3bb0a10d	0.0053902925
107	0x3c3a1379	0.011357182
108	0x3d3e0474	0.046390966
109	0xbbf4d3cd	-0.0074715377
110	0x3b6e8441	0.0036394747
111	0x3c08fd82	0.008361222
112	0xbcc2d2dc	-0.023782186
113	0xbd19e405	-0.037570972
114	0xbca9d77d	-0.020732636
115	0xbd3ca625	-0.046056885
116	0xbc458486	-0.012055522
117	0xba5cda20	-0.0008424837
118	0xbc36ee2c	-0.011165183
119	0xbbaea23c	-0.0053293984
120	0x39dc77c2	0.00042050896
121	0xb865b0e8	-5.476261e-05
122	0xb928c08d	-0.00016093459
123	0xbae3f036	-0.0017390314
124	0x3bcd124d	0.006258285
125	0x3a309641	0.0006736257
126	0xbb4687b4	-0.0030293288
127	0x3aeebdfb	0.0018214578
128	0xbc13e2c4	-0.009026233
129	0xbb4d3e59	-0.003131768
130	0x3b863354	0.0040954743
131	0x3ba83258	0.0051329546
132	0x36fe39a1	7.576499e-06
133	0x39e00d0f	0.0004273434
134	0xbb3c2afd	-0.0028712146
135	0xbabb85dd	-0.0014306862
136	0x3c0bce93	0.008533138
137	0xbb152049	-0.002275484
138	0xbb8db5b9	-0.0043246415
139	0x3b73f1f0	0.0037223063
140	0xbb7a5f39	-0.003820373
141	0xba1ec757	-0.00060569256
142	0xba810a81	-0.0009845049
143	0xbb84dd2a	-0.004054685
144	0x3cf7b4c7	0.030237569
145	0x3b8fffca	0.004394506
146	0x3b8c9433	0.0042901277
147	0xba8f5420	-0.0010935105
148	0xbcf09520	-0.029367983
149	0x3b70c2a1	0.0036737102
150	0xbc0cd4b5	-0.008595635
151	0xbbdc882d	-0.0067301006
152	0xbc98c876	-0.018650275
153	0xbb25c520	-0.0025294498
154	0xbb8c6ebc	-0.0042856615
155	0x3ba17a54	0.0049279127
156	0xbcdd23a1	-0.026994528
157	0x3bddd3c1	0.006769628
158	0x3bcf5e59	0.006328386
159	0xbbd117cc	-0.0063810106
160	0x3b85a151	0.0040780683
161	0xbb9fd792	-0.004877993
162	0x3bb0ef4e	0.005399621
163	0xbacdbf30	-0.0015697237
164	0xba80ffe3	-0.0009841885
165	0x3b9532a0	0.004553154
166	0x3b94414e	0.0045243865
167	0xbc71cce3	-0.014758321
168	0x3b842243	0.0040324046
169	0xbaeb766a	-0.0017964367
170	0x3b0a30de	0.0021086256
171	0xbbbeca1e	-0.005822434
172	0x3c09c574	0.008408893
173	0x3b58ec45	0.0033099812
174	0xbb260791	-0.00253341
175	0x3ba477ae	0.0050191497
176	0xbd258de7	-0.04041853
177	0xbcb1bb55	-0.021695772
178	0xbca76c94	-0.020437516
179	0x3ba648d1	0.0050745984
180	0x3cf0ccf0	0.029394597
181	0xbb201a0e	-0.0024429592
182	0xbb14273d	-0.0022606396
183	0xbbdcad96	-0.0067345602
184	0xbc524da5	-0.012835895
185	0xbc8e0f37	-0.01734124
186	0xbb9d268e	-0.004795856
187	0x3b072954	0.0020623999
188	0xbd16ce61	-0.036817912
189	0xbcc3fd8b	-0.02392461
190	0xbd026dad	-0.031842876
191	0x3be10385	0.0068668746
192	0xbadbc937	-0.0016768341
193	0xbaa2d971	-0.0012424422
194	0x3bc2a91f	0.005940571
195	0xbd30fbda	-0.043208934
196	0xbb417827	-0.002952108
197	0x3b617e99	0.0034407733
198	0xbbc99209	-0.006151442
199	0x3b3c194b	0.00287016
200	0x3b920e36	0.0044572605
201	0x38f93041	0.00011882233
202	0x399274f2	0.0002793442
203	0x3bcdb0c9	0.006277178
204	0xbc9875c4	-0.018610843
205	0x3a4b243f	0.00077492365
206	0x3a14ce24	0.00056764693
207	0xbc0de32b	-0.008660118
208	0x3c612848	0.013742514
209	0xb80ab16b	-3.3066997e-05
210	0x3c0e7d05	0.008696799
211	0xbac8eff5	-0.0015330302
212	0xbc038ff5	-0.0080299275
213	0xbbeedaa7	-0.007289249
214	0x3a955518	0.0011393158
215	0x3c3997c7	0.01132769
216	0xbc4540e3	-0.012039396
217	0xbae3b119	-0.0017371505
218	0x3ba27b9d	0.0049585835
219	0x3bd7cee2	0.0065859416
220	0x3c28cf8b	0.010303388
221	0x3a64f4b7	0.0008733975
222	0xbb1e5124	-0.002415725
223	0x3b81d9ec	0.003962746
224	0xbdb2090b	-0.08693131
225	0x3c1974e8	0.0093662515
226	0x3c92fdf9	0.01794337
227	0x3d4d5ac4	0.05013539
228	0x3b8bd4c4	0.004267307
229	0x3b1ec27e	0.0024224813
230	0xbb8ba93a	-0.0042621167
231	0xbc0da462	-0.008645149
232	0xbb32a672	-0.0027259854
233	0x3b455926	0.003011295
234	0x3a94c3aa	0.0011349816
235	0x3af46c2d	0.0018647962
236	0xbba5e742	-0.0050629685
237	0x3bb21ebf	0.005435794
238	0xbb0bcbad	-0.0021331117
239	0x379225ed	1.7422217e-05
240	0xbd2a7d98	-0.04162368
241	0x3c5028e7	0.012705064
242	0x3c3af238	0.0114102885
243	0x3ab3dfa7	0.001372327
244	0x3bbe331b	0.005804432
245	0x3c08090e	0.00830294
246	0xb9e49dcc	-0.00043605117
247	0x3b462b8c	0.0030238358
248	0x393012db	0.00016791692
249	0xbae49048	-0.0017438019
250	0xbadb84f7	-0.0016748001
251	0xb9c601c2	-0.00037766813
252	0x3c8db50a	0.01729824
253	0x38ed54ee	0.0001131686
254	0xb638d2a1	-2.7540739e-06
255	0x380f2a91	3.41335e-05
