acgan_models/saved/discriminator_c(750).pth (torch_old, 143899 bytes, 17 tensors)

model.0.weight f4 [16, 3, 3, 3]
000000 dd 9c df 3e 9f 70 63 be 84 5b 3c be d3 19 bf be
       0.43674365 -0.2221093 -0.18394285 -0.3732439
000010 f6 e7 2e be ed 34 d8 3e 67 41 31 bd 2b 00 c7 3e
       -0.17080674 0.4222788 -0.043275263 0.38867316
000020 0d af 99 be 21 6b b6 3e 21 47 88 be d6 9e f6 bd
       -0.30016366 0.35628608 -0.26616767 -0.12042014
000030 92 f6 32 be 74 48 ae be 3b 7e ed 3e c4 38 5f be
       -0.17476872 -0.34039652 0.4638537 -0.21798998
000040 77 15 ea 3e 0f b4 1e be f8 b7 d0 3e 1f 3f 6f bd
       0.457195 -0.15498374 0.40765357 -0.058409806
000050 32 02 7b be 07 42 88 be 9e 7a b6 be 5e 10 99 3e
       -0.24512556 -0.26612875 -0.35640424 0.298953
000060 a5 57 b2 bd b4 3e a9 3e 75 d7 b6 bd 3c 7e 16 bd
       -0.08708123 0.3305565 -0.08927814 -0.03674148
000070 92 15 ab 3e 27 c4 8c bd 17 d7 10 3e 7d 71 93 3e
       0.33414894 -0.068733506 0.1414455 0.28797522
000080 60 d7 dc be 8f 7e 4a 3d 2b 6f f6 3d 39 c2 b1 be
       -0.43133068 0.049437102 0.12032922 -0.34718493
000090 bd b7 db bd 98 18 54 3e 4f c3 b9 be 3d 00 8a 3d
       -0.10728405 0.20712507 -0.3628182 0.06738327
0000a0 92 1d 8f 3e 13 a5 a2 be 96 54 4a 3d 96 eb a8 3e
       0.27952248 -0.31766567 0.049397074 0.32992238
0000b0 aa f3 99 be 63 7b 32 3e 22 74 1b 3e bf 50 a2 be
       -0.30068713 0.17429881 0.1518102 -0.3170223
0000c0 fd 38 ae bd f6 91 88 3e bc d9 ce be 81 0d 96 bd
       -0.085069634 0.2667386 -0.40400493 -0.073267944
0000d0 81 40 96 3e 4f f4 f3 bd e1 41 9a 3d c5 67 0c 3b
       0.29346088 -0.119118325 0.07532097 0.0021424156
0000e0 08 40 c1 be e5 cc 76 3e a6 9c a3 3e e9 e0 ce bc
       -0.37744164 0.24101599 0.3195545 -0.02525373
0000f0 a6 44 86 3e 4a 16 b2 3e 17 6b 5e be 11 07 85 3d
       0.2622425 0.3478263 -0.21720539 0.064954884
000100 f4 5c 8b 3d b0 8b 9a 3e 7f a2 17 3e 6a d4 70 3e
       0.06804839 0.30184698 0.14808081 0.2351853
000110 f0 d8 e0 3d 03 55 84 bd 58 2b 88 3e 52 0d 51 3e
       0.109788775 -0.06461527 0.2659557 0.20415238
000120 32 5f 6a bd a3 40 30 be 9b d7 f3 3d b2 52 e5 be
       -0.05721969 -0.17212157 0.11906358 -0.44789654
000130 67 cf d5 be c6 59 dd bc 54 ac e4 be c8 c5 b8 be
       -0.41759798 -0.027020346 -0.44662726 -0.36088395
000140 a7 15 81 3d 23 0f 8e 3d ee 2c df 3d df b6 ab 3d
       0.06302958 0.06936481 0.108972415 0.08384489
000150 6a 71 18 3e bc 73 9f 3e 7f ef cd 3e 48 1c 16 3e
       0.14887014 0.31142986 0.40221784 0.14659226
000160 d1 fe 9a 3e 0c 2f 57 3e 33 5a 04 bf dc 0c 9f be
       0.30272534 0.2101404 -0.51700133 -0.31064498
000170 ce 12 a9 be ae 30 a2 be 8f 33 f5 be a7 4f fb be
       -0.3302216 -0.31677765 -0.478909 -0.49084207
000180 92 ba c7 be 6b b5 35 be 6d 19 8e be 7f c1 c0 3e
       -0.3900953 -0.17744987 -0.27753773 0.37647626
000190 10 b2 90 3e 51 af 86 3e 0f b2 07 bd 30 64 50 3e
       0.2826085 0.2630563 -0.033128794 0.20350718
0001a0 50 84 cc 3d 0a 56 a9 bc ea 5c 85 3e 33 ef a0 3d
       0.09986174 -0.02067091 0.2604745 0.07858124
0001b0 cf 83 64 38 39 df 10 bf 50 ab 5c be 67 54 0d bc
       5.4482192e-05 -0.5659061 -0.21549726 -0.00862608
0001c0 6f 34 c7 3e c0 2e a1 3e de 57 da 3a 7f 19 13 3e
       0.3890719 0.3148098 0.0016658267 0.14365195
0001d0 af 34 13 be 73 5b 0c 3e 7f 53 84 be ae 16 58 3d
       -0.14375566 0.1370676 -0.25844952 0.052756004
0001e0 2b ab 44 3d 48 54 b8 3e 2d e0 82 3e 2e ec b5 be
       0.0480148 0.36001801 0.25561658 -0.35531753
0001f0 46 de 85 bd 5e e1 44 be 0d d4 15 3d 15 f2 c8 be
       -0.06536536 -0.19226596 0.03657918 -0.39247194
000200 dc a7 27 be b2 3a 1f 3e 98 6c f6 3e cf e9 2a 3d
       -0.16372627 0.15549734 0.48129725 0.041726884
000210 d1 9a 77 bc 2e ee b7 bd 51 ce 8a bd 87 3a 97 3d
       -0.015112595 -0.08980976 -0.06777633 0.0738421
000220 56 34 35 3d 91 9c a3 3d 77 fd c7 3e 2e 7d 0a be
       0.044239365 0.07988847 0.39060566 -0.13524315
000230 cb 78 8c 3e 7b 50 6b 3e ca 43 97 be e2 9e 73 3e
       0.27435908 0.2297992 -0.29543906 0.23791078
000240 7f 98 c3 be b0 39 c9 be 46 49 0f 3e 44 b7 66 be
       -0.38202283 -0.39301825 0.13992795 -0.22530848
000250 fb 89 00 bf d4 4b e8 3b 50 b3 8a 3d f1 83 0f bf
       -0.5021054 0.0070891175 0.067724824 -0.560607
000260 a7 9e 73 3c e3 d1 7f 3e 2a c5 96 3d 61 f9 2e 3e
       0.014869369 0.24982409 0.07361825 0.17087318
000270 73 39 78 3e 10 97 af be 4b b6 fa 3d a4 06 ae 3e
       0.24240665 -0.3429494 0.12241801 0.3398944
000280 a6 de cd be 64 bd 04 3e fc 5a 1e be b0 58 63 bd
       -0.4020893 0.12962872 -0.15464395 -0.0555045
000290 c9 b5 d9 be d6 32 a2 3e eb 4e 02 be ae f1 87 be
       -0.42521504 0.3167941 -0.12725417 -0.26551574
0002a0 fa cf 34 3e f0 72 f2 bd 38 e7 97 3e 3c 27 ba 3e
       0.17657462 -0.11838329 0.29668593 0.36358058
0002b0 fc 43 d3 3d 50 f0 89 be 09 a5 c9 3e 4c 7c 0f bf
       0.10315701 -0.26941156 0.39383724 -0.56049037
0002c0 ef d9 d6 be a4 7d d7 3e a1 4e 9f 3d 93 f7 18 3e
       -0.41963145 0.42088044 0.07778669 0.14938192
0002d0 f4 60 20 3e ed 06 24 3d 03 45 8d 3d 34 e4 16 3d
       0.15661985 0.040045667 0.068979286 0.036838725
0002e0 15 de e9 be 0e 98 01 be e4 64 0e be 0e 79 7a be
       -0.45677248 -0.1265566 -0.13905674 -0.24460241
0002f0 6d 4a ad 3e 5e 4c 64 3d 46 1e 03 3f 14 17 ef 3d
       0.33845845 0.055736892 0.5121807 0.11674324
000300 69 53 44 bd 29 69 30 be 29 4d 8c be b3 b1 9a 3b
       -0.04793111 -0.17227615 -0.2740262 0.0047208904
000310 85 95 b6 be 5e fc 16 be 7f aa 46 3e 8c 3d 47 3e
       -0.3566095 -0.14744708 0.19400977 0.19457072
000320 d6 2e 32 3e 84 28 c0 3d c7 d9 7f 3d 60 72 77 be
       0.17400679 0.09382728 0.062463548 -0.24164724
000330 4b 81 5a be d6 0d b7 be 5c cf 9f be be c0 7c 3d
       -0.21338384 -0.35752743 -0.3121289 0.06170725
000340 8e 0c ae 3d a3 89 0c 3e 82 22 09 3e ed d4 2a bd
       0.08498488 0.13724379 0.1339207 -0.041706968
000350 18 3d 84 bc 21 7f 25 3a 78 d7 5b be 8b 03 62 3e
       -0.016142413 0.0006313194 -0.21468914 0.22071664
000360 b8 d5 e6 bd 3b 7b 91 be 96 c2 20 be 42 34 a2 be
       -0.11271232 -0.2841433 -0.15699229 -0.31680495
000370 46 c9 b8 be 4a 85 64 be e4 a9 85 be 4f 4d 2d bd
       -0.3609106 -0.2231647 -0.2610618 -0.042310055
000380 21 a7 36 be 2f 6d 3a 3e 5b 64 17 bc e3 90 93 3e
       -0.17837192 0.18205713 -0.009240235 0.28821477
000390 4f 47 ad bc 06 f4 9b 3e 18 b8 28 3e 96 8e 49 be
       -0.021152167 0.30459613 0.16476476 -0.19683298
0003a0 84 e7 85 ba 8b d2 91 3d 86 c1 cd 3d e1 78 05 be
       -0.0010216092 0.07120236 0.10046677 -0.13034393
0003b0 08 d8 17 be f2 bc b8 3e 3a 0c 04 3f 0b d3 f8 bd
       -0.14828503 0.36081654 0.51581156 -0.12149628
0003c0 e1 41 ae 3e 37 af 3f 3e 0c 95 da 3d 1c 7d ec 3d
       0.34034637 0.18719183 0.1067296 0.115473
0003d0 e8 28 83 3e 31 aa db 3e bf 12 f6 bc f0 92 7d 3e
       0.25617146 0.42903283 -0.030038236 0.24763083
0003e0 1b 89 5d 3e b3 18 41 bd 48 ee 8e bc e4 95 90 bd
       0.21634333 -0.047142696 -0.017447606 -0.07059839
0003f0 2e e6 08 bf 48 df e3 bd 39 8e 76 be 36 c6 d5 be
       -0.53476226 -0.11126572 -0.24077691 -0.41752785

model.0.bias f4 [16]
000000 78 f2 0c be 09 48 26 be d2 78 e1 3c 74 58 b3 3d
       -0.1376437 -0.16238417 0.027523432 0.087571055
000010 07 17 c7 bd e1 1d 72 be 09 5f 3f 3e 1d b2 96 be
       -0.09721189 -0.2364421 0.18688597 -0.29432765
000020 21 ae b0 3d 62 0f ab 3d 94 fe c4 3d ae eb 56 3d
       0.086269625 0.083525434 0.096188694 0.052470855
000030 f4 26 26 be ee 11 f2 bd 10 18 8c be e2 08 46 bf
       -0.16225797 -0.11819826 -0.27362108 -0.77357304

model.3.weight f4 [32, 16, 3, 3]
000000 92 d2 4b bd bf 2f 4b be 80 25 1e bd 20 13 3b be
       -0.049761362 -0.19842432 -0.03860998 -0.18269014
000010 cc 51 e3 be 79 5a d2 bd 64 bb 5d be 09 cc 37 bf
       -0.44398344 -0.102711625 -0.21653515 -0.7179571
000020 cb 68 16 be 76 c6 5e be 48 ee b8 3c d3 4c cc bc
       -0.14688413 -0.21755394 0.022574559 -0.024938976
000030 0b d7 7f be 2f d2 44 be 15 09 56 3b 5e 5e 91 be
       -0.24984376 -0.19220804 0.0032659222 -0.2839231
000040 3e 89 85 be df ea df be 56 04 37 3e 4f 9c 87 be
       -0.2608127 -0.4373388 0.17872748 -0.26486441
000050 1e 70 8e be 87 c4 cd 3d 9f be 71 3c f0 09 24 3d
       -0.27819914 0.1004725 0.01475492 0.04004854
000060 5b 1f 34 3e dc 65 95 bd 27 a2 67 bc e2 55 9b 3e
       0.17590086 -0.07294819 -0.014137781 0.3033896
000070 b3 10 f0 3d 58 20 5b 3e 9b cd db be 2d 55 f1 3c
       0.11721935 0.21399057 -0.42930302 0.02945956
000080 4d a9 56 be 39 fc a1 bd ee e9 9b be 7e b0 85 be
       -0.2096302 -0.07909436 -0.30451912 -0.26111215
000090 d7 d9 3f be 33 4a a1 be 09 81 d1 bd 93 1b 94 3e
       -0.18735443 -0.31501922 -0.1022969 0.28927287
0000a0 99 5e 9a bd 9b 12 9d be c5 b3 88 3e e1 99 72 3e
       -0.07537574 -0.30678257 0.26699653 0.23691513
0000b0 cc cb 94 be 2b 67 5a be d3 e5 1e 3e 3a f6 49 3d
       -0.29061735 -0.21328418 0.15517358 0.049307086
0000c0 86 1b a9 be 82 e8 06 bf 84 d8 b8 be a2 56 df be
       -0.3302881 -0.5269853 -0.36102688 -0.43620783
0000d0 ed 49 b2 be 13 c6 19 be 8a e9 f4 bc 18 de bd bd
       -0.34822026 -0.15016966 -0.029896516 -0.09270877
0000e0 1a ef 91 bd 0f 41 33 bb 49 36 8f bc 76 bc 3d 3d
       -0.07125683 -0.002735201 -0.01748194 0.04632231
0000f0 9b 34 58 3d e5 2d f5 bc 29 59 1f 3e 90 ce 10 3e
       0.052784543 -0.02992911 0.15561356 0.14141297
000100 fd c4 4d 3d 34 ba ff bd ff a0 29 3e d7 b3 70 3d
       0.05023669 -0.12486687 0.16565321 0.05876526
000110 ae 25 4c bb 80 2a b0 bc d0 a8 7b bc b3 f9 e1 3c
       -0.0031150389 -0.02150464 -0.015360072 0.027584886
000120 fa 26 a1 3d 17 aa 0e bc 9c c4 ca bc c1 d1 57 be
       0.07868762 -0.008707545 -0.024751954 -0.21076109
000130 3c cb 38 3e 5d fa 72 3d 51 6c 04 bc 19 c6 98 3d
       0.18046278 0.059320796 -0.008082465 0.07459659
000140 11 7d 96 3c 47 16 14 3e c6 4c 84 3d 0c b2 5b 3e
       0.018370183 0.14461623 0.06459956 0.21454638
000150 09 99 88 bb 34 dd 2b be 37 51 e3 3d 4c 97 ff be
       -0.004168634 -0.16783601 0.11099475 -0.49920118
000160 94 46 66 be 2b 8b 3e 3d 74 ce db 3d 94 26 79 3d
       -0.22487861 0.04651944 0.10732737 0.060827807
000170 0e a2 22 bd fc 5b f1 bd cd 06 34 3e 88 44 d0 3d
       -0.03970533 -0.11785123 0.1758072 0.10169321
000180 10 97 1f be 72 53 b7 3d bb c9 93 bd 5c 77 e3 bd
       -0.1558497 0.08951463 -0.072162114 -0.1110675
000190 25 05 2d bd 41 df 87 bd d3 ba 9e bc ce 82 a1 be
       -0.042241234 -0.06634379 -0.019376194 -0.3154511
0001a0 e9 55 1c be 64 af 9f 3e 53 8f 49 bd 7d 75 4e be
       -0.15267147 0.311885 -0.04920895 -0.20162006
0001b0 ec 9d a3 3d 15 f8 f7 3d 55 c4 1a 3e b6 b3 98 be
       0.079891056 0.12107865 0.15113957 -0.2982461
0001c0 7a de 12 3e e6 63 0e 3e 52 d4 a4 be 19 b9 9d be
       0.1434268 0.13905296 -0.32193238 -0.3080528
0001d0 40 6b 94 be b2 5f c1 bd d8 58 a4 bd 2e c9 51 be
       -0.28988075 -0.094420806 -0.08024758 -0.204869
0001e0 eb 2c ac 3e f5 47 01 3e 89 d6 e0 bc 0f 85 93 b9
       0.3362802 0.12625106 -0.027446048 -0.0002813716
0001f0 17 4d 1d bc 4a 38 3f bd 28 08 c6 3d ba ae 72 3e
       -0.009600899 -0.04668454 0.096695244 0.23699465
000200 d8 32 da 3d d9 30 9d 3b 4b f5 fc 3d 0b b8 1f 3d
       0.10654229 0.004797083 0.123514734 0.038993876
000210 c7 10 a9 be a7 20 d9 be 0e 16 c7 be 5f fa 8a bd
       -0.33020613 -0.42407724 -0.38884014 -0.06786036
000220 8f 56 c8 3c 03 94 a1 be ee e7 88 bd 72 68 bd 3c
       0.024455337 -0.31558236 -0.06684862 0.023121092
000230 a0 1b 36 bd 65 38 2d 3e 2b 97 0e 3c 75 d5 09 3e
       -0.04445994 0.16916044 0.008703033 0.13460334
000240 c7 7f 39 3e c8 7d cf 3e 5a da 54 3e de 0f ab 3d
       0.1811515 0.4052565 0.2078642 0.08352636
000250 e8 0b db 3d 53 0f 91 3e 1e a0 1f be 0a d4 0f be
       0.1069563 0.28332004 -0.15588424 -0.1404573
000260 00 58 8d 3e 45 ce 43 3e 69 54 de 3c 83 3e ed 3d
       0.276062 0.19121654 0.02713986 0.11584189
000270 8b 62 b8 bd 63 53 04 3e 36 7e 18 3e 4a 50 50 bd
       -0.090031706 0.12922435 0.14891896 -0.05085782
000280 dd 94 12 be a1 b1 09 be a5 b3 24 be 4a 9b a0 bd
       -0.143146 -0.13446666 -0.16084154 -0.07842119
000290 9e 92 1b 3e 2d 30 be 3d 41 1f c7 bc f7 41 87 bb
       0.15192649 0.092865326 -0.024306895 -0.0041277367
0002a0 77 74 c0 3c 52 92 35 be 15 15 8d 3d c1 45 e0 3d
       0.023493035 -0.17731598 0.06888787 0.109508045
0002b0 e9 b0 50 3e aa 7b fa 3c 38 57 38 bd 05 10 de 3d
       0.20379986 0.030576546 -0.045005053 0.10842899
0002c0 6b d2 41 3c b1 56 f4 3c 8f 03 d2 3d c3 5a bd bc
       0.011829953 0.029826494 0.10254585 -0.023114568
0002d0 16 a0 4c bd 6c 43 5d 3d 19 ef a4 bb 9c 53 6d 3e
       -0.049957357 0.054019377 -0.0050333855 0.23176426
0002e0 fc b6 52 be fd c2 98 bc 86 42 44 3e a0 b8 3e bd
       -0.20577615 -0.018647665 0.19166002 -0.04656279
0002f0 a6 83 41 3d 98 1b c9 3c b9 e5 43 3e 88 dc ca 3e
       0.04724469 0.02454929 0.19130601 0.39621377
000300 fb 52 8a bd 98 11 f9 3c 07 4b f2 3d b3 03 f9 bc
       -0.067541085 0.030403897 0.118307166 -0.030397272
000310 41 42 7f 3e 79 0a 95 bd 23 21 3b bd 8e 75 95 3d
       0.24927618 -0.07277388 -0.0456859 0.072978124
000320 c5 a9 a1 ba b9 75 6b 3d b0 da 10 3d be 3b 82 bd
       -0.001233392 0.057485316 0.035364807 -0.06359051
000330 4c a1 28 3e e9 ec ec 3c 44 70 7c 3c e1 d9 ff 3d
       0.1646778 0.028921561 0.015407626 0.12492729
000340 a4 2b 85 3e 22 3b 1b be a4 a5 55 be f3 18 7d 3e
       0.26009858 -0.15159276 -0.20863968 0.24716549
000350 5a f0 3b 3e 0e 5c 49 be 12 25 2b 3d ea f6 2e 3d
       0.18353406 -0.19664022 0.0417834 0.042715944
000360 cb b0 d2 3d 72 21 6c be 97 25 cb bc 96 d6 85 3d
       0.10287627 -0.23059633 -0.024798198 0.0653507
000370 bb f6 80 bc b7 19 46 3e 6c 2d 03 be 5e 20 69 bd
       -0.01574265 0.19345747 -0.12810296 -0.056915633
000380 72 cd 15 3e 1d e7 9a 3d 75 f0 ce bd 7b 9d 70 bd
       0.14629152 0.075636126 -0.10104457 -0.058743935
000390 66 ac bb be 9e e9 d5 3c 8a b9 a7 bd 7b 9c cf be
       -0.36654967 0.026112374 -0.08189686 -0.40549073
0003a0 db 68 39 3c 49 ef 91 be c9 ab dd 3d f2 a9 e3 bb
       0.011316503 -0.28502873 0.10823781 -0.0069477493
0003b0 83 34 8e bc 76 40 74 be 17 b2 6b 3e 37 46 1d 3d
       -0.017359024 -0.23852715 0.23017155 0.03839704
0003c0 c6 8a 85 be 02 32 ae 3e d1 d7 ef 3c a6 1c bf bd
       -0.26082438 0.34022528 0.029277714 -0.09331636
0003d0 14 f8 f1 bd b8 b8 46 3e 91 a4 8f bc 80 d9 92 3d
       -0.11814895 0.19406402 -0.017534526 0.07170391
0003e0 14 26 18 3d 6c 56 01 3e 6d 91 f4 3c 19 f5 ff bd
       0.03714569 0.12630624 0.0298545 -0.124979205
0003f0 b5 22 54 bf 35 60 28 be eb a2 13 be e4 c3 b9 be
       -0.8286546 -0.1644295 -0.14417617 -0.36282265

model.3.bias f4 [32]
000000 d4 98 1d 3e 2a 74 3a 3e cf 12 04 be 91 7f c3 bd
       0.1539033 0.18208376 -0.128978 -0.09545816
000010 53 1c ac bd c7 da e8 bd 44 4b 5d be 2f 99 b9 3e
       -0.0840384 -0.113698535 -0.21610743 0.36249682
000020 5f 1b 35 be 73 63 4c bd 2f ea 25 3d 6b d6 67 3d
       -0.17686222 -0.04989953 0.040506538 0.05660097
000030 f6 b1 12 be 7a 88 de bd 22 7f d1 3e 82 40 c7 3e
       -0.14325699 -0.108658746 0.40917307 0.38916403
000040 e8 24 c9 bd bc 1e 0e be f2 98 34 be fc 84 26 3e
       -0.098214924 -0.13878912 -0.17636469 0.16261667
000050 b4 8a 1b be 23 52 b8 3e 0f 62 1d be f8 6a f4 bd
       -0.1518963 0.36000165 -0.15369438 -0.11934465
000060 53 79 eb 3d f1 dd 4e be 57 70 7e be ec b3 3a be
       0.1149775 -0.20201851 -0.24847542 -0.18232697
000070 16 1e a1 be 86 ea 14 be b3 1e 9c be 42 6f 82 be
       -0.31468266 -0.14542589 -0.30492172 -0.25475508

model.6.weight f4 [32]
000000 73 a9 57 3f cf 6a 63 3f f7 4e 79 3f a0 93 84 3f
       0.84242934 0.8883485 0.97386116 1.0357552
000010 c7 2a 60 3f 7b 3b 7c 3f 60 ca 79 3f 94 9b 47 3f
       0.87565273 0.9852826 0.97574425 0.7797177
000020 99 5e 9a 3f e0 81 54 3f 5b c1 58 3f 9e d4 71 3f
       1.2060119 0.83010674 0.8467004 0.94465053
000030 bf 60 9b 3f a5 c4 80 3f 84 d2 47 3f fc 6f 80 3f
       1.21389 1.0060011 0.78055596 1.0034175
000040 f9 db a6 3f 68 a7 5b 3f 21 8b 9e 3f 22 37 66 3f
       1.303588 0.85802317 1.2386209 0.89927876
000050 11 54 61 3f 6a 1a 50 3f eb 61 73 3f fe 45 7c 3f
       0.880189 0.81290305 0.95071286 0.985443
000060 94 c5 79 3f 02 37 92 3f 37 12 9a 3f 5d ad 5c 3f
       0.97567105 1.1423037 1.2036809 0.8620203
000070 76 76 6c 3f a3 73 63 3f 2e 30 98 3f 46 e8 87 3f
       0.9236826 0.8884832 1.1889703 1.0617759

model.6.bias f4 [32]
000000 87 72 d5 bd 02 9a 01 3e 79 92 36 bc ba 57 87 3d
       -0.10422235 0.12656406 -0.01114332 0.066085294
000010 18 be 24 3d bd 0a 4d 3e b2 a6 1b 3e 51 c5 ce 3d
       0.04022035 0.20023628 0.15200308 0.10096229
000020 c5 51 14 3e 3f 18 7f 3e 4c c5 38 3e 39 7f d2 bd
       0.14484318 0.24911593 0.18044013 -0.10278172
000030 98 4b 5b 3d 80 d6 72 3e d9 4f 69 be c0 01 3a 3c
       0.05353889 0.23714638 -0.22784366 0.011352956
000040 82 6c 32 3e c5 ac c2 bc 31 49 6e 3d dd 72 1d be
       0.17424205 -0.023764024 0.05817527 -0.15375848
000050 0a 93 65 be 7f c6 ca 3e ef 78 df 3c ef 44 bb 3d
       -0.22419372 0.39604566 0.027279345 0.091440074
000060 7c b5 4c bd ea cc ba 3d bf af a1 3e 78 25 3c 3b
       -0.049977764 0.091211155 0.31579396 0.0028708857
000070 ac b8 92 3c db 77 88 be eb a1 2a 3e 6b 50 7f 3d
       0.017910324 -0.26653942 0.1666333 0.062332552

model.6.running_mean f4 [32]
000000 4d 6e 0f 3e c1 d8 12 3f 4b a2 73 3d 2f 2a 1f 3e
       0.1400692 0.5736199 0.059480947 0.15543436
000010 aa 24 18 3e 02 fb af 3d 83 77 9f 3d d0 33 dd 3e
       0.14857736 0.08592798 0.07786467 0.43203592
000020 ae 12 34 3d d5 82 86 3c e9 5b 8d 3d 19 25 57 3e
       0.043963127 0.016419807 0.06902296 0.21010245
000030 1c 2e be 3d d3 45 18 3e bc 78 c6 3e 60 86 06 3d
       0.092861384 0.14870386 0.38763988 0.032842994
000040 18 a5 4a 3d d3 d5 91 3d d7 85 84 3d 65 3d 3a 3e
       0.049473852 0.07120862 0.064708404 0.18187483
000050 a4 af be bb 3c c7 c8 3e 7e 11 d4 3e b9 41 7f 3d
       -0.005819278 0.39214504 0.41419595 0.062318537
000060 ce c7 14 3e f4 83 2e 3d 8f 37 ca 3d ca 72 e7 3d
       0.14529344 0.04260631 0.09873878 0.11301191
000070 84 05 06 3d b7 58 82 3d 9a 1d 0b 3e 4f 34 bc 3d
       0.032720104 0.06364577 0.13585511 0.091896646

model.6.running_var f4 [32]
000000 62 38 9b 3e d6 38 ab 3f ee c6 25 3e 22 b0 b3 3e
       0.30316454 1.337672 0.16189167 0.35095316
000010 fe 94 70 3e 36 58 54 3e de ab 7e 3e b4 a7 5b 3f
       0.23494336 0.20736775 0.2487025 0.8580277
000020 d9 dd 3e 3e 69 80 45 3e ac 24 f2 3e 10 fc 98 3e
       0.18639316 0.19287266 0.47293603 0.29879808
000030 4a 1b 61 3e b9 06 d9 3e fe 84 98 3f 3a 47 80 3e
       0.21983066 0.4238794 1.1915586 0.25054342
000040 66 d7 22 3e 6e d5 ab 3e 1e 37 12 3e cd 7f 07 3f
       0.1590248 0.3356127 0.14278838 0.52929384
000050 c6 ba 0b 3e a4 cb 59 3f 54 56 60 3f 27 08 53 3e
       0.13645467 0.85076356 0.87631726 0.20608579
000060 2f 0f a7 3e d9 45 30 3e 39 47 5c 3e 4e 0c 8b 3e
       0.32628772 0.17214145 0.21511544 0.27157825
000070 ec e9 49 3e ad 95 88 3e fe 63 86 3e 8f cb 67 3e
       0.1971814 0.26676694 0.26248163 0.22636245

model.7.weight f4 [64, 32, 3, 3]
000000 8a 0a 6c be cb 61 0b 3e 97 13 5e 3e 4a 61 8f be
       -0.23050895 0.13611524 0.2168716 -0.28003913
000010 11 f1 cb bc 55 3e b2 3e bc a9 0f 3e b8 4d b1 bd
       -0.024895223 0.3481318 0.14029592 -0.08657402
000020 92 22 3f be e6 31 fc bd 6f ea 55 3e 85 53 b9 bc
       -0.18665531 -0.12314205 0.2089021 -0.022622833
000030 a7 b7 ae be 3c 4e 3e 3e f3 b7 46 3e 05 94 30 bf
       -0.3412449 0.18584532 0.19406109 -0.6897586
000040 77 77 09 3e f6 5d c6 3e 72 82 15 be 34 4a a1 bd
       0.13424478 0.38743562 -0.14600542 -0.07875481
000050 6b 65 00 bd b1 35 b6 bd c0 53 b5 bb 4f f9 07 3c
       -0.03134672 -0.088969596 -0.0055336654 0.008299186
000060 b7 59 63 3e d6 0d 0f be ad 97 d4 be 96 1b 38 bc
       0.22202192 -0.13970122 -0.4152197 -0.011237046
000070 2f 18 81 bd 81 c6 61 bd 2a b2 ac 3d 7b 4f 4b bd
       -0.06303441 -0.05512095 0.084324196 -0.049636345
000080 d9 83 99 3d ff f7 d3 bc 62 82 dc bd 8f b5 3d be
       0.07495851 -0.02587509 -0.10767056 -0.1852629
000090 f6 c6 72 bd d4 38 6d 3c 53 05 e8 3d 39 fd c6 be
       -0.059271775 0.014478881 0.113291405 -0.3886507
0000a0 9d c2 82 3e e2 19 94 3e b8 3f a6 be 79 6d 57 3e
       0.25539103 0.28925997 -0.3247049 0.21037854
0000b0 43 41 e5 3d 11 89 86 3b 3b b8 de bd 42 3f 2d bc
       0.11194088 0.004105695 -0.10874983 -0.010574164
0000c0 b9 be 03 3d fb c3 bf be 1f ea ca bd 9b 90 4e be
       0.03216431 -0.3745421 -0.09907936 -0.2017235
0000d0 ce 9d c4 bd d1 a9 27 be 6f 8e 2c be e5 94 33 3e
       -0.09600411 -0.16373374 -0.16851209 0.17537268
0000e0 31 af 8e b9 9d 33 74 be d1 35 36 3d 49 4d d1 bc
       -0.00027214878 -0.23847814 0.044484917 -0.025549548
0000f0 dc ac 4a bc 63 ca 1f be 3b 48 55 bd ac a9 98 3d
       -0.012370314 -0.15604548 -0.052070837 0.07454237
000100 a9 73 03 bc e3 a2 05 be 14 51 fa bd 0e 4a 70 3e
       -0.008023181 -0.13050418 -0.12222496 0.2346575
000110 cc 48 97 3c 58 3d ac be 5f 8e 91 3d 39 76 6f 3e
       0.01846733 -0.33640552 0.07107233 0.23384942
000120 96 d3 7a bd f7 4c eb bd 3b 2e 50 bd a7 0f 1c 3e
       -0.06123694 -0.11489289 -0.05082534 0.15240346
000130 7c cd 6f 3d 3e c8 48 bd 76 00 fe 3d d2 9e dc 3d
       0.058545575 -0.04901909 0.12402432 0.1077248
000140 49 0a 11 3d f7 3b 14 be 2f 55 15 bd 40 cf bb 3d
       0.0354102 -0.14476 -0.03645819 0.09170389
000150 48 bf 26 3e 5e 0b 10 be bb a8 9c bd 86 00 b2 3e
       0.16283906 -0.14066836 -0.0764937 0.34766024
000160 b0 0e 6e bd 4f a8 eb be 24 b7 f9 3d 4a 82 90 3d
       -0.058119476 -0.46026847 0.121931344 0.07056101
000170 71 43 24 be 0b 5b 07 be c7 a4 be bc b8 44 1e bd
       -0.16041352 -0.13218324 -0.023271931 -0.038639754
000180 2b b5 79 be 5c f5 7a 3d 07 80 b3 3e 09 59 12 be
       -0.24385516 0.06126915 0.35058615 -0.14291777
000190 cf df 3a 3d 28 96 b0 3d f4 49 b9 bc a9 a1 2b be
       0.045623597 0.0862239 -0.022618271 -0.16760887
0001a0 d7 c0 f9 3b a5 38 fc 3e bb 5c 31 be 32 46 a7 be
       0.0076218653 0.49261966 -0.1732053 -0.32670742
0001b0 bf 17 cc bd 6c 17 84 bd df 14 07 3e 7c 46 80 be
       -0.09965467 -0.0644978 0.13191555 -0.25053775
0001c0 65 43 04 be cd d4 c1 bd ec 2d 91 bb 94 a3 1b 3e
       -0.12916334 -0.09464417 -0.004430523 0.15199119
0001d0 b2 0f 17 be c4 94 54 3c b8 b2 d6 3a e1 fe b2 3d
       -0.14752081 0.012974922 0.0016380167 0.087400205
0001e0 07 b5 1a 3e 3c 77 18 be b5 e0 f1 bd ba 04 81 3e
       0.15108119 -0.14889234 -0.118104376 0.2519892
0001f0 6e f6 57 bd 6f ae 2d be 5c 8c 8b 3c d1 87 50 bd
       -0.052725248 -0.16961072 0.017034702 -0.050910775
000200 2f 32 11 ba d1 37 61 be 88 f5 24 3e 88 97 be bd
       -0.0005538789 -0.21993949 0.16109288 -0.09306246
000210 e3 b1 fe be 38 1d 80 3e ca 1a af 3e 51 84 d1 bd
       -0.49745092 0.25022292 0.34200126 -0.102303155
000220 cb d7 20 bd 2b 00 4a 3e e3 8f 8e be 51 94 2d 3e
       -0.039268296 0.19726627 -0.27844152 0.1695111
000230 21 72 4a 3d 5d ca 81 3d 81 66 96 bc 63 c4 a9 bc
       0.049425248 0.06337426 -0.018359425 -0.020723527
000240 fd b0 c9 bc cf 03 d3 bd f2 30 4c 3d 5a 61 4a 3d
       -0.024620527 -0.10303461 0.049851365 0.049409248
000250 a6 d7 28 bd f5 bb 5d be 90 9f 96 bb cd db 49 be
       -0.041221283 -0.21653731 -0.004596658 -0.19712754
000260 d3 3b 9b be 8f 8d b7 bd e5 95 57 3d 86 32 46 3e
       -0.3031908 -0.08962547 0.052633185 0.1935521
000270 fe 2e 3d bd 96 fa cf bd 65 d9 a6 3e b9 97 60 be
       -0.046187393 -0.10155217 0.32587734 -0.21932878
000280 3e 00 de 3d 0f f4 04 bf 4c 14 48 be e3 aa 26 3e
       0.1083989 -0.51934904 -0.19538993 0.16276126
000290 55 90 17 3e aa 12 68 be c4 0e c3 3d 48 a5 7c 3e
       0.14801152 -0.2266337 0.09524301 0.24672425
0002a0 c9 85 67 3e 67 82 a2 3d ec 67 bf 3c 27 f9 f4 bd
       0.22609629 0.079350285 0.023364983 -0.119615845
0002b0 f2 e0 1e 3e 0c 16 ef bc c3 7e 20 be b4 e3 af 3d
       0.15515497 -0.029185317 -0.15673356 0.08588353
0002c0 fd 17 d5 bd 89 3d c6 bd 23 17 2b 3e b9 0d ac 38
       -0.10404966 -0.09679706 0.16708045 8.204155e-05
0002d0 65 bf 2f be 91 75 f4 bd 94 5a e6 3d 49 83 96 3d
       -0.17162855 -0.119364865 0.11247745 0.073492594
0002e0 ab 4c c2 3d cf 9b 98 bd 83 55 4e be 6a 03 aa bd
       0.094872795 -0.07451593 -0.20149808 -0.083014324
0002f0 01 04 4e be 23 54 30 bd f5 be 4b bd 79 14 a2 3c
       -0.20118715 -0.04304899 -0.049742658 0.019785153
000300 ed cb 8d 3d 45 f8 29 bd bd ff b3 bd ef f9 91 3e
       0.069236614 -0.041496534 -0.087890126 0.28510997
000310 e8 d5 d3 3d 01 ca c0 be b8 90 b3 3d c1 2d 97 bd
       0.10343534 -0.37654117 0.08767837 -0.07381774
000320 47 ea a8 bd 5a b0 e5 3d e4 29 51 bd f4 be 31 be
       -0.0824781 0.11215277 -0.05106534 -0.17357999
000330 29 bc 99 3e 27 12 f8 3d 2e 21 b3 be 34 b5 c9 3c
       0.30026367 0.12112837 -0.34986252 0.024622537
000340 12 25 45 bd 7b fa 98 3c 53 b0 43 be 96 33 e1 3c
       -0.048131056 0.018674126 -0.19110231 0.027490418
000350 32 c5 94 3d 9f 5a 09 bd 93 84 92 bd d1 b3 b5 3b
       0.072641745 -0.03353369 -0.07154193 0.0055451174
000360 d4 06 f9 bd ac 88 1d 3d 42 fc c5 3d cb 5a 9c be
       -0.121595055 0.03846042 0.09667255 -0.3053802
000370 06 79 76 bd 36 c1 db 3e 3f 02 ad be 9f 49 04 be
       -0.06017401 0.42920846 -0.33790776 -0.12918709
000380 86 b4 84 3e 76 7d cb bd e9 a8 9c bc d4 79 c7 3d
       0.25918978 -0.09936039 -0.019123511 0.09740034
000390 84 9a ac 3c e1 03 5a bc e9 96 d6 3d b2 f6 20 3e
       0.021069773 -0.013306589 0.104780026 0.15719107
0003a0 5a e7 a9 3d c8 7f d2 bc 71 71 01 be 6e d3 6c 3d
       0.0829608 -0.025695696 -0.1264093 0.057818823
0003b0 22 bf 08 3e 0c 2d 91 bd 47 60 99 bd 0c a0 2e 3e
       0.13354161 -0.0708867 -0.074890666 0.1705324
0003c0 d1 2e be 3d c3 28 f3 3d 2f 1e 0b be 18 ca 95 3d
       0.09286273 0.11873009 -0.13585733 0.07313937
0003d0 b8 ae 8c ba 9f 54 7d 3d 54 2f 85 3d ca 6a d8 bd
       -0.0010733223 0.06184828 0.06503168 -0.105672434
0003e0 1a a8 01 3e a1 e9 4e 3d df a6 bf bd 9f 2d e5 bd
       0.12661782 0.050515775 -0.09358 -0.11190342
0003f0 88 9d 66 be bf ff 91 3d b7 9b f6 3c d1 b4 bc bd
       -0.22521031 0.07128858 0.030103547 -0.092141755

model.7.bias f4 [64]
000000 3c 40 87 be 00 c0 bd 3e 06 9b 8e be 62 51 8e be
       -0.26416194 0.37060547 -0.27852648 -0.27796465
000010 19 35 c9 3e 8d 4a 9e bd 7e a5 08 bf f0 c9 e4 be
       0.39298323 -0.07729063 -0.5337752 -0.44685316
000020 78 43 c5 bd bf 58 f0 bd 5b b7 8e be 1f 69 86 bd
       -0.09632009 -0.11735677 -0.27874264 -0.06563019
000030 0c 8e 06 bd 54 c4 8f 3e 8c 09 b1 bd 13 ae 4d be
       -0.03285031 0.28079474 -0.08644399 -0.20085935
000040 5c 86 a3 be a3 b5 78 3e ba e7 9c be 8d af 61 be
       -0.31938446 0.24288039 -0.30645543 -0.22039624
000050 16 1f e8 bd b0 1d 9b bd e5 29 2c be 6b c1 af be
       -0.11334054 -0.07574022 -0.16812856 -0.34327254
000060 47 3c 20 bf a9 8a 98 3e f9 c8 8e be 55 b7 43 be
       -0.62591976 0.2979329 -0.27887705 -0.19112904
000070 71 fa d1 3c 71 5c 0f 3e ed 95 9f be f8 b3 a7 3e
       0.025632115 0.14000107 -0.31169072 0.32754493
000080 41 1e 42 be 2e d2 41 be 8f 26 bf be 9c bf 8e be
       -0.18956853 -0.18927833 -0.37334105 -0.2788056
000090 02 76 ec be 97 5c 16 3f 90 a4 a9 be 27 3e 8b be
       -0.46183783 0.5873503 -0.33133364 -0.27195856
0000a0 c7 b6 29 be c9 55 e7 bc f7 49 12 bf 50 3a 05 bf
       -0.1657363 -0.028239148 -0.5714411 -0.520421
0000b0 8c 11 07 bf b1 79 25 bf 5b c9 7a be c1 29 c2 bd
       -0.5276115 -0.6463881 -0.24490874 -0.0948062
0000c0 31 49 d5 be 4a e8 cc 3e e8 e8 d5 be b7 1b a0 be
       -0.41657403 0.40020972 -0.41779256 -0.31271145
0000d0 9a 8d 53 be 12 0d 6c be 1c 0e a9 be b6 4e 4a bd
       -0.20659485 -0.23051861 -0.33018577 -0.04939147
0000e0 1c 50 79 3c 26 e9 f0 3d 01 41 ce bd a9 4a 8f be
       0.0152168535 0.117632195 -0.10070992 -0.2798665
0000f0 0f 1f b2 bd e1 f2 d6 be a5 d3 9d be b4 5d 8f be
       -0.0869733 -0.41982177 -0.30825534 -0.28001177

model.10.weight f4 [64]
000000 96 11 97 3f fe 37 9b 3f d3 8c 8d 3f b4 76 a7 3f
       1.1802242 1.2126462 1.1058601 1.30831
000010 90 d8 a8 3f e6 39 7d 3f 12 9f 8e 3f 2b 12 95 3f
       1.319109 0.9891647 1.1142294 1.164617
000020 21 12 7a 3f e9 d3 88 3f b0 dc ac 3f 5f e5 a7 3f
       0.9768391 1.068967 1.3504848 1.3116874
000030 2b c1 96 3f d9 ac 9d 3f d0 53 8c 3f 98 be 59 3f
       1.17777 1.2318374 1.0963078 0.8505645
000040 6a 42 72 3f 1d bc 8c 3f 2f 4a a8 3f 81 36 8f 3f
       0.9463259 1.0994908 1.3147639 1.1188508
000050 61 9b 89 3f 38 83 7c 3f d7 a4 8b 3f 9f af a2 3f
       1.0750543 0.98637724 1.090968 1.2709845
000060 1b e6 9f 3f df f5 64 3f 41 d2 94 3f f3 d1 c7 3f
       1.2492098 0.8943767 1.1626664 1.5610946
000070 15 17 9e 3f 5b 03 92 3f 52 8d 84 3f 01 47 8e 3f
       1.2350794 1.1407274 1.0355628 1.1115419
000080 d2 5b 70 3f 50 11 a7 3f 5d 69 9e 3f d5 ad 8d 3f
       0.93890107 1.3052158 1.2375904 1.1068674
000090 72 6e 90 3f d2 89 83 3f ff 0e 80 bf 51 d4 96 3f
       1.1283705 1.0276434 -1.0004576 1.1783544
0000a0 3c cb ac 3f c3 c0 6b 3f 91 11 86 3f 18 6b 99 3f
       1.3499522 0.92091006 1.0474111 1.1985807
0000b0 d3 18 9e 3f 91 64 73 3f a8 26 90 3f 7c ba 87 3f
       1.2351326 0.9507533 1.1261797 1.0603786
0000c0 d8 25 98 3f 98 ea 9f 3f 89 da a6 3f 02 14 bb 3f
       1.1886549 1.2493467 1.3035442 1.4615481
0000d0 6e 26 ba 3f 4f 87 b0 3f a4 c1 a8 3f 8a c7 a0 3f
       1.4542978 1.3791293 1.3184094 1.2560894
0000e0 c7 45 96 3f e2 0c 98 3f 7a 0b a2 3f 9a 33 94 3f
       1.1740044 1.1878932 1.2659752 1.1578248
0000f0 a1 bd b9 3f ce f9 93 3f ce 1c 97 3f c1 fc 95 3f
       1.4510995 1.1560609 1.1805665 1.1717759

model.10.bias f4 [64]
000000 df a2 21 3d 21 1b c4 3d 68 19 95 3c 5f 09 74 3d
       0.039461967 0.09575487 0.018200591 0.05957925
000010 36 79 43 ba f4 b0 75 3c d1 a8 82 bd af a7 94 bd
       -0.00074567215 0.014995802 -0.063798554 -0.072585456
000020 d2 df c6 bd a5 ca 09 3e 3e 84 41 3d 62 88 31 3e
       -0.09710659 0.13456209 0.047245257 0.17337182
000030 c2 b0 5a 3d db a2 4a bd 42 bd a4 bd ae 69 d8 3c
       0.053391226 -0.049471717 -0.080439106 0.02641758
000040 34 ca 2f bd cb 91 f1 bd 00 06 fa 3d 9a cb d0 bc
       -0.042917445 -0.11795386 0.12208176 -0.02548771
000050 68 92 db 39 fa 3c 0a 3d e2 d4 e4 3c ef ec 89 bd
       0.00041880016 0.033749558 0.027933542 -0.067346446
000060 b4 c9 0a be e0 51 10 3e 36 fc 32 3e c3 e1 d7 3d
       -0.13553506 0.14093733 0.17479023 0.105411075
000070 4d 1b 05 3e b1 bb 87 bc 1f 59 fd bb 6a b2 f9 3d
       0.12998696 -0.01656899 -0.0077315713 0.12192233
000080 10 02 cd 3d 86 9d 50 3e c7 73 e2 3c 45 35 e8 3d
       0.10010159 0.2037259 0.027643098 0.11338285
000090 e9 3a 28 bd 8b df 0b 3d f3 cc 2d 3d 47 9d 8b bd
       -0.041071806 0.034148734 0.042431783 -0.06817108
0000a0 be 23 9b bc 93 b8 37 3e 27 20 81 3c e3 6d af 3c
       -0.018937942 0.17941503 0.015762402 0.021414703
0000b0 44 6a c4 3d ae fe 9f 3d 0a cb 76 3e 30 3b 4b 3e
       0.09590581 0.07812248 0.24100891 0.19846797
0000c0 8c b4 05 3d 81 3b b3 3d 06 8c 07 3d 5f 1e ff 3d
       0.032642886 0.08751584 0.03309252 0.12456965
0000d0 c1 5d c6 3d 38 16 6d 3e cc 35 29 3e d6 a7 7f 3d
       0.09685851 0.23153007 0.16524428 0.06241592
0000e0 2e 75 dd 3d 5e 07 d4 3d 78 71 26 3d f5 c8 71 bd
       0.10813366 0.10352968 0.040635556 -0.05902954
0000f0 f6 f3 ba 3d a8 2a 99 3c 59 7b 29 3d 99 5a 80 3d
       0.09128563 0.018697098 0.0413774 0.0626728

model.10.running_mean f4 [64]
000000 c1 cb e1 3d 9d c7 94 3f b0 d1 1e 3e 56 0e 85 3e
       0.11025191 1.1623417 0.15509677 0.259875
000010 26 9b 81 3d 6a 6c b1 3d c5 fe 25 3e bb 60 fe 3c
       0.0632842 0.086632565 0.16210468 0.031051984
000020 c2 91 b7 bd da 9e f3 3d 2d 61 ef 3c 7e b3 0e 3e
       -0.08963348 0.11895533 0.029221142 0.13935658
000030 37 8c b2 3d ef 08 d3 3d 0b 88 9c bd ca d1 51 3e
       0.0871815 0.10304438 -0.07643136 0.20490184
000040 3d 91 54 bd c8 c0 55 bd c8 4f 02 3e 2c 93 11 3e
       -0.051896323 -0.052185804 0.12725747 0.14216298
000050 55 3b 8b 3e 5a 96 6f 3e 6f 42 63 3e 86 1d 59 3d
       0.27193704 0.23397198 0.22193311 0.05300667
000060 af ea a1 bb 54 90 55 3e 32 4e d5 3e 11 33 c5 3d
       -0.0049413065 0.20855838 0.4166122 0.09628881
000070 3a a5 38 3e f2 c4 8c 3d a7 54 89 3d 51 7f 85 3e
       0.18031779 0.06873502 0.06705599 0.26073697
000080 b0 f0 80 3d 7b f0 54 3e e0 fd 97 3e 23 ba f1 3d
       0.062959075 0.20794861 0.2968588 0.11803081
000090 ca 1b c4 bc 89 ad 0f 3f b5 a7 8b 3d f6 15 b4 3d
       -0.023939032 0.5612417 0.06819097 0.08793251
0000a0 11 82 ee 3d 3d 7b 08 3e 75 d5 06 3e 37 96 c9 3d
       0.11645902 0.13328262 0.13167365 0.09843104
0000b0 2d 2a 07 3e 6b bd be 3d c5 e0 87 3d b7 99 1a 3f
       0.13199683 0.09313472 0.06634668 0.603908
0000c0 8a d0 b4 bd 20 61 06 3f 41 ba 88 3d 59 77 3c 3d
       -0.08828838 0.5249195 0.0667615 0.046012256
0000d0 0f 02 8d 3e fc 05 3e 3e ec dc c5 3c aa 95 80 3c
       0.27540633 0.1855697 0.024153195 0.015696365
0000e0 15 15 4b 3d 46 f8 60 3e 36 e4 7e 3d 68 c6 c5 bd
       0.049580652 0.21969709 0.062229358 -0.096569836
0000f0 19 01 16 3e ee d2 00 3e df 91 f4 3d a3 be 00 3d
       0.14648856 0.12580463 0.11941885 0.031431805

model.10.running_var f4 [64]
000000 0c 37 55 3f 5f 0f f0 3f 3e 28 7a 3f 38 70 bc 3f
       0.8328712 1.8754691 0.97717655 1.4721746
000010 d5 42 17 3f 98 36 55 3f d3 0a 9d 3f 30 40 fe 3e
       0.5908635 0.8328643 1.2268928 0.49658346
000020 a8 5b 08 3f 04 f9 4c 3f ac d9 2f 3f 2a 09 35 3f
       0.53264856 0.8006747 0.68691516 0.7071711
000030 b5 8b 1c 3f 45 9a 2e 3f 95 69 20 3f b3 c8 aa 3f
       0.61150676 0.68204147 0.62661105 1.3342499
000040 3a 98 0f 3f 1d a0 0f 3f 59 68 86 3f 1e f6 3e 3f
       0.56091654 0.5610369 1.0500594 0.74594295
000050 ec da 6c 3f b6 10 6c 3f a5 b0 74 3f 6a 1b 1b 3f
       0.9252155 0.92213 0.9558204 0.60588706
000060 db f8 1b 3f d2 42 90 3f 52 ad 93 3f af 35 3c 3f
       0.609266 1.1270392 1.1537268 0.73519415
000070 1e 11 67 3f 73 e2 07 3f b0 2f 2a 3f 3b f6 57 3f
       0.90260494 0.5307991 0.66479015 0.8436009
000080 01 52 86 3f c9 a7 a7 3f f5 cc 6c 3f 5e b0 2b 3f
       1.0493776 1.3098079 0.9250024 0.6706599
000090 e0 b6 fa 3e bb 4f 95 3f fe a2 6b 3f 74 6b 6f 3f
       0.48967648 1.1664957 0.9204558 0.93523335
0000a0 ac d9 13 3f ff 85 5f 3f 00 cc 3d 3f a7 3d 86 3f
       0.57754016 0.87313837 0.74139404 1.0487565
0000b0 bf 51 45 3f b1 2f 56 3f 6d 1d 3b 3f e3 76 e0 3f
       0.7707786 0.8366652 0.73091775 1.7536281
0000c0 68 bb e8 3e 27 5a ad 3f 02 f5 08 3f 70 fd 1b 3f
       0.4545548 1.3543137 0.5349885 0.6093359
0000d0 09 90 9d 3f 30 71 1d 3f 2d d7 28 3f 36 ed 31 3f
       1.2309581 0.61500835 0.6595333 0.6950258
0000e0 6b e4 ec 3e ae a4 5b 3f 64 86 01 3f 6c 23 1c 3f
       0.4626802 0.85798156 0.5059569 0.6099155
0000f0 b0 15 30 3f d8 bb 16 3f 9b a8 1f 3f ce d9 ee 3e
       0.6878309 0.58880377 0.62366647 0.46650547

result.0.weight f4 [10, 1024]
000000 9b 5f 59 bd d1 e0 48 bf cd 9d 6e bf 1b e8 81 bf
       -0.053069692 -0.7846804 -0.93209535 -1.0148958
000010 ac b6 19 bd 64 b2 87 3e 32 76 fd 3c c9 f5 17 3e
       -0.037527725 0.2650329 0.030940149 0.14839853
000020 12 45 33 3e d9 22 73 bd d8 79 96 be 8a 29 a6 be
       0.17506817 -0.059359405 -0.29389834 -0.32453567
000030 28 66 d0 3e 19 3d 86 bf e5 d8 c3 be 08 3c 8b bb
       0.4070294 -1.0487396 -0.38251415 -0.0042490996
000040 d5 d5 87 be 92 e9 e3 bc 50 f5 9c 3c e1 0e 66 3e
       -0.26530328 -0.027821336 0.019159943 0.22466613
000050 2f 3a 1a bf 24 c0 ca bd 80 f6 79 3e b6 ec c9 3e
       -0.6024503 -0.09899929 0.24410439 0.3943841
000060 5d 0b f8 be 7a c8 cf 3d 86 b0 43 3e 03 24 b1 3e
       -0.4844617 0.1014566 0.19110307 0.34597787
000070 95 2f 04 be be 86 a7 3e 05 12 21 3e c5 bb 1a bf
       -0.12908776 0.32719988 0.1572953 -0.60442764
000080 2a e1 bb be 2d 7d 74 3e 40 ea 5a be 3c 24 aa be
       -0.36695224 0.23875876 -0.21378422 -0.3323077
000090 6d 7a ca bc a8 4e 38 3e 24 c3 41 3d 5c 17 5e bf
       -0.02471658 0.17998755 0.04730524 -0.86754394
0000a0 98 04 23 bd b9 50 d6 bd e3 1f 6d 3e d1 4f ad be
       -0.039799303 -0.104646154 0.23156695 -0.33849958
0000b0 53 80 b5 be 0c 30 33 3d 0a 3f 37 3e d9 2b 15 be
       -0.35449466 0.043746993 0.17895141 -0.14567508
0000c0 09 d1 05 be b0 1a 1e bf d2 d2 1a bf e4 35 09 bf
       -0.13068022 -0.6175947 -0.60477936 -0.53597856
0000d0 39 50 82 3d d3 54 4f 3e b7 3b 48 be 2e 08 89 3c
       0.063629575 0.20247202 -0.1955403 0.016727533
0000e0 b0 3d ce 3d 5a 4f a8 3e fe 5a d9 bd 5f f5 1f 3e
       0.1007036 0.3287304 -0.106130585 0.15620945
0000f0 7b 25 9a 3e 69 35 4d bf fc aa 98 be 19 b5 18 bf
       0.3010672 -0.8015962 -0.2981795 -0.59651333
000100 e0 33 6b bb 62 df 48 be 9c a9 66 3e 26 23 6d 3e
       -0.0035889074 -0.19616464 0.22525638 0.2315794
000110 87 60 98 3e 8f ca 8d 3e 24 f2 c9 3d 46 69 23 be
       0.29761145 0.27693602 0.09860638 -0.15958127
000120 98 04 7a bc bd db 8e be f4 99 dd be cd c4 e1 be
       -0.015259884 -0.27902022 -0.4328152 -0.4409546
000130 19 c3 f2 3e 31 92 4f 3d 83 2b 97 3d 62 88 a6 bd
       0.47414473 0.05067653 0.07381346 -0.08131482
000140 ae 0a ae be 2d 46 03 be 3a 53 db 3d 0e 17 06 be
       -0.33992523 -0.12819739 0.107092336 -0.13094732
000150 2f c3 c2 be c2 47 28 3e ec fd 44 3e 65 09 d3 be
       -0.38039538 0.16433623 0.19237489 -0.41218105
000160 34 5c 0a 3e 25 70 5b be 03 7d cb be 14 eb 71 bd
       0.13511735 -0.21429498 -0.39743814 -0.05906208
000170 e8 5d 04 bd 3f 9d 39 3e a8 12 4f 3e 9d 98 4d 3b
       -0.03231612 0.18126391 0.2022196 0.0031371482
000180 c9 a4 fb 3d 60 7a 59 be 65 59 86 bd bb 3b 1a 3b
       0.1228729 -0.21238089 -0.065600194 0.0023534137
000190 c3 dc 0f be ef 63 0a be b4 6e fe 3d 61 f5 84 be
       -0.14049058 -0.13514684 0.12423459 -0.2596846
0001a0 cb d2 52 be dd f1 69 3e 36 8f 20 3f 0c e8 01 3e
       -0.20588224 0.2284617 0.6271852 0.12686175
0001b0 d1 41 cb be f6 bb a4 bd f8 98 b9 3e 49 1b 3a bc
       -0.3969865 -0.08043663 0.36249518 -0.011359044
0001c0 23 0c 95 3e 25 ab 06 3f 70 fe ab 3d c7 2b c5 3e
       0.29110822 0.52604896 0.083981395 0.38509962
0001d0 60 69 05 3e 50 80 37 3d 3e 95 03 3f ed a7 a0 3e
       0.13028479 0.044800103 0.513996 0.31378117
0001e0 ca 45 b1 3e c9 71 e4 3e 35 21 9b be 17 27 4f 3e
       0.34623557 0.4461806 -0.30298772 0.20229755
0001f0 95 87 3a 3e 80 f3 01 3f b4 7b c2 bb f9 5a fa bd
       0.18215783 0.50762177 -0.0059351567 -0.12224383
000200 5c aa 92 3e aa 70 3e be 33 89 55 3e 4b e0 a2 3e
       0.286456 -0.18597665 0.20853119 0.31811747
000210 4e c3 55 3e 51 b9 e1 3c aa 5a c3 3e 4b 40 44 3c
       0.20875284 0.027554186 0.3815511 0.011978219
000220 37 74 a1 bd d0 dd 7b be 59 87 63 be 13 db 2d bf
       -0.07883494 -0.24596334 -0.222196 -0.67912406
000230 56 66 2f 3e 25 82 41 3e 29 3e d1 be 73 98 c9 3e
       0.17128882 0.18897302 -0.40867737 0.39374122
000240 d5 ef 6a 3d 69 d8 38 3d 6c 0d a2 3e 86 4a 37 3e
       0.057357628 0.04512826 0.31650865 0.17899522
000250 c9 b3 bd bd 8f dd c8 bd 99 16 3d be ef 01 18 3e
       -0.09262807 -0.09807884 -0.18465652 0.14844488
000260 63 2f 25 be e3 43 47 bf 05 8f 8a be b8 da 1f bd
       -0.16131358 -0.7783796 -0.2706224 -0.039026946
000270 c0 e7 41 3e 3d 93 c0 bd c4 e6 4d bd 43 c2 ba be
       0.18936062 -0.094030835 -0.050268903 -0.36476335
000280 cb f2 85 be d0 cc 9f 3d dc 4a 88 be 3a 8d 08 be
       -0.261618 0.07802737 -0.26619613 -0.13335124
000290 e2 45 27 be a5 65 37 be 40 5e 71 be 55 b9 1a 3e
       -0.16335252 -0.17909868 -0.2357111 0.15109761
0002a0 e6 ac 0f 3e 6e 41 15 39 cb d8 f2 bd 23 3e ce 3d
       0.140308 0.00014234122 -0.11857756 0.100704454
0002b0 52 f5 14 bd cd b4 21 bf 78 1c 75 bd 57 01 8e 3d
       -0.03636677 -0.63166505 -0.059841603 0.06933849
0002c0 ca 52 19 3e e7 ee d0 3b 09 ed 6b 3d 48 6a 6e bd
       0.14972988 0.0063761356 0.0575991 -0.058206826
0002d0 cd 42 f0 3c 05 3f 59 3e c8 a2 5e be 01 86 66 be
       0.029328728 0.21215446 -0.21741784 -0.22512056
0002e0 62 18 ea bd f2 6e d8 be 81 00 04 bd 86 59 cd be
       -0.11430432 -0.42272145 -0.032227043 -0.40107363
0002f0 45 2c 0e 3e f0 c4 dc 3c 52 2b f7 3d 27 fd 9b be
       0.13884075 0.026949376 0.120688096 -0.30466577
000300 cd 2b 84 bc 60 01 a9 3e 41 8f 84 bd 16 c0 2c 3e
       -0.016134167 0.33008862 -0.06472636 0.1687015
000310 32 93 f6 bd cc f4 62 bd 0f 8c da 3d 82 1d 6b 3e
       -0.12039794 -0.055409238 0.10671245 0.22960475
000320 6b ec ec be ac 3d 00 3e f3 d2 73 be ad 77 45 3d
       -0.46274123 0.12523526 -0.2381094 0.048209835
000330 60 22 82 be d1 9a 3e bd f8 05 d8 3d c0 25 a5 bd
       -0.2541685 -0.046534363 0.105480134 -0.08063841
000340 ff cb 1c 3e a0 0a 99 3e 23 d1 46 bd 45 7e 84 be
       0.15312193 0.2989092 -0.048539292 -0.25877586
000350 e6 bb 3f 3e 32 a3 b4 3e 7e b0 1d 3f e5 5a bf be
       0.18724021 0.35280758 0.6159743 -0.37374035
000360 6c c1 a4 3e 0e 3b b4 bd 2c 29 6b be 94 46 d6 be
       0.3217882 -0.08800326 -0.22964925 -0.41850722
000370 94 54 9a be 8b b6 e2 3e 44 ec 5c be 67 64 71 3f
       -0.30142653 0.44279894 -0.21574503 0.94293827
000380 24 10 77 be 2f d8 e6 3e 75 4e 4d 3f db aa 85 3c
       -0.24127251 0.4508681 0.8019784 0.016316822
000390 bb b3 3f be 21 61 5c 3f 1c 6a e1 3e c1 09 d0 be
       -0.18720905 0.86085707 0.44026268 -0.40632442
0003a0 99 18 46 3e 81 92 87 be f8 c9 8e be 7b 18 06 bf
       0.19345321 -0.2647896 -0.27888465 -0.52381104
0003b0 98 bd 15 3f 00 34 11 3f 0b 58 f7 be af 6c 82 3e
       0.5849242 0.5671997 -0.4830936 0.25473544
0003c0 4e 4e 0f bc eb c1 ba 3d dd 8a 0f 3e 48 bb d4 3a
       -0.008746697 0.09119018 0.14017816 0.001623013
0003d0 b7 d3 a6 3d ec 29 00 3e 2b 2a b0 be 3a 2d 28 3e
       0.0814585 0.12515992 -0.34407172 0.16423503
0003e0 2b 8f d6 3e fd 91 c6 3c b5 89 a6 bd 7d 15 d8 3e
       0.41906103 0.024239535 -0.08131734 0.42203894
0003f0 dc 91 66 3e a9 bb dd bd 1a 31 85 be b9 dc bd 3e
       0.22516578 -0.10826809 -0.26014024 0.3708246

result.0.bias f4 [10]
000000 03 6a d6 bc 3a 56 7d bb a9 d7 81 3d cb d4 df 3e
       -0.026173597 -0.0038656131 0.06339962 0.43717036
000010 95 2d 72 3e a2 98 a8 be 14 93 38 be ed 62 30 be
       0.236502 -0.3292895 -0.18024856 -0.17225237
000020 f6 2e 0e be 3c 41 aa 3d
       -0.13885102 0.08313224

validity.0.weight f4 [1, 1024]
000000 18 ee d2 ba 85 e0 1c bc 90 a3 13 bb 78 11 c2 3b
       -0.0016092686 -0.009575014 -0.002252791 0.0059224926
000010 11 cd d0 3b 51 63 40 bc 25 d7 37 3b 4a 8d 03 3b
       0.006372102 -0.011742429 0.002805182 0.0020073229
000020 05 ea 25 bc b9 ef 28 38 8b fc 3d 3b 30 aa 9d 3b
       -0.010126595 4.027758e-05 0.0028989639 0.0048115477
000030 f9 f5 fa 3b 0b d0 0f bc f2 e7 5b 3c 6d b2 34 3b
       0.0076587168 -0.008777629 0.013421999 0.002757217
000040 33 e4 13 3b a4 c7 67 ba 20 29 ad 3b 77 bd fe 3b
       0.0022566437 -0.00088416995 0.0052844435 0.007774051
000050 1c d9 22 3c 34 79 1b bc d0 84 6e 39 e8 ee a4 bb
       0.009939458 -0.009489346 0.00022746925 -0.0050333627
000060 54 d6 01 3c 41 83 da bb 3e c5 65 bb 23 6d f7 3b
       0.007924635 -0.0066684787 -0.0035060192 0.007550852
000070 16 7a 14 bc f3 54 d8 3a 67 9d ca b9 b3 77 9d bb
       -0.009062311 0.0016504809 -0.00038645716 -0.004805529
000080 a8 98 0e bc 09 72 00 bc d8 7e 8b 3a a7 f0 41 bc
       -0.008703388 -0.007839688 0.0010642661 -0.011837161
000090 a1 c0 40 b9 bf 01 9d bb 09 4f 9d 3b 8a 7b f9 3a
       -0.00018382307 -0.004791468 0.0048006815 0.001903401
0000a0 01 75 f0 b9 f4 9c e0 3b 99 e0 67 3b 46 ef c9 ba
       -0.00045863542 0.006854648 0.0035381673 -0.0015406392
0000b0 41 87 97 3b 6f 0f 73 3b 61 f7 35 b9 0e e9 da ba
       0.004624278 0.0037088057 -0.00017353661 -0.0016701536
0000c0 bf ef 16 39 56 56 b4 ba e6 7f e1 3a 78 1a d7 bb
       0.00014394427 -0.001375864 0.0017204254 -0.0065644346
0000d0 fd 06 cf 3b 3e 0e 90 bb 90 f6 36 3a 88 03 b6 bb
       0.0063179717 -0.004396229 0.00069794897 -0.00555462
0000e0 b5 bd 9c 3b fd 63 1f 3a 4c 80 b6 bb a8 ec 81 3b
       0.004783357 0.0006080268 -0.0055694934 0.003964979
0000f0 18 e6 26 3a 8c 91 42 bb 54 15 9f b9 31 7b 08 ba
       0.0006366684 -0.0029688803 -0.00030342734 -0.0005206345
000100 12 b9 ef b9 8c b4 86 bb 33 67 bd ba da c8 5e 3a
       -0.0004572352 -0.0041108783 -0.0014450311 0.0008498557
000110 1d e6 cd bb cc 13 a4 3c 5a 62 59 3b bd 34 30 3b
       -0.006283535 0.020028971 0.0033170194 0.0026886903
000120 e9 0e 00 bc 45 3a ae 3b 6e f6 59 ba 2f 66 2d 3b
       -0.007816055 0.005317005 -0.0008314614 0.0026458611
000130 cb 72 a7 bb 63 0e d8 3a ed fc 41 bc 0d 98 a4 3b
       -0.00511012 0.001648378 -0.011840087 0.0050230087
000140 da d9 3d 3c 6f e6 df 3b c4 2f 0a bc 56 5c 5e 3c
       0.011587584 0.0068328897 -0.00843424 0.013571819
000150 75 40 d8 b8 3c 6d 4d 3c be ff b3 bb d2 92 24 bb
       -0.00010311689 0.012538251 -0.0054931333 -0.0025111926
000160 51 85 9c 3b 59 f0 a5 ba 5a e5 12 bb 51 de 15 bc
       0.0047766347 -0.001266013 -0.0022414536 -0.009147243
000170 56 db c4 ba ee 79 04 bb b5 82 53 bb 19 ea 4e bb
       -0.001501898 -0.0020214277 -0.0032273952 -0.0031572639
000180 09 69 b6 ba 2c c8 46 39 ee a4 b1 bb fb b8 7d 3a
       -0.0013916801 0.00018957321 -0.0054212725 0.00096787483
000190 0e a0 20 bc a2 92 ff 3a bc 1b 60 3b 06 16 9a 3b
       -0.009803785 0.0019498656 0.0034196218 0.0047023324
0001a0 a2 2c e6 ba bd 89 8b 3a da 1a 39 3b 4a 8d 81 3b
       -0.0017560909 0.0010645908 0.0028244765 0.0039536105
0001b0 c8 f1 04 3b ce b7 f0 3a 65 57 c0 ba 05 2b 08 bc
       0.0020285714 0.0018365325 -0.0014674483 -0.008311038
0001c0 e3 f2 b2 bb a0 92 37 3c 31 f4 87 ba 9e 81 cf 3b
       -0.0054610833 0.011204392 -0.0010372457 0.0063325902
0001d0 31 80 bd 39 94 7c 04 bb b5 cf 25 3a 1d 6d 2c bb
       0.000361444 -0.0020215856 0.0006325201 -0.0026310154
0001e0 4a 10 b6 3a 20 ba 48 bb 04 5e a3 3b c2 f7 1c ba
       0.0013890353 -0.0030628517 0.004985573 -0.00059878465
0001f0 cb 8d 01 3c b1 29 f5 bb 5d 06 b4 bb d7 5d 80 3b
       0.007907341 -0.0074817766 -0.0054939226 0.0039174366
000200 82 c8 fc 3b 70 8a 9c 3b 6d fc d5 3b b6 84 61 3c
       0.007714332 0.004777245 0.0065303356 0.013764551
000210 e2 90 60 3b 69 d3 d2 bb bb f2 94 3b 9f 50 07 bc
       0.0034266044 -0.0064338935 0.0045455373 -0.008258968
000220 b3 92 19 ba 0c 13 90 bb 87 61 3b 3a 84 44 95 ba
       -0.00058583467 -0.004396802 0.00071480166 -0.0011388217
000230 97 a4 0d bb 1f 52 94 ba d5 01 bc bb c0 b1 ae 3a
       -0.0021612996 -0.0011315978 -0.005737523 0.001332812
000240 b0 88 81 39 6e 51 1f bc da aa de ba 02 39 d5 bb
       0.00024706637 -0.009724004 -0.0016988174 -0.00650704
000250 99 e7 cf 3b 07 80 af bb 02 84 d2 3a 44 c8 8c bb
       0.0063447473 -0.005355838 0.001606107 -0.0042963345
000260 6b 2f 9f 3a d0 c6 2c 39 32 b2 8f 3b 26 e3 98 bb
       0.0012144869 0.00016477262 0.004385256 -0.00466575
000270 7c ce 0d 3b b2 34 ba ba 4c 77 aa 3a be 38 11 3c
       0.0021637967 -0.0014206378 0.0013005524 0.008863626
000280 b5 fe b7 ba 3a d9 94 3b 3d f3 95 3a be ea e5 ba
       -0.0014037701 0.004542497 0.0011440289 -0.0017541272
000290 02 58 e8 bb c1 45 95 bb ad b4 a5 b7 f9 6d ba 3a
       -0.0070905695 -0.0045554345 -1.9753666e-05 0.0014223448
0002a0 4e 7f 29 bb e2 5b 63 bb 97 c2 84 ba 07 ee 51 3c
       -0.0025863233 -0.0034692218 -0.0010128793 0.012813098
0002b0 5a 8d 0b 3c 52 74 e5 ba 97 7d 34 bc 32 3f 79 3b
       0.008517588 -0.001750598 -0.011016271 0.0038032052
0002c0 48 e6 6e bb 6d 9c 3d 3b 97 04 8e 3a 7d 98 04 3c
       -0.0036453176 0.0028932348 0.0010835108 0.008092997
0002d0 14 b0 ca 3a e1 2a d0 bb f0 45 3d 3b 72 d8 97 bb
       0.0015463852 -0.006352768 0.0028880797 -0.0046339566
0002e0 6d 81 98 3b 55 5d db ba 74 1f 3d bb 5a dc ab 3a
       0.0046541006 -0.0016736189 -0.002885786 0.0013111935
0002f0 93 60 03 3c 19 8a 29 bc a8 9d 55 bb 8c 0f b9 bb
       0.008018631 -0.010347866 -0.003259519 -0.0056476053
000300 0d 1c b4 39 3d e8 6d bc 1d 5a 19 3b 31 03 c7 b9
       0.00034353175 -0.014520702 0.002339966 -0.00037958616
000310 19 f0 5f 3b 3d 42 c1 bb 2b f8 87 3a e9 24 f0 b7
       0.003417021 -0.005897789 0.0010373642 -2.8627417e-05
000320 29 eb 5e ba 17 d0 a3 3b 7e e4 30 bc 4e f1 91 3a
       -0.00085036695 0.0049991715 -0.010796664 0.0011134536
000330 a6 84 e1 3b 6b f3 cd 3b 10 3b 85 3b c6 54 ba ba
       0.006882268 0.006285121 0.0040658787 -0.0014215938
000340 4c 4f fd b9 4c 08 fb 3a ab 46 80 bb a8 c8 15 bc
       -0.00048315 0.0019152253 -0.0039146743 -0.009142078
000350 e9 af bf bb 16 95 f8 3a 65 0d 13 3c f1 ec af 39
       -0.0058498275 0.001896533 0.0089753615 0.00033555136
000360 b2 f9 91 ba db 22 bc 3b ee f5 a7 39 9e 95 42 3a
       -0.0011137037 0.00574146 0.00032035954 0.00074228074
000370 63 79 b3 bb c7 1f 04 3b 29 e7 b1 bb 33 94 0f 3c
       -0.005477117 0.0020160542 -0.0054291678 0.008763361
000380 8c be 33 3c b0 9a 38 bc 82 06 01 3b f9 b5 27 3c
       0.010970723 -0.011267349 0.0019687717 0.010236257
000390 6c 65 00 bb 36 5e 14 bc ed 5d 99 bb c9 03 be ba
       -0.0019591702 -0.009055665 -0.0046803863 -0.0014496978
0003a0 a1 81 0b 3c 6d 42 f9 39 02 52 c5 b9 27 54 ab bb
       0.008514793 0.00047542472 -0.0003763587 -0.0052285376
0003b0 e4 b6 8d bb 98 ec 82 3b 80 83 c8 39 92 b4 05 3c
       -0.004324781 0.0039954893 0.00038244948 0.008160727
0003c0 46 ce 86 ba 1e 48 49 bc f1 e2 d6 bb 5d 66 33 b9
       -0.0010284863 -0.0122852605 -0.0065578152 -0.00017108904
0003d0 d6 01 a8 ba ee 45 75 bb ad e4 33 bc 89 41 db 3a
       -0.001281793 -0.0037425715 -0.0109798135 0.0016727905
0003e0 4a e1 4e 3c e3 a9 15 3a 3f d3 ee 3a 6d 97 a1 ba
       0.012626955 0.0005709214 0.0018220915 -0.0012328454
0003f0 7c 28 1b 37 a1 13 52 3b 20 a9 8e bb 55 a2 3b 3c
       9.248146e-06 0.0032055157 -0.0043536574 0.011452277
